ERTSNet/new_arch_LA/Car/unconstrained_RTSNet.pt (torch, 66082 bytes, 64 tensors)

weight_ih_l0 f4 [12, 10]
0	0xbef4ee3e	-0.47838014
1	0x3e8c2dec	0.27378786
2	0x3e6f3ab3	0.23362236
3	0x3e29c687	0.16579638
4	0x3e89a240	0.268816
5	0x3df025e5	0.11725978
6	0x3e5a25f7	0.21303545
7	0x3d48b2f2	0.04899878
8	0xbed4532c	-0.41469705
9	0x3ed810b8	0.42200255
10	0xbaad3eab	-0.0013217529
11	0x3eb16b9c	0.34652412
12	0xbeab9562	-0.33512408
13	0xbe69bc79	-0.22825803
14	0xbdadbc75	-0.08483211
15	0x3eaed3c8	0.3414595
16	0xbef5dc44	-0.48019612
17	0x3d48412e	0.048890285
18	0xbee73d52	-0.4516397
19	0xbe8982e6	-0.2685768
20	0xbeaf3300	-0.34218597
21	0xbee40654	-0.44536078
22	0xbc3a1bd8	-0.0113591775
23	0x3ee68c78	0.45029044
24	0x3ebb4cdc	0.36582077
25	0xbe11d239	-0.1424035
26	0xbcfd9eb3	-0.030959463
27	0x3e8c5ef2	0.27416188
28	0x3e71a67b	0.23598664
29	0x3ec9ab3c	0.39388454
30	0x3cb8d236	0.022561174
31	0xbe145265	-0.14484556
32	0x3dd8e843	0.105911754
33	0xbdb1b095	-0.086762585
34	0xbd93c795	-0.072158016
35	0xbe87c3fa	-0.26516706
36	0xbd8a4e25	-0.06753186
37	0xbe907f48	-0.28222108
38	0x3d85efa9	0.06539852
39	0x3e1f4657	0.15554176
40	0x3eb5662a	0.35429507
41	0x3ee6ed5c	0.45102966
42	0xbeb2aab0	-0.3489585
43	0x3e27b1cf	0.16376422
44	0xbeda618e	-0.42652553
45	0xbe6b39bb	-0.22971241
46	0xbeccaa62	-0.39973742
47	0x3ef0dba4	0.47042572
48	0xbef09c36	-0.4699418
49	0xbea62902	-0.3245316
50	0xbe3313b5	-0.17487986
51	0x3ee00c9a	0.43759614
52	0xbee53420	-0.4476633
53	0xbe9b63f6	-0.30349702
54	0xbeef7ffa	-0.46777326
55	0xbe2c87f7	-0.16848741
56	0x3e858a30	0.2608199
57	0xbe5a933d	-0.2134523
58	0x3e492931	0.1964462
59	0x3e46f173	0.19428043
60	0x3d57e242	0.05270601
61	0xbd813710	-0.063093305
62	0x3ecc6662	0.39921862
63	0xbec9e88e	-0.39435238
64	0x3e1b2de3	0.15154223
65	0x3df117d5	0.11772124
66	0x3eae6084	0.3405801
67	0x3d619cce	0.05508118
68	0x3ed1754e	0.4090981
69	0xbeddc7ae	-0.43316406
70	0xbcb7488b	-0.022373458
71	0x3ea61392	0.32436806
72	0xbedeb332	-0.4349609
73	0x3e79f89f	0.24411248
74	0xbdd6e395	-0.104926266
75	0xbe41a89b	-0.18911974
76	0x3ece7744	0.40325367
77	0xbd183452	-0.03715927
78	0x3eaafe56	0.33397168
79	0x3e1c97f9	0.15292348
80	0x3d63b652	0.055593796
81	0x3e19c4b9	0.1501645
82	0xbdb0a9b5	-0.08626119
83	0x3ebd3ab4	0.3695885
84	0xbec3bf88	-0.38232064
85	0xbef32992	-0.47492653
86	0x3e59d2ff	0.21271895
87	0x3d8ead03	0.06966593
88	0x3ebdcff8	0.3707273
89	0xbefa4614	-0.4888159
90	0x3efde966	0.4959213
91	0x3ea42920	0.32062626
92	0x3e4b59df	0.19858502
93	0x3e9e1a72	0.3087955
94	0x3e9cbdb0	0.3061347
95	0x3ec1c084	0.3784219
96	0xbda10abd	-0.07863376
97	0xbdae2f6d	-0.085051395
98	0x3e9ce082	0.30640036
99	0x3d97de53	0.07415452
100	0x3e598749	0.21243013
101	0xbee1773e	-0.44036287
102	0xbd23aff2	-0.039962716
103	0xbe34551f	-0.17610596
104	0xbe944cea	-0.2896493
105	0x3ec4f860	0.38470745
106	0xbded4353	-0.11585107
107	0xbe8b3476	-0.27188462
108	0xbeeccbde	-0.46249288
109	0x3e98eba0	0.29867268
110	0x3c824c2b	0.01590546
111	0xbee224f0	-0.44168806
112	0x3ee31ec8	0.44359422
113	0xbef9efb6	-0.48815697
114	0xbec718aa	-0.38886005
115	0x3ecf3b28	0.4047482
116	0xbefb4ca0	-0.49081898
117	0xbec13950	-0.37739038
118	0xbe9c2c78	-0.30502677
119	0x3ef46b40	0.47738075

weight_hh_l0 f4 [12, 4]
0	0xbb4d86aa	-0.0031360784
1	0xbd80c857	-0.06288212
2	0x3eed9fbe	0.46410936
3	0xbc7b51a8	-0.015339293
4	0x3e54e0e5	0.20788915
5	0xbd1acbf2	-0.037792154
6	0xbe8bf056	-0.273318
7	0xbdcbb3fd	-0.099464394
8	0x3ea1c54c	0.31595838
9	0x3d519d2e	0.05117529
10	0xbe56061b	-0.20900767
11	0xbe9ac662	-0.3022948
12	0x3e697219	0.22797431
13	0x3c2c9a18	0.010534786
14	0x3e5381ed	0.20655032
15	0x3e343a8d	0.1760046
16	0xbeb9d882	-0.36297995
17	0x3ecdd9e6	0.40205306
18	0xbeb9712c	-0.36219156
19	0xbe1d45ef	-0.15358709
20	0xbebeec58	-0.3728969
21	0xbe339fbd	-0.17541404
22	0x3eb40b26	0.35164756
23	0xbed64baa	-0.41854602
24	0xbead22cc	-0.3381561
25	0x3ea0c0f4	0.31397212
26	0xbdbe695b	-0.09297439
27	0xbe385ceb	-0.18004195
28	0xbe8df9de	-0.27729696
29	0xbe1d70ff	-0.15375136
30	0x3d7b13a2	0.06129802
31	0x3db62dbd	0.08895443
32	0xbebe6b0a	-0.3719104
33	0x3ec61370	0.38686705
34	0xbe5e171f	-0.21688507
35	0xbe955532	-0.2916656
36	0x3ebf5fca	0.3737777
37	0xbe210c99	-0.15727462
38	0x3ec9306c	0.39294755
39	0xbe9b9e32	-0.3039413
40	0x3eaa4fc2	0.33263975
41	0xbee30582	-0.4434014
42	0x3ddf3a5b	0.10899802
43	0x3e9d3f9e	0.307126
44	0x3e5f7cb3	0.21824913
45	0x3eadff54	0.33983862
46	0xbef6990c	-0.4816364
47	0x3e619b27	0.22031842

bias_ih_l0 f4 [12]
0	0x3ec96502	0.39334875
1	0x3ebbb344	0.36660206
2	0x3ce2bdd5	0.02767841
3	0x3edb82ce	0.42873234
4	0xbed8db26	-0.42354697
5	0x3e8beac0	0.27327538
6	0xbd0a1174	-0.03370805
7	0x3db52b5d	0.088461615
8	0xbede1924	-0.43378556
9	0xbed7a714	-0.42119658
10	0xbe5c824b	-0.21534078
11	0x3e359b82	0.17735103

bias_hh_l0 f4 [12]
0	0x3ec2a836	0.3801896
1	0x3e312b8d	0.1730177
2	0x3effdb36	0.49971932
3	0xbe60405d	-0.21899553
4	0x3e87cf9e	0.26525587
5	0x3e5b101f	0.21392868
6	0xbec7cf80	-0.39025497
7	0xbee3f844	-0.4452535
8	0x3ebe41b8	0.37159514
9	0x3c039b6a	0.008032659
10	0xbed8735a	-0.42275506
11	0xbedb97a6	-0.42889136

weight_ih_l0 f4 [12, 14]
0	0x3ebbd824	0.3668834
1	0xbe1bf87f	-0.15231512
2	0xbe4fb3df	-0.20283459
3	0xbeb05f44	-0.34447682
4	0x3dded2d3	0.10880055
5	0x3e8d8576	0.27640885
6	0xbb3d4e73	-0.002888587
7	0xbd07cf3e	-0.033156626
8	0xba4c5a49	-0.0007795436
9	0x3c82dfb3	0.015975809
10	0x3eaf7314	0.34267485
11	0x3efd9414	0.49527037
12	0x3e4e0cb3	0.20122032
13	0x3effc7e8	0.49957204
14	0xbd17d07e	-0.037064068
15	0x3d929203	0.07156756
16	0xbe467ce3	-0.19383578
17	0xbeb144dc	-0.34622848
18	0x3e4450e1	0.19171478
19	0x3ec570c6	0.38562602
20	0xbd83e7de	-0.064407095
21	0xbc8e3fd4	-0.01736442
22	0xa1000d84	-4.3385975e-19
23	0xbe557e9d	-0.2084908
24	0xbe78e141	-0.24304678
25	0xbeb19b7c	-0.34688938
26	0xbe0a5cbb	-0.13511936
27	0xbef302c4	-0.47463048
28	0x3a9b3154	0.0011840262
29	0xbdbd01e5	-0.09228877
30	0x3dcd8f4b	0.100370966
31	0xbe467429	-0.19380249
32	0x3ed8be8e	0.42332882
33	0x3e98af42	0.2982121
34	0x39c9d106	0.00038493442
35	0xbeaae2bc	-0.3337611
36	0x33f6a3fd	1.1485097e-07
37	0xbe7258af	-0.23666643
38	0xbedca254	-0.43092597
39	0xbea7ff32	-0.32811886
40	0x3ef00246	0.46876734
41	0xbeb1b8f6	-0.34711426
42	0xbec9928a	-0.39369613
43	0xbda7e44b	-0.0819784
44	0x3d6f4b9c	0.058421716
45	0x3eab09fa	0.3340605
46	0x3d7423c2	0.059604414
47	0xbe825eaa	-0.25462848
48	0xbd41f527	-0.047352936
49	0x3e9996d8	0.29997897
50	0xa6112e72	-5.0369926e-16
51	0x3e000ee7	0.12505685
52	0x3ec7945e	0.38980383
53	0x3ebba396	0.36648244
54	0x3e2bcadf	0.16776608
55	0xbe8cbf5e	-0.27489752
56	0xbeb8356c	-0.35978258
57	0x3e1eeedf	0.1552081
58	0x3c660ee7	0.014041639
59	0x3e7a97bb	0.24471943
60	0xbdd25133	-0.10269394
61	0x3cacc68b	0.021090766
62	0x3cddcf78	0.027076468
63	0xbef05408	-0.4693911
64	0xbc855667	-0.016276551
65	0xbe2c5527	-0.16829358
66	0xbeeb33b2	-0.45937878
67	0xbecce856	-0.40021008
68	0x3ddef36d	0.108862735
69	0xbebf81bc	-0.37403667
70	0xbdc472db	-0.095922194
71	0x3d48c85e	0.04901921
72	0xbef5045a	-0.47854882
73	0xbea71554	-0.3263346
74	0x3ec5e0a0	0.38647938
75	0x3dc5949b	0.09647485
76	0xbc8be422	-0.017076556
77	0xbecddf12	-0.40209252
78	0x3cb0593c	0.021526925
79	0x3e9b263e	0.30302614
80	0xbeae11de	-0.33998007
81	0xbecb0268	-0.39650273
82	0x3d05bbd5	0.032649834
83	0x3ed34984	0.41267025
84	0x3bd9dfa9	0.006648977
85	0xbe9d3c10	-0.30709887
86	0x3ea1dea8	0.31615186
87	0xbe37a1f5	-0.17932875
88	0x3e83c3d4	0.25735343
89	0x3e8592b2	0.26088482
90	0x39339ea1	0.00017129864
91	0xbef12662	-0.47099596
92	0x20fbfbb6	4.2687622e-19
93	0x3e20bea5	0.15697725
94	0x3e5a9071	0.21344163
95	0xbe90d3f4	-0.28286707
96	0x3e37e797	0.17959438
97	0xbef17332	-0.471582
98	0xbef6f582	-0.48234183
99	0xbec30dce	-0.3809647
100	0x3ea05ea0	0.31322193
101	0xbe1c228d	-0.15247555
102	0x3da2191d	0.07914946
103	0x3e167d79	0.14696302
104	0x22bf3f3f	5.183762e-18
105	0xbe9287fc	-0.28619373
106	0x32155054	8.691206e-09
107	0xbeab6e3a	-0.33482534
108	0x3eb29ccc	0.34885252
109	0xbbf78656	-0.007553856
110	0xbecc6646	-0.39921778
111	0x3ad4aea4	0.0016226363
112	0xbeb3012e	-0.34961838
113	0x3e524819	0.20535316
114	0xbefa5c78	-0.48898673
115	0x3dfefed4	0.12450948
116	0xbeeb3132	-0.4593597
117	0x3dcd7ddb	0.10033771
118	0x3d23d12e	0.03999441
119	0x3e9a285c	0.30108917
120	0x3d0a6fbc	0.033797964
121	0xbe5591d5	-0.20856412
122	0x3d00a785	0.03140976
123	0xbe28c4b1	-0.16481282
124	0x3ee36f4a	0.44420844
125	0x3ebda33a	0.37038594
126	0x3e97d4c6	0.2965452
127	0xbd3f3912	-0.046685286
128	0xbeea9ea6	-0.45824164
129	0x3e7c0c3b	0.2461404
130	0xbe8c44b8	-0.27396178
131	0x3d7de9c2	0.061990507
132	0xaba90348	-1.2009083e-12
133	0xbe6d2e69	-0.23162235
134	0xb989e813	-0.00026303585
135	0xbd8450e9	-0.06460745
136	0x3e76f7c5	0.24117954
137	0x3ee9443e	0.45559877
138	0xbefba968	-0.49152684
139	0xbe1fe0c1	-0.1561308
140	0xbedf0570	-0.43558836
141	0x3e96dc80	0.29465103
142	0x3ec844bc	0.3911494
143	0x3ca4d575	0.020121315
144	0x3ef03162	0.46912676
145	0x3cc6f78b	0.02428796
146	0x3953cee2	0.00020199598
147	0xbe2016a7	-0.15633641
148	0xbd1474d3	-0.036244225
149	0xbef99840	-0.4874897
150	0x3e9bf1da	0.30457956
151	0xbe788f87	-0.24273501
152	0x3d8a7605	0.06760792
153	0xbee80b16	-0.45320958
154	0xbed10ff0	-0.40832472
155	0xbeb147c4	-0.34625065
156	0x3d7f1fe2	0.062286265
157	0x3e9ca4a2	0.30594355
158	0xbe2576eb	-0.16158645
159	0xbe6e1ce3	-0.23253207
160	0x379a43a2	1.8389725e-05
161	0x3e58cb11	0.21171214
162	0xbceb1a23	-0.028698986
163	0xbe4feacf	-0.20304416
164	0x3e71432d	0.23560782
165	0x3e8fcd1c	0.28086174
166	0xbec548d2	-0.3853212
167	0xbe1a23c3	-0.15052705

weight_hh_l0 f4 [12, 4]
0	0x3d177319	0.036975
1	0x3ec9c692	0.3940931
2	0x3ef47e54	0.4775263
3	0xb63376bb	-2.6742189e-06
4	0x3c38de31	0.011283443
5	0xbe5cd463	-0.21565394
6	0xbece59bc	-0.40302837
7	0xa5836ca3	-2.2798493e-16
8	0x3baa9007	0.0052051577
9	0x3c527f17	0.012847683
10	0x3ca7a7cb	0.020465752
11	0xb4067a13	-1.2524133e-07
12	0x26124657	5.0749254e-16
13	0xbe87c2d0	-0.26515818
14	0x3ef1b14e	0.47205585
15	0x26297c82	5.8802393e-16
16	0x254fb117	1.8014388e-16
17	0x3dc2d92d	0.09514079
18	0xbe131307	-0.14362727
19	0xa8e2d7aa	-2.518457e-14
20	0x3d189a71	0.03725666
21	0x3c9f1a36	0.019421678
22	0x3d6c2d82	0.057660587
23	0xb6f20ac5	-7.2134158e-06
24	0xad424110	-1.104207e-11
25	0x3ee3dd9c	0.44505012
26	0x3e82b84c	0.25531232
27	0xadab35d4	-1.9464354e-11
28	0x3abb55b9	0.0014292515
29	0xbe82c8e2	-0.25543886
30	0xbe5f521b	-0.21808665
31	0xb5b3c9be	-1.3395254e-06
32	0xbc967488	-0.018366113
33	0xbd83e10d	-0.064394094
34	0x3ea6876a	0.32525188
35	0x3d8f6a13	0.07002654
36	0x2529cc42	1.4727619e-16
37	0xbe9d7084	-0.30749905
38	0x3e87a978	0.26496482
39	0xbd620f10	-0.055190146
40	0x27b5b1dc	5.0430427e-15
41	0xbeb86ce2	-0.3602057
42	0xbe6b932b	-0.23005359
43	0x3c7a779c	0.015287306
44	0xbca712d2	-0.020394716
45	0x3be628ac	0.0070238914
46	0x3efa56f2	0.4889446
47	0xbc29968c	-0.010350835

bias_ih_l0 f4 [12]
0	0x3e247577	0.16060434
1	0x3e1b3219	0.1515583
2	0x3e0af2fd	0.13569255
3	0x3e10f43b	0.14155667
4	0xbe9fe774	-0.31231272
5	0x3e705ea3	0.23473601
6	0xbec802c6	-0.39064616
7	0x3ee574be	0.4481563
8	0x3dfc2e83	0.12313559
9	0xbeac6838	-0.33673263
10	0xbdfd7b33	-0.12377014
11	0xbe617bd7	-0.22019897

bias_hh_l0 f4 [12]
0	0x3d453392	0.048144884
1	0x3e59fca9	0.21287788
2	0x3e0c750d	0.13716526
3	0xbe3defd1	-0.18548514
4	0xbe700b63	-0.23441844
5	0x3bd77c57	0.0065761018
6	0xbe092f31	-0.13396908
7	0xbe974776	-0.29546708
8	0x3e129e7b	0.14318268
9	0xbec5bfe4	-0.38622963
10	0x3eae430c	0.34035528
11	0xbe10d6f3	-0.14144497

weight_ih_l0 f4 [12, 24]
0	0xb94398bd	-0.00018653549
1	0x3ed80f22	0.42199045
2	0xbe944a94	-0.2896315
3	0x3eb34614	0.35014403
4	0x3cffc432	0.031221483
5	0xba846b55	-0.0010102788
6	0xbe97d8e4	-0.29657662
7	0x3e9ddb46	0.30831355
8	0x3dd5fc45	0.10448507
9	0x3cfd00d3	0.030884182
10	0xbe3788f7	-0.17923342
11	0x3d95bff5	0.073120035
12	0x3eedfc6a	0.4648164
13	0x3ecfb572	0.4056812
14	0x3e694629	0.2278067
15	0xbeb60d4e	-0.35557026
16	0xbe82ddde	-0.25559896
17	0xbecb0a9c	-0.39656532
18	0xbd9bcc73	-0.07607355
19	0x3e160e9d	0.14654012
20	0x3e1a37b5	0.15060313
21	0xbd4ba862	-0.04972113
22	0x3d7ee444	0.06222941
23	0xbe3f9043	-0.18707375
24	0xa48359c4	-5.696426e-17
25	0xbebfea54	-0.37483466
26	0xbe3cb8b5	-0.18429835
27	0xbed77dcc	-0.42088163
28	0xbe8bd48e	-0.27310604
29	0x3d352272	0.044222303
30	0xbe129449	-0.14314379
31	0x3efa4a22	0.48884684
32	0x3ecd070e	0.40044445
33	0xbcc6262b	-0.024188122
34	0x3db1c15b	0.08679458
35	0x3eb6f25e	0.35731786
36	0x3e726713	0.23672132
37	0xbd64542e	-0.055744343
38	0x3eaf7898	0.34271693
39	0xbe7d157c	-0.24715227
40	0x3ddd5843	0.1080785
41	0x3ea733fc	0.32656848
42	0x3ed20296	0.41017598
43	0xbe18d765	-0.14925916
44	0xbe736039	-0.23767175
45	0xbe865fba	-0.2624491
46	0xbe42338d	-0.18964978
47	0x3ea5f392	0.32412392
48	0xac1d88e0	-2.2387023e-12
49	0xbd7a3d12	-0.061093397
50	0x3e41bfe1	0.18920852
51	0x3e33d1e5	0.17560537
52	0x3ce8d80f	0.028423337
53	0x3d40bf0e	0.047057204
54	0x3e8d5414	0.2760321
55	0x3e96bc30	0.2944045
56	0xbe529b23	-0.20566992
57	0xbe9d664e	-0.30742115
58	0xbe8f6104	-0.28003705
59	0xbca6e696	-0.020373624
60	0xbe818fa2	-0.25304896
61	0x3e270eb1	0.16314198
62	0xbe258353	-0.16163377
63	0x3e8cae1e	0.2747659
64	0x3e2c37e5	0.16818197
65	0xbe105317	-0.14094196
66	0x3ecc138e	0.3985867
67	0xbc1639a9	-0.009169021
68	0x3e1e0061	0.15429832
69	0x3ec8c4e6	0.39212722
70	0xbe863a32	-0.26216274
71	0xbe4c5a7b	-0.1995639
72	0xa645fda6	-6.8691863e-16
73	0xbd1f3992	-0.038873263
74	0xbe4d90ab	-0.20074718
75	0xbe140597	-0.14455257
76	0xbd5b5cd2	-0.053555317
77	0xbe0c9ab3	-0.13730888
78	0xbeb3b870	-0.35101652
79	0xbc9107d4	-0.017703928
80	0xbeaf59b4	-0.34248126
81	0x39f612ad	0.0004693469
82	0x3ed9378a	0.42425185
83	0x3ead2f02	0.33824927
84	0xbe8bfbc6	-0.27340525
85	0x3ee111be	0.4395885
86	0xbead738c	-0.33877218
87	0xbeea3d70	-0.45749998
88	0x3edbd144	0.42933095
89	0xbe1905db	-0.1494364
90	0xbe8fcb4e	-0.28084797
91	0xbe284cd7	-0.16435562
92	0x3e85cba4	0.26131928
93	0x3eb9d55c	0.36295593
94	0xbd2c96d2	-0.04213602
95	0x3e35e9a9	0.17764916
96	0xb3a333c9	-7.599699e-08
97	0xbec91e12	-0.39280754
98	0x3e17d153	0.14825945
99	0xbe3d2e25	-0.18474634
100	0x3e3fb0d5	0.187198
101	0xbef279a8	-0.4735844
102	0xbef6f6ea	-0.48235255
103	0x3dc9e5d3	0.098582886
104	0xbdefd1f3	-0.117099665
105	0xbeab3980	-0.33442307
106	0x3c5351a8	0.012897886
107	0x3eadcd40	0.33945656
108	0x3eb053f2	0.34439045
109	0xbe8630b6	-0.26209038
110	0xbe940a1c	-0.28913963
111	0xbe881e66	-0.26585692
112	0x3ef738bc	0.48285472
113	0x3ef8252e	0.48465866
114	0x3e86b4a6	0.263097
115	0x3d1bc142	0.038026102
116	0xbd85db09	-0.06535918
117	0xbe97c73c	-0.2964419
118	0xbef00d08	-0.46884942
119	0x3e0a4a29	0.13504852
120	0x2d8da322	1.610229e-11
121	0x3e0ce8d7	0.13760696
122	0xbbca7128	-0.00617804
123	0x3d1b38f2	0.037896104
124	0xbe2d28c5	-0.16910084
125	0xbeccd9b2	-0.40009838
126	0x3e878728	0.26470304
127	0xbef8c2b4	-0.48586047
128	0x3ed06b20	0.4070673
129	0x3e87496c	0.26423204
130	0x3eb164ae	0.34647125
131	0xbef0dfe0	-0.47045803
132	0x3cf55cf5	0.029951552
133	0xbe4b7285	-0.19867904
134	0xbd8f92db	-0.07010432
135	0x3ed5505e	0.41662878
136	0xbe181e39	-0.14855279
137	0xbeb6e63a	-0.35722524
138	0x3e2ad699	0.16683425
139	0x3ee56b00	0.44808197
140	0x3e006ff6	0.1254271
141	0xbecc8d94	-0.39951766
142	0x3ebbde40	0.36693
143	0x3dcf2f0b	0.101163946
144	0x21e1a394	1.5289892e-18
145	0xbd83f7e5	-0.064437665
146	0xbeb0e18e	-0.34547085
147	0x3ee41a50	0.44551325
148	0x3e15def9	0.14635839
149	0x3d5b3502	0.05351735
150	0x3e6ca6fd	0.23110576
151	0xbefef36c	-0.4979509
152	0xbe164c6d	-0.14677592
153	0xbed4f6fa	-0.41594678
154	0xbed0ee58	-0.40806842
155	0x3d5517ae	0.052024536
156	0x3e7ae23b	0.24500363
157	0xbe9a4ea8	-0.30138135
158	0xbed14588	-0.4087336
159	0xbea26c34	-0.31723177
160	0xbe9c84c8	-0.30570054
161	0x3ac1274e	0.0014736445
162	0x3ebd3532	0.36954647
163	0xbd838725	-0.06422261
164	0xbd6f585c	-0.058433875
165	0xbe515e1b	-0.20446055
166	0x3efc8b44	0.49325
167	0x3ef22ada	0.47298318
168	0x3d1569fa	0.03647802
169	0xbe9fbe32	-0.31199795
170	0xbecb09e4	-0.39655983
171	0x3ea5fd92	0.3242002
172	0x3ce5992e	0.028027143
173	0xbe1d76ab	-0.153773
174	0xbbce0da8	-0.006288249
175	0xbeb58a56	-0.35457104
176	0x3edf51e2	0.4361716
177	0x3e3200cd	0.17383118
178	0xbebf0c3c	-0.37314022
179	0x3ecdc73a	0.4019106
180	0xbcde32f5	-0.027123908
181	0xbe63294b	-0.22183721
182	0xbe2db241	-0.1696253
183	0xbe2e5f13	-0.17028455
184	0x3e0f0bc7	0.13969336
185	0xbec3b8aa	-0.38226825
186	0xbe01131d	-0.12604947
187	0xbe35446d	-0.17701884
188	0xbe2e5737	-0.17025457
189	0xbdaf3b93	-0.08556285
190	0x3ed6ae8a	0.41930038
191	0x3ebeb7b6	0.37249535
192	0x3d468c86	0.048473857
193	0xbd32bf4e	-0.043639474
194	0x3ea72980	0.3264885
195	0xbede4478	-0.43411613
196	0x3d4762d2	0.048678227
197	0xbd2476ee	-0.040152483
198	0xbe0bcda9	-0.13652672
199	0x3e92ec1e	0.28695768
200	0x3d123703	0.035696995
201	0x3ec0e1e0	0.3767233
202	0xbee7eea8	-0.45299268
203	0xbe9b89d2	-0.30378586
204	0x3e595feb	0.21227996
205	0x3ed549f2	0.41657978
206	0xbe8db69a	-0.27678376
207	0x3dc9dba3	0.098563455
208	0x3e4d7723	0.20064978
209	0x3d9636f3	0.073346995
210	0x3ec06ae6	0.37581557
211	0xbec2ae76	-0.38023728
212	0xbe9f26d2	-0.31084305
213	0x3c588268	0.013214685
214	0xbeb63248	-0.35585237
215	0xbeb9e336	-0.3630616
216	0xa55c350d	-1.9099933e-16
217	0x3e9095c6	0.28239268
218	0x3e93d7cc	0.28875577
219	0xbed267c6	-0.41094798
220	0xbdcbfabb	-0.099599324
221	0xbe5deafb	-0.21671669
222	0xbeee4532	-0.46537167
223	0xbd819ac1	-0.06328345
224	0x3bddc2a9	0.00676759
225	0xbe830dcc	-0.25596464
226	0xbf0011c7	-0.50027126
227	0xbede1462	-0.43374926
228	0xbe3d9e43	-0.18517403
229	0x3e88e334	0.26735842
230	0xbd1c23b2	-0.03811998
231	0x3ecb81c4	0.3974744
232	0xbe2d6b37	-0.1693543
233	0xbe925f18	-0.28588176
234	0xbcc8f136	-0.02452908
235	0xbee7b5de	-0.4525594
236	0xbea81b48	-0.32833314
237	0x3e2138ad	0.15744276
238	0x3eb0450c	0.3442768
239	0xbd4f60b2	-0.050629325
240	0x3965cf53	0.00021916376
241	0x3ed5fa44	0.417925
242	0x3e78d767	0.2430092
243	0x3e989948	0.29804444
244	0xbe63c1d1	-0.22241904
245	0x3e29bbe3	0.1657558
246	0x3e967e9c	0.2939347
247	0xbee2480c	-0.44195592
248	0x3ecc8348	0.3994391
249	0xbe4f7e39	-0.20262994
250	0x3e8db116	0.27674168
251	0xbe46b445	-0.19404705
252	0xbecf9d08	-0.40549493
253	0xbd0aef3e	-0.033919565
254	0x3c834cd3	0.016027844
255	0xbe775179	-0.24152173

weight_hh_l0 f4 [12, 4]
0	0x3d823375	0.06357471
1	0x3ecb0c7c	0.39657962
2	0xbc095398	-0.008381747
3	0xbea42988	-0.32062936
4	0xbe3cefd1	-0.18450858
5	0x3ec0fe14	0.37693846
6	0xbd558f22	-0.052138455
7	0xbe31c62a	-0.1736075
8	0x3edd7c78	0.43259025
9	0xbde4245d	-0.11139748
10	0x3dc0c6f3	0.094129466
11	0xbe90251c	-0.28153312
12	0x3e84ac14	0.25912535
13	0x3cede935	0.029041866
14	0x3ea678c8	0.32514024
15	0xbe11f637	-0.1425408
16	0x3d7596c2	0.059958227
17	0x3ef396b2	0.4757591
18	0xbee9ae8e	-0.45640987
19	0xbedfe386	-0.43728274
20	0x3e7f7fbe	0.24951074
21	0xbe23194b	-0.15927617
22	0xbea2eed6	-0.31822842
23	0x3ee84858	0.45367694
24	0x3d08b99e	0.033380143
25	0x3e89a2a0	0.26881886
26	0x3dc27b53	0.094961785
27	0x3eae44e0	0.34036922
28	0xbed95c6a	-0.4245332
29	0x3eb9f3d6	0.36318845
30	0xbeb53582	-0.35392386
31	0x3d84975d	0.06474183
32	0xbd802945	-0.062578715
33	0x3e0b0ce1	0.13579132
34	0x3e633211	0.22187068
35	0x3ebdb86a	0.3705476
36	0x3e10d05d	0.14141984
37	0x3ed7a506	0.4211809
38	0x3e6f5787	0.23373233
39	0xbbd7605a	-0.0065727653
40	0xbe0b1ed1	-0.13585974
41	0x3e4824a1	0.19545223
42	0x3e823d3e	0.2543735
43	0xbe2c2c31	-0.16813733
44	0xbe4b294b	-0.19839971
45	0xbefc5156	-0.49280804
46	0xbe97d238	-0.29652572
47	0x3e149669	0.14510502

bias_ih_l0 f4 [12]
0	0xbb04a7a8	-0.0020241532
1	0x3e36bf77	0.17846476
2	0xbe708f9b	-0.23492281
3	0xbe158b5b	-0.14603941
4	0xbdd892b5	-0.10574857
5	0xbe8887d0	-0.26666117
6	0xbea415d6	-0.3204791
7	0x3e74a3e5	0.23890646
8	0x3e9061ea	0.28199703
9	0xbeb1a46c	-0.34695756
10	0x3a8ecf59	0.0010895535
11	0xbe56de53	-0.20983247

bias_hh_l0 f4 [12]
0	0x3e947b72	0.2900043
1	0x3d222b92	0.039592333
2	0x3e9c61b0	0.3054328
3	0x3e893e9c	0.2680558
4	0xbdcedbe5	-0.10100535
5	0x3e359e47	0.1773616
6	0xbd9aff9b	-0.07568284
7	0x3c2df498	0.010617398
8	0xbef90430	-0.48636007
9	0xbe8ee496	-0.27908772
10	0xbddae99d	-0.106890894
11	0x3e485111	0.19562174

weight f4 [4, 4]
0	0x27b0b012	4.904071e-15
1	0x30ae3f17	1.2678097e-09
2	0x381d6bd6	3.7532147e-05
3	0x3c053d5c	0.008132305
4	0x3e835cb4	0.25656664
5	0x3db6d03d	0.08926437
6	0xbeb2f11a	-0.3494957
7	0xbe6f33bf	-0.23359583
8	0x3e825035	0.25451818
9	0xbed3c7b6	-0.41363305
10	0x3e264b77	0.16239725
11	0xbeeef4a2	-0.46671015
12	0x3d3b8e5e	0.04579007
13	0x3d1b8452	0.037967987
14	0xbed704bc	-0.419958
15	0x3e928dfc	0.2862395

bias f4 [4]
0	0xbb934e5e	-0.004495426
1	0x3d1b8d82	0.03797675
2	0xbdecfa2d	-0.11571155
3	0x3de8c745	0.11366133

weight f4 [320, 8]
0	0xbdd339b9	-0.10313744
1	0x3e8230cd	0.25427857
2	0x3ce8c4c9	0.028414147
3	0xbde30a50	-0.11085951
4	0xbddc7930	-0.10765302
5	0xbdce0119	-0.10058803
6	0xbe1ec7f9	-0.15505971
7	0x3ddfc85e	0.10926889
8	0x3e88d061	0.2672148
9	0x3e1319ee	0.1436536
10	0xbe0b1b49	-0.13584627
11	0xbe404cf5	-0.18779357
12	0x3e3e9963	0.186132
13	0x3d366005	0.044525165
14	0xbe3caab3	-0.18424492
15	0xbeb53597	-0.35392448
16	0x3d6a17e3	0.057151686
17	0xbccc2d55	-0.02492396
18	0xbdc6cf25	-0.097074784
19	0x3d7ee544	0.062230363
20	0x3eb1bc83	0.34714136
21	0x3b90b601	0.004416228
22	0x3e818271	0.2529483
23	0xbe66ae9f	-0.2252755
24	0x3eacfe17	0.33787605
25	0xbe03f80a	-0.12887588
26	0xbeb26ae9	-0.3484719
27	0xbe2f4ada	-0.17118397
28	0xbe59ecd8	-0.21281755
29	0x3df32a39	0.11873288
30	0x3e5ac9eb	0.21366088
31	0xbe70c66b	-0.2351319
32	0xbe710eaf	-0.23540758
33	0xbda1251a	-0.07868405
34	0x3e37904f	0.17926143
35	0xbead32a4	-0.33827698
36	0x3e92816f	0.28614375
37	0xbe5f30cb	-0.21795957
38	0x3e2273cf	0.1586449
39	0xbe52a5fb	-0.20571129
40	0xbb0c2e40	-0.0021389872
41	0x349ca527	2.9177428e-07
42	0xa02ba39d	-1.4538398e-19
43	0xb5dc11a8	-1.6396416e-06
44	0x2f15dad2	1.3629212e-10
45	0x3ad19ab8	0.0015991544
46	0xbc3405c6	-0.010987705
47	0xa514c934	-1.2905124e-16
48	0xab8cfe51	-1.0018185e-12
49	0xa785274a	-3.6957513e-15
50	0x251a05f9	1.3359394e-16
51	0xbbe61c06	-0.0070223836
52	0x22ef5b0e	6.4877488e-18
53	0x23a4b4e3	1.7857524e-17
54	0xb792625a	-1.7450355e-05
55	0xb8f8312e	-0.00011834722
56	0x3c591d3d	0.0132516
57	0xbe81089f	-0.2520189
58	0xbe9d174d	-0.3068184
59	0xbeab969a	-0.33513337
60	0xbdee8e38	-0.1164822
61	0x3e7b3a11	0.2453387
62	0xbe4fcfc7	-0.20294105
63	0xbe78addd	-0.24285074
64	0x3e131f3a	0.1436738
65	0xbe88165a	-0.26579553
66	0xbdcfa5c8	-0.10139042
67	0xbea76f73	-0.32702217
68	0xbe583495	-0.21113808
69	0x3e88c8b3	0.2671562
70	0xbe694dcc	-0.22783583
71	0x3ea06b59	0.313319
72	0x3e1784e9	0.14796795
73	0x3dd64704	0.10462764
74	0xbeae567b	-0.34050354
75	0x3dbc2212	0.09186186
76	0xbd30a350	-0.043124497
77	0xbde65e53	-0.1124846
78	0x3e8a664c	0.2703117
79	0xbdab617e	-0.083682045
80	0xbc038c24	-0.008029018
81	0xbe160d05	-0.14653404
82	0xbe72a9f9	-0.23697652
83	0xbe97e19a	-0.29664308
84	0xbe411897	-0.18857037
85	0xbeac3c4e	-0.3363976
86	0x3e3bc55f	0.1833701
87	0xbe2b752a	-0.16743913
88	0x3737393a	1.0920974e-05
89	0xa3208391	-8.701478e-18
90	0x2b8ee67e	1.0153681e-12
91	0x3b5d132b	0.0033733349
92	0xb50c7fc6	-5.234e-07
93	0x33c5517c	9.188349e-08
94	0x3c236691	0.009973184
95	0x3634d51f	2.6946143e-06
96	0xbdb70947	-0.089373164
97	0xbe24fee2	-0.16112855
98	0xbe6247ad	-0.22097655
99	0xbdd23f64	-0.10265997
100	0x3e1d14c3	0.15339951
101	0x3ccc4423	0.024934834
102	0x3d798eda	0.06092725
103	0xbeadd454	-0.33951056
104	0xba9067df	-0.0011017284
105	0x38bdd5e0	9.0520596e-05
106	0xbbcb1282	-0.0061972747
107	0x399fae0f	0.00030456527
108	0xb984af0c	-0.00025307422
109	0x3a5eaad6	0.00084940845
110	0xba960401	-0.0011445285
111	0xb79dcd34	-1.8811414e-05
112	0x3e843095	0.25818315
113	0xbea6546b	-0.3248628
114	0xbe7a58c0	-0.24447918
115	0xbea03282	-0.31288534
116	0x3d42d42f	0.047565635
117	0xbe5aa621	-0.21352436
118	0x3e898d89	0.26865795
119	0xbe367679	-0.17818631
120	0xbe734d22	-0.23759893
121	0x3e9f550e	0.3111958
122	0x3ea524f7	0.32254764
123	0xbe5c19ed	-0.21494265
124	0x3e7e1bf1	0.24815346
125	0x3e6d13bf	0.23152064
126	0x3d0c1de9	0.034208212
127	0xbd6a32e3	-0.057177436
128	0xbc43bb8d	-0.011946571
129	0x3e8c3291	0.2738233
130	0x3ea6be78	0.3256719
131	0x3e6d4561	0.23170997
132	0xbe834af9	-0.25643137
133	0x3e90d5a5	0.28287998
134	0x3e1ab1a0	0.15106821
135	0xbd247183	-0.040147316
136	0x3ea4e653	0.32206973
137	0x3d387c89	0.04504064
138	0x3d98ff14	0.07470527
139	0xbe947e31	-0.29002526
140	0x3e801ec1	0.25023463
141	0xbe135ebf	-0.14391612
142	0xbea8122e	-0.3282637
143	0xbcc10f94	-0.023566999
144	0x3e5fdce5	0.21861608
145	0xbca94a4f	-0.020665316
146	0x3e9005a0	0.28129292
147	0x3e1290c6	0.14313039
148	0xbe22e1d4	-0.15906459
149	0x3e228bef	0.15873693
150	0xbe093a55	-0.13401158
151	0x3e8ea373	0.27859077
152	0xbe6ec7fe	-0.23318478
153	0x3d91d8e2	0.07121445
154	0xbe2d89e0	-0.16947126
155	0xbead1a2a	-0.33809024
156	0x3dfd906a	0.123810604
157	0xbdbb0aeb	-0.09132942
158	0xbeab3444	-0.33438313
159	0x3da52204	0.080631286
160	0xbe9d260a	-0.30693084
161	0xbe95fdee	-0.29295295
162	0xbe334023	-0.17504935
163	0xbcdbdbd8	-0.026838228
164	0x3cb9eda8	0.022696331
165	0xbea8bb38	-0.32955337
166	0xbeb6da9e	-0.35713667
167	0xbe7c2eb7	-0.24627195
168	0xb3c71034	-9.269607e-08
169	0x38f8bef2	0.00011861128
170	0x2395f49a	1.6258205e-17
171	0x349cc0de	2.9197594e-07
172	0xbb94de4f	-0.004543103
173	0x395894b9	0.00020654769
174	0xa4e3eb64	-9.8844324e-17
175	0x24a1dec8	7.0200026e-17
176	0xbbae5488	-0.0053201355
177	0x3aaccd92	0.0013183823
178	0xb968a168	-0.00022185373
179	0xa76983a1	-3.2406602e-15
180	0xbba8a50f	-0.0051466296
181	0x3b2e79a7	0.0026622803
182	0x2520ac8d	1.393625e-16
183	0x34e5249b	4.2681208e-07
184	0x3ea43e10	0.320786
185	0x3d6d8e1c	0.057996854
186	0x3dbd9f9f	0.09258961
187	0xbdf2f771	-0.11863602
188	0xbeb7de06	-0.35911578
189	0xbea81a41	-0.3283253
190	0x3e83a89e	0.25714582
191	0xbe5905b7	-0.21193586
192	0x3c0784dc	0.008271422
193	0xbc0cf946	-0.008604353
194	0xbcb38820	-0.021915495
195	0x3b58e6d1	0.0033096562
196	0x3ce26917	0.027638001
197	0x3cc0a7da	0.023517538
198	0xbc3a316d	-0.011364323
199	0xbc92973c	-0.01789438
200	0xbde99c6d	-0.11406789
201	0x3e7f4044	0.24926859
202	0xbe10b543	-0.14131646
203	0x3db7e07d	0.089783646
204	0x3e987a51	0.2978082
205	0x3e40ffd3	0.18847589
206	0x3e7bda0f	0.24594902
207	0x3ddb303f	0.107025616
208	0xbd6f4183	-0.058412086
209	0x3eaa571c	0.33269584
210	0x3e8871c6	0.26649302
211	0xbc104513	-0.008805531
212	0xbd820a42	-0.06349613
213	0xbea74358	-0.32668567
214	0x3d917288	0.07101923
215	0x3e6e1eff	0.23254012
216	0x26de4f6f	1.5425875e-15
217	0x36a2391b	4.834624e-06
218	0x3ab2246c	0.0013591177
219	0x3b3deafb	0.002897917
220	0xa3ec42fe	-2.5615544e-17
221	0x398e4c0b	0.00027141007
222	0xa936eda6	-4.0618245e-14
223	0x3a925897	0.0011165318
224	0xbe5ceccd	-0.21574707
225	0x3de7997b	0.11308571
226	0xbe5bda59	-0.21470012
227	0xbdffb9d5	-0.124866165
228	0xbe02a1f2	-0.1275709
229	0xbe95eac7	-0.29280683
230	0xbde4aa17	-0.111652546
231	0xbe7d4386	-0.2473279
232	0xbd2f4b8c	-0.042796656
233	0x3e90912f	0.28235766
234	0xbdcef0ef	-0.10104548
235	0xbead2dc1	-0.3382397
236	0x3dc85c7a	0.097832635
237	0x3e0b7926	0.13620433
238	0x3e8bda0f	0.27314803
239	0xbe0c84b1	-0.13722493
240	0xbe875283	-0.2643014
241	0xbc81a70f	-0.01582673
242	0xbe806ef7	-0.2508466
243	0x3dc66f3a	0.096891835
244	0xbe39202a	-0.18078676
245	0xbd0b8054	-0.03405793
246	0x3db5118f	0.0884124
247	0xbd620990	-0.0551849
248	0x377494c4	1.45781705e-05
249	0x3c278d9b	0.0102266325
250	0xbc341fed	-0.01099394
251	0x3c830a73	0.015996194
252	0xa2d94c69	-5.889887e-18
253	0x362381b7	2.4364397e-06
254	0x302d4120	6.302958e-10
255	0xb8f0f1c0	-0.00011489121

bias f4 [320]
0	0x3e940ed4	0.28917563
1	0x3e3435f3	0.17598705
2	0x3eb5b3de	0.3548879
3	0x3e605622	0.21907857
4	0xbb778491	-0.0037768225
5	0xbc4f5fa1	-0.012657077
6	0xbb27e1da	-0.0025616796
7	0x3d90936a	0.07059367
8	0x3e7755bc	0.24153799
9	0x3e6b15b5	0.229575
10	0xbda15c10	-0.07878888
11	0xbc1e998e	-0.009680165
12	0x3d298163	0.04138316
13	0xbad3e265	-0.0016165493
14	0xbdb8758c	-0.09006795
15	0x3e1f985b	0.15585463
16	0x3dd3b431	0.10337103
17	0x3ea8196c	0.32831895
18	0xbd2f4277	-0.042787995
19	0x3e4a1ae9	0.19736828
20	0x3e2e5067	0.17022859
21	0xbc83cd19	-0.01608901
22	0xbba9c920	-0.0051814467
23	0xbdf5ea81	-0.12007619
24	0xbd7c7edf	-0.06164443
25	0xbbe50a60	-0.006989762
26	0x3df661bb	0.12030359
27	0xbc8f75f8	-0.017512307
28	0x3d468fc6	0.048476957
29	0x3e856245	0.26051536
30	0x3db6c79b	0.089247905
31	0xa416adea	-3.2673376e-17
32	0xa470dc69	-5.22284e-17
33	0xbe2b031b	-0.16700403
34	0xbe7f3c00	-0.24925232
35	0xbe5b2a98	-0.21402967
36	0xbabc282a	-0.0014355232
37	0x3e485837	0.19564901
38	0x3cc15d02	0.02360392
39	0x3e006407	0.12538157
40	0x3e8c2aa2	0.27376276
41	0xbda3e2d2	-0.08002247
42	0xba9c8e39	-0.0011944241
43	0xbc96730d	-0.018365407
44	0x3dee30d6	0.116304085
45	0x3e4d9ca5	0.20079286
46	0x3a9240d0	0.0011158232
47	0xbd0b616c	-0.034028456
48	0xbe4eec63	-0.20207362
49	0xbe5313c4	-0.20613009
50	0xbda5f50a	-0.08103378
51	0xbe40aec8	-0.18816674
52	0x3c1b1db4	0.009467531
53	0xbcb37104	-0.021904476
54	0x3d8989dd	0.067157485
55	0x3e99603f	0.29956242
56	0x3e2345b5	0.1594456
57	0x3e50201c	0.20324749
58	0x3e1b3a28	0.15158904
59	0x3d4953d9	0.04915223
60	0x3e7d14fe	0.24715039
61	0x3dad4fb8	0.08462471
62	0xbd969dca	-0.073543146
63	0x3e5d66e7	0.21621285
64	0x3e2eae5d	0.17058702
65	0x23e148fa	2.4425456e-17
66	0x3e80eb8c	0.25179708
67	0xbc72bbba	-0.014815265
68	0xbbf86b00	-0.007581115
69	0xbda019fa	-0.07817455
70	0x3e9a8e83	0.30186853
71	0x3e2d4d64	0.16924053
72	0x3ea8bc6f	0.32956263
73	0x3dd0ef34	0.102018744
74	0x3e0360ae	0.12829849
75	0xbd04addb	-0.032392364
76	0x3eb198e7	0.34686968
77	0xbe54d661	-0.20784904
78	0xbd907a13	-0.07054534
79	0x3e8ffc8b	0.28122362
80	0x3ead61eb	0.33863768
81	0x3dfb1164	0.122591764
82	0x3e2c0063	0.16797023
83	0xbc57c7d9	-0.013170206
84	0x3e6e65bb	0.23280995
85	0xbe3906df	-0.18069027
86	0xbd0eba37	-0.034845557
87	0x3e62f463	0.22163539
88	0x3e3ecfc4	0.18633944
89	0xbe0146aa	-0.12624612
90	0x3c9e8015	0.019348184
91	0x3e472345	0.19447048
92	0x3d19d182	0.037553318
93	0x3d06f669	0.03294984
94	0xbc20b512	-0.0098087955
95	0xbdad9956	-0.08476512
96	0xbbc2a744	-0.00594035
97	0xbc09bb1a	-0.008406425
98	0x3e9591b4	0.29212725
99	0xbc260fb6	-0.010135582
100	0x3eb6794c	0.35639417
101	0xbe705953	-0.23471574
102	0x3e2e2bc9	0.1700889
103	0x3d4a1a27	0.049341347
104	0xb8a356f3	-7.788641e-05
105	0x3c35b6f8	0.011090986
106	0x3e884944	0.26618397
107	0x3d54563f	0.051840063
108	0xbea04286	-0.31300753
109	0xbe193ea5	-0.14965303
110	0xbc1fd9b8	-0.009756498
111	0x3e8ff92e	0.28119797
112	0xbbd5a569	-0.0065199626
113	0xbea2b8f2	-0.31781727
114	0xbe29512f	-0.16534875
115	0xbc0fb538	-0.008771233
116	0x3e9b67dc	0.30352676
117	0x3ea91411	0.33023122
118	0x3dcfb2f8	0.101415575
119	0x3e2bb47b	0.16768067
120	0x3e1d7fd0	0.15380788
121	0x3e6b2f65	0.22967298
122	0xb70254c0	-7.768336e-06
123	0xbad8c223	-0.001653735
124	0x3e1b6172	0.15173891
125	0x3d783194	0.060594156
126	0xbc3f169c	-0.011663105
127	0xbd6f72b6	-0.058459006
128	0xbda3dfcb	-0.080016695
129	0x3ea4f3da	0.32217294
130	0x3dccc9e6	0.099994466
131	0xbd4e81ec	-0.050416872
132	0xbda60094	-0.08105579
133	0x3dee4f65	0.11636237
134	0xba359c78	-0.0006927918
135	0x3e7fa27f	0.24964331
136	0x3e8bdcb7	0.2731683
137	0x3d11d80d	0.035606433
138	0xbb52df01	-0.0032176378
139	0x3d7f79da	0.062372066
140	0x3e623483	0.22090344
141	0xbe8790e5	-0.26477733
142	0xbdee8846	-0.11647086
143	0x3e368985	0.17825897
144	0x3e66b075	0.2252825
145	0xbe9f2632	-0.31083828
146	0x3af76f85	0.001887784
147	0x3e919d36	0.28440255
148	0xbe959516	-0.29215306
149	0xbadd273b	-0.0016872654
150	0xbe1092ae	-0.14118454
151	0xbe00265b	-0.12514631
152	0x3d1309e4	0.035898104
153	0x3e878103	0.26465616
154	0x3d8ad339	0.06778569
155	0xbe3bcfd9	-0.18341006
156	0x3e5aa779	0.21352948
157	0xbbc31745	-0.0059537017
158	0xbbeda4ba	-0.007252303
159	0x3e41aa86	0.18912706
160	0x3e96b332	0.2943359
161	0x3da925ca	0.08259161
162	0xbe2b964e	-0.16756555
163	0x3e8767d1	0.26446393
164	0xbd04ae15	-0.03239258
165	0xbe2076de	-0.15670344
166	0x3e8f6cb8	0.28012633
167	0x3de89b8c	0.11357793
168	0x3da40808	0.08009344
169	0xbc8a99b6	-0.016918998
170	0x3e5c8c0b	0.21537797
171	0x3c708351	0.014679746
172	0x3e9e3df3	0.30906639
173	0x3ccfec15	0.025381127
174	0xbd308888	-0.043098956
175	0xbe6931af	-0.22772859
176	0xbc5cbb7f	-0.013472437
177	0x3dcf9189	0.101351805
178	0xbc7c0a3c	-0.015383299
179	0x3d0c6c45	0.03428294
180	0x3e9b4921	0.3032923
181	0xbc43cc1e	-0.011950521
182	0x3dd1baad	0.10240684
183	0x3e75981a	0.23983803
184	0xbcb49112	-0.022041831
185	0xb542e324	-7.2601165e-07
186	0xbd87b802	-0.066268936
187	0xbb77c66e	-0.0037807482
188	0x3bacdc20	0.0052752644
189	0xbc5b4ecb	-0.013385485
190	0xa4cd7e53	-8.911858e-17
191	0x3d9cc183	0.07654097
192	0x3c33184f	0.010931089
193	0x3b784099	0.00378803
194	0xbe8ab1c1	-0.2708874
195	0xbe2e4ba3	-0.1702104
196	0x3e2c2362	0.16810372
197	0x3b83e452	0.0040250206
198	0x3e4aa262	0.19788507
199	0xbc6995dd	-0.014256922
200	0xb9f0f0bb	-0.00045955725
201	0x3cb5f010	0.022209197
202	0xb6d2ec53	-6.2859995e-06
203	0x3de7a924	0.11311558
204	0xbbc7067f	-0.0060737724
205	0xbbca87ba	-0.0061807306
206	0xbbbcb9d4	-0.005759457
207	0x3d2765c1	0.040868524
208	0x3e9dc126	0.30811423
209	0xbb836076	-0.004009302
210	0xbc71dc57	-0.014762006
211	0xbe96a729	-0.29424408
212	0xb9a89928	-0.00032157567
213	0x3d9db66b	0.07700809
214	0x3d44273e	0.047888987
215	0x3e8b1839	0.27166918
216	0xbde7e8d9	-0.11323709
217	0xbc311a26	-0.010809457
218	0xbb9bf00a	-0.0047588395
219	0xbe548d3c	-0.20757002
220	0xbe3b2ae1	-0.18278076
221	0x3e36fd40	0.17870045
222	0x3eaac73c	0.3335513
223	0xbbfea3fe	-0.0077710142
224	0xbba1ed39	-0.004941609
225	0x3e959346	0.29213923
226	0x3d93a6b0	0.072095275
227	0xbb86902f	-0.0041065435
228	0x3da64d58	0.08120221
229	0xbead810a	-0.33887511
230	0xbb57f854	-0.0032954412
231	0x3d15329c	0.036425218
232	0x3d34f929	0.04418293
233	0xbe8f300a	-0.27966338
234	0xbdfca928	-0.123369515
235	0xbc50448d	-0.012711656
236	0x3e535297	0.20636974
237	0xbc40e228	-0.01177267
238	0x3cdfdb35	0.027326206
239	0x3df81d0d	0.12114916
240	0x3ea19bce	0.31564182
241	0xbe16463a	-0.14675227
242	0xbe04741e	-0.1293492
243	0x3d8c3dd4	0.0684773
244	0xbb864304	-0.0040973444
245	0xbe6efe14	-0.2333911
246	0xbdedd014	-0.116119534
247	0xbc626c5f	-0.013819783
248	0xbbe3b3c9	-0.0069489223
249	0xbcfd8ff6	-0.030952435
250	0x3e8c8a0a	0.27449065
251	0x3daad0c6	0.083406016
252	0x3d223284	0.039598957
253	0xbea0c5e9	-0.31400993
254	0xbc0ffa11	-0.008787648
255	0xbe53362f	-0.20626138

weight f4 [4, 320]
0	0x3ca874aa	0.020563442
1	0x3b889945	0.004168662
2	0x3c922e98	0.017844483
3	0x3dea4673	0.11439218
4	0xbd4672e9	-0.04844943
5	0x9f72bac8	-5.1399995e-20
6	0x33c6e465	9.261638e-08
7	0x3d77f8d3	0.06054003
8	0x3b0e376f	0.0021700521
9	0x3ca173b4	0.019708492
10	0xbd27fe76	-0.041014157
11	0xa4e25d32	-9.8169755e-17
12	0x3cb0c4ca	0.021578211
13	0x381a2637	3.675205e-05
14	0xbd0b077e	-0.033942692
15	0xbd30804b	-0.0430911
16	0xbb872eef	-0.004125468
17	0x3d1f7a7b	0.038935166
18	0xbb268917	-0.0025411302
19	0x3a957678	0.0011403104
20	0x3d7d599b	0.061853033
21	0x229f4bb0	4.3177174e-18
22	0xa3e6e5cb	-2.5033971e-17
23	0xbd30e190	-0.043183863
24	0xa4842b75	-5.7319494e-17
25	0x3d0e4196	0.034730516
26	0x3bdad32b	0.006678005
27	0x2316efc0	8.182285e-18
28	0xbbe0720c	-0.006849533
29	0x3c4e9d2c	0.012610715
30	0xbd12c1da	-0.035829403
31	0x22a0057c	4.3373894e-18
32	0xa251c848	-2.843081e-18
33	0xbd1a13a1	-0.037616376
34	0x3ce1afc0	0.027549624
35	0x3d17862f	0.0369932
36	0xb72162fe	-9.619396e-06
37	0xbbcd2975	-0.0062610456
38	0x3d229bdf	0.03969943
39	0x3d75832b	0.059939545
40	0x3cd412dd	0.025887901
41	0xbd2f6e87	-0.042830016
42	0xa388472d	-1.4775294e-17
43	0x3adafcca	0.0016707417
44	0x3d16b7f0	0.03679651
45	0xbe8734fb	-0.26407608
46	0x3d24d874	0.04024549
47	0xbbd2f9c1	-0.0064384644
48	0x3af9f4af	0.0019070114
49	0x3d4bda2e	0.04976862
50	0x3d320776	0.043464147
51	0xbd26053f	-0.040532347
52	0xbd1bd23e	-0.0380423
53	0x3d5c2ad2	0.053751774
54	0x3d3b0617	0.045660105
55	0x3b7199dd	0.0036865391
56	0x3b7731b9	0.0037718846
57	0xbc57d883	-0.013174179
58	0x3d3ca968	0.046059996
59	0x3d392083	0.04519702
60	0xbcb555a7	-0.022135569
61	0xbddf37c0	-0.10899305
62	0x3cadb35e	0.021203693
63	0x3ca37335	0.019952396
64	0x3c88739b	0.016656687
65	0xa41fa213	-3.461491e-17
66	0xbccc61ec	-0.024949037
67	0x24f06686	1.0425709e-16
68	0x3b42fa2a	0.002975116
69	0x3d305734	0.043051913
70	0x3d1bc8e5	0.038033385
71	0xbb5f75dd	-0.0034097352
72	0xbd11c9ba	-0.035592772
73	0x3c4ff221	0.012692005
74	0xbd35883f	-0.044319388
75	0x3d1862a6	0.037203453
76	0xba0b421a	-0.0005312279
77	0x3d5599f1	0.052148763
78	0xbd40a8f9	-0.047036145
79	0xbd23b141	-0.039963964
80	0x3c8ae285	0.016953716
81	0xbbd3b17f	-0.006460368
82	0xbe87a7b9	-0.2649515
83	0xbc7556d4	-0.014974315
84	0x3d0e723b	0.034776907
85	0x39c0fa13	0.00036807414
86	0xb5602f4d	-8.3515334e-07
87	0x3c9ffc9b	0.019529631
88	0xbd3feb99	-0.046855543
89	0xbd178fc1	-0.03700233
90	0x3c1af715	0.009458323
91	0xbc720852	-0.0147724915
92	0xbe135654	-0.143884
93	0x3d5a9fb3	0.053374957
94	0xa4768fcb	-5.3464544e-17
95	0xbc80823f	-0.015687106
96	0xa3e9310b	-2.5282681e-17
97	0x234c64e9	1.1080231e-17
98	0xbcb7b2a8	-0.022424057
99	0xaf8f847a	-2.610568e-10
100	0x3d514673	0.051092576
101	0x3d6c2b16	0.057658277
102	0xbd3f1cb4	-0.046658233
103	0x3c87173e	0.016490575
104	0x2466512c	4.9942055e-17
105	0xbc884b85	-0.016637573
106	0xbd337436	-0.043812
107	0x3d04fb69	0.032466326
108	0xbd164ac5	-0.0366924
109	0xbbf78f16	-0.007554899
110	0x252456d3	1.425415e-16
111	0x3ca25f94	0.019820966
112	0xa2c14252	-5.2382974e-18
113	0xbd6976bc	-0.056998
114	0xbd43d7fb	-0.047813397
115	0xa2dc154e	-5.9653677e-18
116	0xbd23a9da	-0.039956905
117	0xbc142b61	-0.009043545
118	0x3d0c530f	0.0342589
119	0xbd2b5435	-0.041828353
120	0xbd38b4f4	-0.045094445
121	0x3b54d92d	0.003247808
122	0xa3e4caf6	-2.4805767e-17
123	0x380efad5	3.4089044e-05
124	0xba281fd1	-0.00064134324
125	0x3c186228	0.009300746
126	0x2426f33d	3.6201543e-17
127	0x3d0f48fd	0.034981716
128	0xbc3b37e4	-0.0114269
129	0x3c6b588c	0.014364373
130	0xbc71df9c	-0.014762785
131	0x3ce4ef09	0.027946012
132	0x3d389649	0.045065198
133	0x3d3826fd	0.044959057
134	0xa375780b	-1.3306897e-17
135	0x3b9570e7	0.004560578
136	0x3d49e030	0.049286067
137	0xbb6661fd	-0.003515362
138	0xa47053be	-5.2112637e-17
139	0x3d043c53	0.032284092
140	0xbc32a37c	-0.0109032355
141	0x3cafc54e	0.021456387
142	0xbb80ac2b	-0.003926774
143	0x3c9bb7fd	0.01900863
144	0x3d7973f0	0.060901582
145	0xbd0f510a	-0.034989394
146	0x3c52463a	0.012834126
147	0x3d6419d3	0.05568869
148	0xbd28b65f	-0.041189548
149	0xbd9d5a75	-0.07683269
150	0xbd0bd517	-0.034138765
151	0xbbcc804c	-0.00624088
152	0xbbf15184	-0.0073644537
153	0xbcc2612d	-0.023727978
154	0x3c8ab361	0.016931238
155	0x3b8452b5	0.0040381798
156	0xbcd671b5	-0.026177267
157	0xa2aa4ba0	-4.6158663e-18
158	0x22458c9c	2.6772916e-18
159	0xbd47a291	-0.04873902
160	0xbd069e92	-0.03286607
161	0x3ce9e253	0.028550303
162	0x3d244ebd	0.040114153
163	0x3d76b539	0.06023142
164	0xbcb8a7e3	-0.022540992
165	0x3cd5fb03	0.026120668
166	0xbd3f2fb1	-0.04667634
167	0xbd3c9a58	-0.04604563
168	0x3cd98526	0.026552748
169	0xba859508	-0.001019151
170	0xbc3941aa	-0.011307159
171	0xbc881e80	-0.016616106
172	0xbc7794a4	-0.015111122
173	0xbbdea956	-0.0067950888
174	0x3cdf2da9	0.027243452
175	0x3c7e3e8f	0.015517845
176	0xa48f4693	-6.213592e-17
177	0xbe3727ce	-0.17886278
178	0xa3678e2a	-1.25526395e-17
179	0x3d89a6f9	0.06721301
180	0x3bd1f30a	0.0064071463
181	0x250af137	1.2051319e-16
182	0xbb286747	-0.0025696324
183	0xbcb4d9ba	-0.022076476
184	0x3c23a72f	0.00998859
185	0x251194ff	1.2627227e-16
186	0x3d1893c3	0.03725029
187	0xa4cbceb9	-8.838742e-17
188	0xbc635954	-0.013876278
189	0xa46437ec	-4.9486987e-17
190	0x2186eb02	9.142399e-19
191	0xbbf704c8	-0.0075384118
192	0xbd7d4481	-0.06183291
193	0xbc82e90a	-0.015980262
194	0x3ce034dc	0.027368955
195	0xbd36cce9	-0.04462901
196	0xbcad866d	-0.021182263
197	0xbcabe097	-0.020981116
198	0x3d0ff618	0.035146803
199	0xa5062e96	-1.1638431e-16
200	0x236986d6	1.2659508e-17
201	0x3d0bf431	0.034168426
202	0xa3ad1766	-1.8766607e-17
203	0xbc8e4e53	-0.017371332
204	0x25c84380	3.474021e-16
205	0xa3c02961	-2.0834206e-17
206	0xbae47d06	-0.001743228
207	0xbccf4799	-0.025302695
208	0x3d576978	0.052590817
209	0x3c88fc87	0.016721977
210	0x234dc794	1.11553346e-17
211	0x3d3ec21d	0.04657184
212	0xa558cb74	-1.8803946e-16
213	0x3ca99c0a	0.020704288
214	0xbca177cc	-0.019710444
215	0x3bca48e3	0.0061732396
216	0x3d602c4a	0.054729737
217	0xa4629894	-4.9135177e-17
218	0x3c98a631	0.018633934
219	0x3b2561f0	0.0025235377
220	0xbd4946a1	-0.049139623
221	0x3ce8ced6	0.02841894
222	0x3d4eee1d	0.05052005
223	0x212d91ea	5.8807796e-19
224	0x39e35467	0.000433597
225	0x3d5fcf26	0.05464091
226	0xbc9f1333	-0.019418335
227	0xb7931e9d	-1.7538021e-05
228	0xbd1d8d87	-0.03846505
229	0xbcf6b986	-0.030117761
230	0xa2036675	-1.780805e-18
231	0xbddbe56e	-0.107371196
232	0x3ce241ce	0.027619269
233	0x3c53bfae	0.012924118
234	0xb10a670a	-2.0140214e-09
235	0x3d317f39	0.04333422
236	0x3ba51e24	0.0050389934
237	0x3d185c24	0.037197247
238	0x3bdb6c66	0.0066962717
239	0xbd199cbc	-0.03750299
240	0x3d75ede4	0.060041323
241	0xacf9596e	-7.0869343e-12
242	0xbbb620aa	-0.005558093
243	0x3d49ac08	0.049236327
244	0xa4b681a6	-7.914955e-17
245	0x3d27b282	0.040941723
246	0xbcb6e0b9	-0.022323953
247	0x2448cdfd	4.3542566e-17
248	0xbcc85e56	-0.024459045
249	0x3c35cb06	0.011095768
250	0x3c8403c5	0.016115079
251	0x3c9da43f	0.019243358
252	0x3c0eabd8	0.008707963
253	0x3d4bbebb	0.04974244
254	0xa652342e	-7.2929103e-16
255	0xbd2f3ea6	-0.042784356

bias f4 [4]
0	0x3c0dfa88	0.008665688
1	0x3d12f0e1	0.03587425
2	0xbd1be016	-0.038055502
3	0xbd2676c6	-0.040640615

weight f4 [4, 8]
0	0xbe959ffe	-0.29223627
1	0x3ddcb27b	0.1077623
2	0x3cfde92c	0.030994974
3	0x3ce3ad0c	0.027792476
4	0xbe8150e8	-0.2525704
5	0xbd9a0d4e	-0.07522069
6	0xbdd69fde	-0.10479711
7	0xbea640f9	-0.32471445
8	0xbe9f2102	-0.3107987
9	0x3e13e680	0.14443398
10	0xbbf3f083	-0.0074444427
11	0x3eb78796	0.3584563
12	0xbe6bb060	-0.230165
13	0xbeac1dca	-0.33616477
14	0xbd97c552	-0.07410683
15	0x3ea712c0	0.32631493
16	0x38afbce4	8.379834e-05
17	0xa8d1d3f7	-2.3295586e-14
18	0x20b128d3	3.0011982e-19
19	0x2e04b742	3.017609e-11
20	0x3712e35b	8.7552135e-06
21	0xbc379f91	-0.011207477
22	0xbb4d8383	-0.0031358905
23	0xa59839fc	-2.6407089e-16
24	0xbc0d4cca	-0.008624265
25	0x3c53b1ea	0.012920836
26	0x3e8eb3ed	0.27871647
27	0x3e996feb	0.299682
28	0x3d4a8a31	0.049448196
29	0xbd2d81b2	-0.042360015
30	0x3e7b7dd6	0.24559721
31	0x3d199d87	0.037503745

bias f4 [4]
0	0x3e9e03ab	0.30862173
1	0x3e6f7d59	0.2338766
2	0xbc0b3bd9	-0.0084981555
3	0xbe88f114	-0.26746428

weight f4 [4, 8]
0	0xb9b56ed3	-0.0003460558
1	0xb526dac7	-6.215818e-07
2	0xba0aeded	-0.0005299736
3	0x2f91dd94	2.6532787e-10
4	0xbb050dbb	-0.0020302373
5	0x39ac8b17	0.00032910026
6	0xb508fabc	-5.1028815e-07
7	0xbb523a95	-0.0032078375
8	0x3e3dca6b	0.18534248
9	0xbe19040b	-0.14942949
10	0x3eb5e0da	0.3552311
11	0x3e9775b1	0.2958198
12	0xbdbaa65f	-0.09113764
13	0x3e9fe358	0.31228137
14	0x2dad69ae	1.9714754e-11
15	0x3dbb1e11	0.09136594
16	0xbe82c704	-0.25542462
17	0xbe163ba9	-0.14671196
18	0xbe25da06	-0.1619645
19	0xbbaa0d5c	-0.005189581
20	0xbe6564b5	-0.22401698
21	0x3e14ce08	0.1453172
22	0x2d8b770e	1.5855341e-11
23	0xbd992837	-0.074783735
24	0xbd945093	-0.07241931
25	0x3abf6ed0	0.0014605168
26	0xbdac0827	-0.083999924
27	0x3d4c874b	0.049933713
28	0xbdb90d15	-0.09035698
29	0x3df559ac	0.11979994
30	0x3c5e7ae3	0.013579103
31	0x38d37c94	0.000100844685

bias f4 [4]
0	0xb918595c	-0.00014529139
1	0xbd00ce47	-0.03144672
2	0x3e3a00a9	0.18164314
3	0xbd0f517b	-0.034989815

weight f4 [10, 2]
0	0xbe89c0ca	-0.269049
1	0xbf22706b	-0.63452786
2	0x3e2dac46	0.16960248
3	0x3f2644b4	0.6494858
4	0xbf0da1ff	-0.5532531
5	0x3e9cee03	0.3065034
6	0xbe4e32f7	-0.20136629
7	0xbe54930d	-0.2075922
8	0xbc5c744f	-0.0134554645
9	0xbebd890b	-0.37018618
10	0x3eebf426	0.46084708
11	0x3f2ee661	0.6832028
12	0x3f20ec3b	0.6286046
13	0xbeb0008d	-0.3437542
14	0x3f1ac539	0.6045719
15	0xbf2d2722	-0.67637837
16	0xbefb61e4	-0.49098122
17	0x3e8498d2	0.25897843
18	0xbd881a1f	-0.06645607
19	0xbf0e79b3	-0.5565445

bias f4 [10]
0	0x3e772147	0.24133788
1	0x3f0871cd	0.53298646
2	0xbe871167	-0.26380464
3	0xbe703e8c	-0.2346136
4	0xbe9c538b	-0.30532488
5	0xbd0afbbc	-0.03393148
6	0x3eb76333	0.3581787
7	0x3de0cb2b	0.10976251
8	0x3e3d0d17	0.18462025
9	0x3e38e279	0.18055142

weight f4 [10, 2]
0	0xbdd56ed0	-0.104215264
1	0xbeb4f511	-0.3534322
2	0x3ec7dbb0	0.39034796
3	0xbed790cb	-0.42102656
4	0xbb6ecac3	-0.0036436773
5	0xb11cd4b6	-2.28219e-09
6	0x3f23f00b	0.6403815
7	0xbf0016e1	-0.5003491
8	0x3dc1e19c	0.0946686
9	0xa6ab7588	-1.1897365e-15
10	0x3eb3f05b	0.35144314
11	0x3eaeb285	0.34120575
12	0x3e7721d5	0.24134
13	0x3df7fbdc	0.12108585
14	0xbf31225f	-0.6919307
15	0x3e8be401	0.2732239
16	0xbf16e662	-0.58945286
17	0x3f2d66f0	0.67735195
18	0x3f0abe28	0.54196405
19	0xbeba1ea3	-0.363515

bias f4 [10]
0	0x3f073981	0.5282212
1	0x3e186841	0.1488352
2	0xbdc7912d	-0.09744487
3	0xbe11f357	-0.14252983
4	0xbe18e489	-0.14930929
5	0x3e8de883	0.27716455
6	0xbe1504ba	-0.14552584
7	0x3f0342fb	0.5127408
8	0x3c328503	0.01089597
9	0xbf129670	-0.572608

weight f4 [20, 4]
0	0xbebf3d90	-0.37351656
1	0x3edd29ee	0.43196052
2	0x3ef6ec9a	0.48227388
3	0xbdd9df43	-0.10638287
4	0xbd9f34cd	-0.07773743
5	0x3ef4b5d2	0.47794968
6	0xbeb6720e	-0.35633892
7	0x3e2ac511	0.16676737
8	0xbc0ce2ea	-0.008599022
9	0xbe06da49	-0.13169207
10	0x3e499aa9	0.19687904
11	0xbeaec7e4	-0.3413688
12	0x3eb2b508	0.3490374
13	0xbefc47f2	-0.4927364
14	0x3eadb916	0.33930272
15	0x3e8f3fa2	0.27978235
16	0x3c041eea	0.008064011
17	0x3ea838e4	0.32855904
18	0x3e2ae819	0.166901
19	0xbef182e0	-0.47170162
20	0x3eb8d77a	0.36101896
21	0x3edc5828	0.43036008
22	0x3cd5d116	0.026100677
23	0xbdfc023b	-0.12305113
24	0x3ed8d1e4	0.42347634
25	0xbe444e1b	-0.1917042
26	0x3ed8aca8	0.42319226
27	0xbe4e2e07	-0.20134746
28	0xbe39b927	-0.18137036
29	0xbddc6b55	-0.107626595
30	0x3e0b32d3	0.13593607
31	0xbedeaf7c	-0.4349326
32	0x3d7d5732	0.061850734
33	0x3e14792d	0.1449935
34	0xbeed3840	-0.46331978
35	0xbe9dd3ba	-0.30825597
36	0x3e9e43b0	0.30911016
37	0x3ecb0bf8	0.3965757
38	0x3e0683e7	0.13136254
39	0x3ea51e94	0.32249892
40	0x3e57972d	0.21053763
41	0xbe38f795	-0.18063195
42	0xbd979fdb	-0.07403537
43	0x3da251c5	0.079257526
44	0xbcb7c76b	-0.022433957
45	0x3ef56608	0.47929406
46	0x3d0c8e94	0.03431566
47	0xbdfdc08a	-0.123902395
48	0xbeedb9a2	-0.4643069
49	0xbe97aa68	-0.29622197
50	0xbd0f6eae	-0.03501766
51	0x3c85de2b	0.01634129
52	0x3d7e5177	0.06208941
53	0xbe9e63e0	-0.30935574
54	0x3b9ec1a6	0.004844862
55	0x3e378371	0.17921235
56	0xbe3a50a1	-0.1819482
57	0xbebb2da6	-0.36558264
58	0x3ea4d45e	0.32193273
59	0x3cca6ff5	0.024711588
60	0x3e1d0d61	0.15337135
61	0xbd8fe1ed	-0.07025514
62	0xbe5a15ab	-0.21297328
63	0x3e04fd7b	0.1298732
64	0x3e7ebb12	0.24876049
65	0x3e83fa28	0.25776792
66	0xbede9cc6	-0.43478984
67	0x3e96d78e	0.2946133
68	0xbdef545d	-0.11686013
69	0x3e974b00	0.29549408
70	0xbc62ba56	-0.013838371
71	0x3e613783	0.21993832
72	0xbeca8fba	-0.3956278
73	0xbebc6c8a	-0.3680156
74	0x3cf45132	0.029823873
75	0xbea61948	-0.32441163
76	0x3e3dc959	0.1853384
77	0x3ee62b16	0.44954747
78	0x3ec1aa48	0.37825227
79	0xbe300c8f	-0.1719229

bias f4 [20]
0	0xbe4b0d5b	-0.19829313
1	0xbece1d30	-0.40256643
2	0xbe0967f3	-0.1341856
3	0x3ef67aa4	0.48140442
4	0x3e713acb	0.23557584
5	0x3ec70c9a	0.38876802
6	0x3eeacbd4	0.45858634
7	0x3e0ee00a	0.13952652
8	0x3db096b5	0.08622495
9	0x3eec3eda	0.46141702
10	0x3ca0e9cb	0.019642731
11	0x3e61e3b7	0.22059523
12	0x3e6f9e4b	0.23400228
13	0xbeb837bc	-0.35980022
14	0xbdd110c5	-0.10208277
15	0x3d56b2a2	0.05241645
16	0xbd87ddb2	-0.06634082
17	0xbe7c81af	-0.24658845
18	0x3ed7f738	0.421808
19	0x3eb7195a	0.3576153

weight_ih_l0 f4 [12, 10]
0	0xbea239f6	-0.31684846
1	0xbe994204	-0.29933178
2	0x3ed83a4c	0.42231977
3	0xbedbcb32	-0.42928463
4	0xbee7f616	-0.45304936
5	0x2c7513ee	3.4827657e-12
6	0xbac91951	-0.0015342628
7	0x3def4aa5	0.11684159
8	0xbe34bb57	-0.1764959
9	0xbef88184	-0.48536313
10	0x3ed23152	0.41053253
11	0x3ed3200c	0.41235387
12	0x3ec4a584	0.38407528
13	0xbe93fa92	-0.28902107
14	0x3eda88f0	0.426826
15	0x3bb2af7a	0.0054530473
16	0xbe75e667	-0.24013673
17	0xbe420ab3	-0.18949394
18	0xbed25608	-0.41081262
19	0xbe49688f	-0.19668792
20	0x3ea0bb24	0.31392777
21	0x3e24f951	0.16110732
22	0x3dc86b35	0.09786073
23	0xbe701807	-0.23446666
24	0xbdb4a2b3	-0.08820095
25	0x3c3c4425	0.011490856
26	0x3d0b812e	0.034058742
27	0xbe29539f	-0.16535805
28	0xbf001b64	-0.50041795
29	0x3d13e74e	0.03610926
30	0xbec2bcb6	-0.380346
31	0xbeba8eae	-0.3643698
32	0xbea4e92c	-0.32209146
33	0xbdcc726d	-0.099827625
34	0x3ef41910	0.4767537
35	0xbce69615	-0.028147737
36	0x3e85eeb6	0.26158684
37	0xbe76183d	-0.24032684
38	0xbefb5988	-0.49091744
39	0x3e5cca27	0.2156149
40	0x3ef68b8e	0.48153347
41	0x3ee56fca	0.4481185
42	0x3ec7f484	0.39053738
43	0x3e8c28be	0.27374834
44	0x3ebae672	0.3650394
45	0x26e33b0d	1.5767295e-15
46	0x3ef4d62c	0.4781965
47	0xbea2a256	-0.31764477
48	0x3eb7142c	0.35757577
49	0x3ef4c008	0.47802758
50	0x3e8561bc	0.26051128
51	0x3e994f18	0.29943156
52	0xbb9c2a57	-0.0047657895
53	0x3e8f2a6c	0.27962053
54	0xbd00f266	-0.03148117
55	0xbbc70064	-0.0060730446
56	0xbf010d6a	-0.50411093
57	0xbe769a43	-0.24082284
58	0x3eeb1d04	0.45920575
59	0xbeb2de0a	-0.34935027
60	0x3e76073f	0.24026202
61	0x3a0fb2b1	0.0005481644
62	0x3e419b95	0.18907006
63	0xbedd417a	-0.43214017
64	0x3e84cf70	0.25939512
65	0x2516c5d1	1.3077449e-16
66	0xbd3c4402	-0.045963295
67	0x3dce20fd	0.10064886
68	0xbe9a36fe	-0.3012008
69	0xbe64cb55	-0.2234319
70	0xbda9c93d	-0.08290336
71	0xbe8d168a	-0.27556258
72	0x3dc4b1cb	0.09604224
73	0xbe037a61	-0.12839653
74	0x3eb56fc6	0.3543684
75	0x3320ecf2	3.7468403e-08
76	0xbdd9fbbd	-0.106437184
77	0x3ea13334	0.31484377
78	0x3e9b5486	0.30337924
79	0xbeca948a	-0.3956645
80	0x3e960116	0.29297704
81	0x3c04e6ea	0.008111695
82	0x3e7560c9	0.23962702
83	0x3e4a5285	0.19758041
84	0x3ec20dda	0.37901193
85	0x3d8583b7	0.06519263
86	0x3e98a3be	0.29812425
87	0x3eb64516	0.35599583
88	0xbe323f7b	-0.17407028
89	0x3ea0f4e4	0.31436837
90	0xbcb911eb	-0.022591552
91	0x3d654a32	0.05597896
92	0x3f0105dd	0.5039957
93	0x3ee9cbca	0.4566329
94	0xbebb6b56	-0.36605328
95	0x3b3aec9e	0.0028522382
96	0xbe9b529e	-0.3033647
97	0x3e92bad4	0.28658164
98	0x3cad2bf5	0.021139124
99	0xbecf0b62	-0.40438372
100	0xbcdd71ed	-0.027031863
101	0x3d925e0b	0.071468435
102	0x3e3df57f	0.1855068
103	0x3eda4612	0.42631584
104	0x3da0671b	0.07832166
105	0xbd1f6735	-0.038916785
106	0xbe9c566c	-0.30534685
107	0x3e3a7a5f	0.18210743
108	0xbe99e346	-0.30056208
109	0xbecccb3a	-0.399988
110	0xbe3c0d37	-0.18364416
111	0x3ea0faa4	0.31441224
112	0xbdcbe47d	-0.0995569
113	0x3d45c892	0.048286982
114	0xbed47120	-0.41492558
115	0xab90f7d8	-1.0300606e-12
116	0xbeb5e3d2	-0.35525376
117	0xbd01aa36	-0.031656466
118	0xbeb2af6c	-0.3489946
119	0xbed32d02	-0.41245276
