ERTSNet/best-model.pt (torch, 65570 bytes, 64 tensors)

weight_ih_l0 f4 [12, 10]
-0.44321054 0.42989194 -0.1364596 -0.47537613 -0.3208242 -0.36409956 -0.36769456 0.04698399
-0.34412205 -0.3894371 -0.032770943 -0.37428293 -0.2767638 -0.23485364 -0.4632026 0.25890332
-0.28098205 0.10317051 -0.48537433 -0.23228753 0.32417727 0.36075047 -0.46763766 -0.49509716
0.09046899 -0.30735412 -0.0727232 0.44775856 -0.20848411 0.39563805 0.44156143 0.39465427
-0.4097474 0.06602551 -0.38812742 0.049620423 0.059091322 0.31350985 -0.35901594 -0.4847406
0.26257262 -0.21663153 -0.036758464 0.24319082 -0.270303 -0.024411084 -0.35601333 -0.010913142
0.24851865 0.40039477 0.44722652 0.30660498 0.3542947 0.34245276 0.29283354 -0.2632852
-0.32136393 -0.4392615 0.41807163 -0.19825791 -0.012297798 -0.31953818 -0.02806626 0.1218517
-0.41160443 -0.4691216 0.21968144 -0.31076062 -0.26971716 -0.17055574 -0.042284932 0.16064438
-0.26112726 0.063910484 -0.10603363 0.034984358 0.47120908 -0.4895975 0.034872185 -0.3798575
0.29782024 -0.37356693 -0.4098897 -0.14560574 -0.20082071 0.42924497 -0.2909745 -0.40391496
0.05673509 -0.45376784 0.29473412 0.016618138 0.18515049 -0.064660616 -0.33797586 0.35008627
0.47235084 -0.015366267 -0.3416733 0.01894002 -0.27956158 -0.41135412 0.3026237 -0.36496466
0.116981864 0.07280517 0.23500283 0.35973293 -0.49482632 -0.036632944 -0.21195823 -0.020565368
-0.41951454 -0.027058244 0.38941404 -0.22652088 -0.06160528 -0.15666379 -0.38451898 0.16703403
00000000: 7eec e2be cc1a dc3e 11bc 0bbe 8064 f3be
00000010: 1243 a4be 426b babe 7642 bcbe 4972 403d
00000020: c430 b0be 4d64 c7be d33a 06bd 03a2 bfbe
00000030: fcb3 8dbe 797d 70be e428 edbe fa8e 843e
00000040: e1dc 8fbe 0f4b d33d fc82 f8be c8dc 6dbe
00000050: 90fa a53e 49b4 b83e 346e efbe 607d fdbe
00000060: ce47 b93d 855d 9dbe e7ef 94bd 9c40 e53e
00000070: dc7c 55be 1291 ca3e 5714 e23e 2010 ca3e
00000080: 69ca d1be 6238 873d a3b8 c6be c93e 4b3d
00000090: be09 723d 5d84 a03e f0d0 b7be ec2f f8be
000000a0: eb6f 863e a8d4 5dbe 0b90 16bd 0407 793e
000000b0: 2865 8abe c1f9 c7bc 6147 b6be 09cd 32bc
000000c0: ac7b 7e3e 8b00 cd3e e0fa e43e 54fb 9c3e
000000d0: 1d66 b53e f855 af3e 47ee 953e 51cd 86be
000000e0: d089 a4be e2e6 e0be 7c0d d63e 1f04 4bbe
000000f0: b47c 49bc 829a a3be 37eb e5bc 628d f93d
00000100: d1bd d2be b530 f0be 2cf4 603e 041c 9fbe
00000110: 5e18 8abe 2aa6 2ebe f732 2dbd f67f 243e
00000120: 79b2 85be 80e3 823d 2928 d9bd c24b 0f3d
00000130: 5142 f13e 86ac fabe 23d6 0e3d af7c c2be
00000140: e57b 983e 2a44 bfbe 10dd d1be ac19 15be
00000150: f2a3 4dbe ffc5 db3e 9cfa 94be f1cd cebe
00000160: 0e63 683d 4254 e8be 64e7 963e c322 883c
00000170: 1798 3d3e c96c 84bd 2c0b adbe 823e b33e
00000180: f8d7 f13e ccc2 7bbc ceef aebe 1a28 9b3c
00000190: b222 8fbe 029d d2be 7ef1 9a3e a6dc babe
000001a0: 3094 ef3d e11a 953d 95a4 703e ea2e b83e
000001b0: e059 fdbe 6d0c 16bd 940b 59be b478 a8bc
000001c0: 9cca d6be 40a9 ddbc 4761 c73e 17f5 67be
000001d0: d155 7cbd 796c 20be acdf c4be f80a 2b3e

weight_hh_l0 f4 [12, 4]
0.018542353 -0.09347591 0.18398651 -0.22598511 0.041319434 0.43964532 0.021761466 -0.33048028
0.12663972 0.38401476 0.06627892 0.13214403 0.3522522 0.074744344 0.055181388 -0.13813992
0.16659717 0.05769518 -0.23733158 0.16225722 0.23296236 -0.42223763 0.11946556 -0.41021052
0.06447447 0.31931475 -0.3849572 0.31742367 -0.1898467 -0.28800535 0.20530793 -0.050836567
0.3463836 0.17329922 0.42381406 0.33781907 -0.03924935 -0.082525074 0.008539826 0.3992718
0.4855373 -0.076842606 0.27705064 0.26099813 0.35382438 0.13446546 0.055835094 -0.013426798
00000000: 22e6 973c 4c70 bfbd f666 3c3e a468 67be
00000010: 913e 293d 3119 e13e 1a45 b23c b634 a9be
00000020: d8ad 013e 959d c43e 3ebd 873d c450 073e
00000030: 665a b43e 9013 993d e105 623d 8d74 0dbe
00000040: 7398 2a3e c851 6c3d 0d07 73be c226 263e
00000050: af8d 6e3e 882f d8be 5caa f43d 1d07 d2be
00000060: 310b 843d 397d a33e 1c19 c5be 5b85 a23e
00000070: 2c67 42be 7075 93be 3e3c 523e 013a 50bd
00000080: 3159 b13e 5a75 313e 28fe d83e 9ff6 ac3e
00000090: edc3 20bd e802 a9bd a0ea 0b3c 5a6d cc3e
000000a0: 5898 f83e a85f 9dbd 95d9 8d3e 8ca1 853e
000000b0: 7828 b53e 50b1 093e 57b3 643d 13fc 5bbc

bias_ih_l0 f4 [12]
-0.17301536 0.46999687 0.17261648 -0.20597811 -0.19814359 -0.13889603 -0.12307387 -0.1283581
-0.31661087 -0.30171776 0.4346676 0.0070539042
00000000: f02a 31be 6ea3 f03e 60c2 303e edeb 52be
00000010: 27e6 4abe c33a 0ebe 270e fcbd 4e70 03be
00000020: d21a a2be c07a 9abe c08c de3e 7024 e73b

bias_hh_l0 f4 [12]
0.43647546 0.4550078 -0.4984538 -0.052213922 0.33087367 0.42054006 0.08205194 0.3012484
-0.26112908 -0.28093594 -0.16072093 0.4748559
00000000: b679 df3e c8f6 e83e 5635 ffbe 44de 55bd
00000010: 4668 a93e 0751 d73e d90a a83d 3b3d 9a3e
00000020: b6b2 85be d6d6 8fbe 0794 24be 5020 f33e

weight_ih_l0 f4 [12, 14]
0.394094 0.10930355 0.23044722 -0.42416003 -0.2746194 0.26041177 -0.34424493 0.043746244
-0.070713565 0.30734336 -0.349324 0.2864669 0.10508058 -0.22676858 0.12344878 0.33134866
-0.1859463 -0.29957184 0.14986967 -0.42348668 0.371321 0.3601111 0.31499198 -0.2053064
0.26924142 0.2809977 -0.11817727 -0.17202161 0.13204181 0.332952 0.46608186 0.3314824
-0.08404926 -0.15996857 -0.09627527 -0.110931575 0.48617536 -0.43143404 -0.18959701 -0.43949556
-0.044190764 -0.041219857 0.019998616 -0.050572768 -0.35104045 -0.36402762 -0.34383053 -0.46983328
-0.10118448 -0.37098533 -0.2974457 -0.20291212 0.4032309 0.28355926 -0.035816018 0.42226177
0.28452975 0.04253751 0.12789364 -0.22914757 0.21053329 0.21265832 -0.44840398 0.033701614
-0.15136757 0.29794756 0.084435776 0.015537211 0.40375504 -0.35983276 0.32729512 0.103761815
-0.06832305 -0.37023228 -0.19111007 -0.44944924 0.0664407 -0.49055976 -0.24229719 -0.10660786
-0.15568912 0.235027 -0.04094256 0.101216435 -0.23907737 0.2847466 0.13850638 -0.113671415
0.41361403 -0.32737282 0.06347137 -0.14174534 -0.057897158 0.20963657 -0.40643084 0.29665163
0.088178866 0.030146575 0.17713785 -0.18562683 -0.4456149 0.27690136 -0.03247413 0.168094
0.447328 -0.4891072 -0.282637 0.10672591 0.27624154 -0.20018722 0.23736924 0.43624306
-0.44207448 -0.40236366 0.3406977 -0.07460821 -0.15153009 -0.4107764 -0.22425288 0.47549635
0.27777427 -0.052650284 -0.16747743 0.3879491 0.264201 0.29937568 -0.21098186 -0.27145857
0.30453816 0.47655767 -0.043747894 -0.022616787 -0.4728858 0.37114513 0.12715323 -0.38120306
-0.106345944 -0.3774097 0.34774262 -0.0019210512 -0.004684615 -0.10760515 -0.14731073 0.3314883
-0.07927633 -0.4779095 0.104687735 -0.3627473 0.17316632 -0.22732617 0.37554854 -0.09895967
-0.37334675 -0.088953435 -0.037296224 0.3226217 -0.32375056 -0.026404668 -0.38918972 0.486772
-0.051878523 0.42966074 -0.38330948 0.18267374 -0.17776747 0.39290655 0.31194663 -0.2599569
00000000: b0c6 c93e 8ada df3d 5bfa 6b3e 812b d9be
00000010: ea9a 8cbe b154 853e df40 b0be 432f 333d
00000020: 46d2 90bd 1c5c 9d3e 98da b2be caab 923e
00000030: 7d34 d73d 0636 68be b7d2 fc3d 88a6 a93e
00000040: b568 3ebe 7b61 99be 6f77 193e 3fd3 d8be
00000050: c91d be3e 7b60 b83e a146 a13e d73b 52be
00000060: 03da 893e eede 8f3e ed06 f2bd 6f26 30be
00000070: f835 073e af78 aa3e 48a2 ee3e 10b8 a93e
00000080: 0522 acbd cdce 23be f82b c5bd 1830 e3bd
00000090: faeb f83e ece4 dcbe b825 42be 9005 e1be
000000a0: 6001 35bd 27d6 28bd 23d4 a33c 6425 4fbd
000000b0: 93bb b3be d461 babe 8e0a b0be fd8d f0be
000000c0: cf39 cfbd caf1 bdbe ce4a 98be 32c8 4fbe
000000d0: 4874 ce3e ae2e 913e d1b3 12bd b232 d83e
000000e0: e2ad 913e d03b 2e3d 8df6 023e a9a5 6abe
000000f0: 0a96 573e 1ac3 593e 3595 e5be b40a 0a3d
00000100: 1a00 1bbe 958c 983e aaec ac3d c98f 7e3c
00000110: fbb8 ce3e 003c b8be 3a93 a73e 1381 d43d
00000120: f5ec 8bbd 168f bdbe 5cb2 43be 361e e6be
00000130: 1012 883d a62a fbbe c11c 78be 3955 dabd
00000140: f86c 1fbe ebaa 703e 63b3 27bd 904a cf3d
00000150: b3d0 74be 4eca 913e 9ed4 0d3e 8fcc e8bd
00000160: 38c5 d33e 699d a7be 47fd 813d b125 11be
00000170: 9225 6dbd f8aa 563e b417 d0be b9e2 973e
00000180: 1f97 b43d f3f5 f63c a063 353e f614 3ebe
00000190: a327 e4be 04c6 8d3e 9803 05bd d520 2c3e
000001a0: 2d08 e53e 426c fabe ccb5 90be 1d93 da3d
000001b0: 886f 8d3e e1fd 4cbe ec10 733e 405b df3e
000001c0: 9657 e2be 9c02 cebe ee6f ae3e 30cc 98bd
000001d0: b42a 1bbe 4951 d2be 8ca2 65be 4274 f33e
000001e0: 6e38 8e3e d3a7 57bd 347f 2bbe 44a1 c63e
000001f0: 5a45 873e c547 993e a10b 58be 9efc 8abe
00000200: 6dec 9b3e 5eff f33e fe30 33bd d746 b9bc
00000210: 161e f2be bc06 be3e 7534 023e 0c2d c3be
00000220: e7cb d9bd d83b c1be 520b b23e c8cb fbba
00000230: 6681 99bb 1760 dcbd a0d8 16be d6b8 a93e
00000240: a15b a2bd 8eb0 f4be 8666 d63d 04ba b9be
00000250: 8352 313e 31c8 68be e647 c03e 5eab cabd
00000260: 4e27 bfbe 382d b6bd edc3 18bd ac2e a53e
00000270: a2c2 a5be 9a4e d8bc e043 c7be 2e3a f93e
00000280: 937e 54bd 7efc db3e 2441 c4be d30e 3b3e
00000290: ad08 36be 0c2b c93e 78b7 9f3e 1219 85be

weight_hh_l0 f4 [12, 4]
-0.20430286 0.034003332 0.04206958 -0.3683467 -0.37988186 0.06972526 0.3079123 -0.37229285
0.3104969 0.03589448 -0.3858563 -0.08805217 0.23327224 -0.36600778 0.14845492 0.28188434
0.37698537 -0.42348152 0.45130363 0.1521537 0.35925364 -0.13945706 0.033102673 -0.36156267
-0.46091577 0.22686487 -0.33800086 0.36417478 0.120435715 0.48526913 0.11999215 -0.43758368
0.11511665 -0.17669587 -0.2052251 0.29420575 -0.1381771 0.46517673 -0.2685359 -0.2699744
0.2837338 0.31790882 0.35762012 -0.03698833 -0.30996493 -0.3502791 -0.1533009 0.013311658
00000000: c534 51be 1447 0b3d 2751 2c3d f097 bcbe
00000010: e07f c2be 1ecc 8e3d aea6 9d3e 2b9d bebe
00000020: 73f9 9e3e 1706 133d f58e c5be b254 b4bd
00000030: ebde 6e3e 5f65 bbbe 9104 183e 2553 903e
00000040: 3a04 c13e 92d2 d8be 4511 e73e 2ece 1b3e
00000050: 18f0 b73e d5cd 0ebe ab96 073d be1e b9be
00000060: 27fd ebbe 444f 683e 730e adbe 1e75 ba3e
00000070: 00a7 f63d 3275 f83e 72be f53d f80a e0be
00000080: 47c2 eb3d c3ef 34be 8726 52be 23a2 963e
00000090: 4c7e 0dbe a52b ee3e 8a7d 89be 163a 8abe
000000a0: 8e45 913e f2c4 a23e fc19 b73e 1381 17bd
000000b0: b9b3 9ebe c857 b3be e9fa 1cbe 2419 5a3c

bias_ih_l0 f4 [12]
0.18419729 0.03274042 -0.042299572 -0.06891895 -0.19016153 -0.16794091 0.07711583 -0.46096575
-0.04312717 -0.46359748 -0.26793873 -0.3500055
00000000: 379e 3c3e d21a 063d 5142 2dbd 6125 8dbd
00000010: b4b9 42be b4f8 2bbe e7ee 9d3d b403 ecbe
00000020: 1ea6 30bd a65c edbe 442f 89be ec33 b3be

bias_hh_l0 f4 [12]
0.3700973 0.26619118 -0.17750758 -0.02237547 0.20743614 -0.43751574 0.24181752 0.10814422
-0.39381027 -0.33591253 0.36456513 0.48609495
00000000: 657d bd3e 364a 883e 8cc4 35be c34c b7bc
00000010: 246a 543e 1002 e0be 039f 773e b87a dd3d
00000020: 80a1 c9be bafc abbe 48a8 ba3e 70e1 f83e

weight_ih_l0 f4 [12, 24]
0.032315113 0.11713314 -0.23840363 0.13615452 0.23042876 -0.2681609 -0.16767251 -0.4886354
0.35213378 0.006194397 -0.30299142 -0.22038396 0.37891924 0.36920252 0.23862825 0.17363527
-0.21493222 0.14297831 0.21497138 -0.2842422 0.14809862 0.47736445 -0.25381768 0.39648476
-0.13136066 0.24247426 -0.1571877 -0.35146767 -0.13943398 0.46980077 -0.2310485 -0.4187886
0.48338082 0.34730917 0.09777057 0.48061708 0.24515629 0.43229926 -0.44608706 0.2278214
0.042342532 0.4177554 0.21977696 0.4579504 -0.4353807 -0.3886971 0.4723661 -0.3131919
0.3218161 0.36261067 0.39870596 0.23252156 -0.49883252 0.38189062 -0.30442086 0.03398748
-0.17582974 0.08641751 -0.44817615 -0.28232592 -0.23356816 -0.07378724 -0.0958435 0.16025195
-0.30024126 0.28203145 0.22095989 -0.061498776 0.3863838 -0.038411673 0.21449104 -0.1796468
-0.011440313 -0.18616776 -0.42443407 -0.46871245 -0.4131083 0.08305696 -0.43139806 -0.15997438
0.32757694 -0.031826608 0.0473215 0.47047332 0.44130966 0.15690358 0.16670102 0.12445223
0.14372915 0.002924648 0.06867864 -0.118060894 0.23540513 -0.14147808 0.3014432 -0.27799731
-0.25062594 0.43213114 0.4885676 0.22064659 -0.449534 -0.33769304 -0.15799731 -0.21670002
0.11113556 0.042253695 -0.4889767 0.16567712 -0.4824959 0.32883918 -0.3862736 0.19852376
0.24619442 0.18600285 -0.09543241 -0.27954367 0.012654026 -0.28337705 -0.24300444 0.11407465
0.02277247 0.03310719 -0.1749059 -0.41247508 -0.19338973 -0.3080661 0.40491018 0.283643
-0.029238516 -0.19345866 0.40284562 0.18071198 -0.43781558 0.37725157 -0.39092654 0.1034417
0.10711515 0.36582515 0.14730473 -0.41894317 0.20148195 -0.27162758 -0.26615876 -0.26081365
0.42593545 -0.18410738 0.42724776 -0.33496764 -0.3285129 0.49993852 0.15356767 -0.41304323
-0.4574718 -0.24332784 -0.44789666 0.2984555 -0.2562375 0.4498032 -0.19339883 -0.10722378
-0.4138169 -0.20630933 -0.011075313 -0.23572259 0.38730878 0.119936 -0.046512324 0.4152446
-0.1560221 -0.20646158 0.28969103 0.479413 0.41613027 0.40700606 -0.13256297 -0.15275264
0.42430565 -0.3652159 -0.04608738 0.47351265 0.16448188 -0.4781374 -0.45388758 -0.20241177
0.017136754 0.41327974 0.353383 -0.39005595 0.47815713 -0.10843387 -0.29658824 0.48409232
0.16235135 0.47130954 0.04891776 0.4272887 -0.29237628 0.46831942 0.31224757 -0.22242524
0.22509502 -0.19693698 -0.3944785 0.38945433 -0.35919893 0.34346294 0.052789677 0.3155601
0.3686322 -0.106633075 0.17753665 -0.3550822 -0.030577552 -0.428667 -0.29097593 -0.32717556
0.03922211 0.40063822 -0.09958632 0.23509888 -0.018588137 0.12975144 -0.1786535 0.09232759
0.09498673 0.37961608 -0.45685226 0.4661895 -0.26012486 -0.47311723 -0.055321883 0.4192003
-0.21304794 0.3517233 -0.15361293 0.087922275 -0.30794334 0.02879774 -0.062583506 -0.4296126
-0.47832894 0.18717663 0.43088526 -0.122580424 -0.30181557 0.4772845 0.13714252 -0.47185433
-0.22369725 -0.22337027 0.18664227 0.05783834 0.4842257 0.29975802 0.39086312 -0.1437134
00000000: da5c 043d 80e3 ef3d 1520 74be 176c 0b3e
00000010: 84f5 6b3e 634c 89be 58b2 2bbe 6b2e fabe
00000020: e14a b43e 5efa ca3b b121 9bbe 55ac 61be
00000030: b401 c23e 1d08 bd3e f75a 743e 72cd 313e
00000040: 3117 5cbe e868 123e 7521 5c3e 3288 91be
00000050: 2aa7 173e 1d69 f43e 64f4 81be 0d00 cb3e
00000060: 6983 06be 2c4b 783e d0f5 20be 92f3 b3be
00000070: c8c7 0ebe ba89 f03e fa97 6cbe 766b d6be
00000080: b17d f73e 82d2 b13e f03b c83d 7113 f63e
00000090: 400a 7b3e 5456 dd3e 8665 e4be 034a 693e
000000a0: 5d6f 2d3d 09e4 d53e 360d 613e 7a78 ea3e
000000b0: 38ea debe 4e03 c7be f8d9 f13e b05a a0be
000000c0: 14c5 a43e 1ba8 b93e 3023 cc3e 221a 6e3e
000000d0: fa66 ffbe 2b87 c33e 0ddd 9bbe 7536 0b3d
000000e0: b60c 34be aafb b03d 5877 e5be 068d 90be
000000f0: 7e2c 6fbe c41d 97bd 9949 c4bd 1619 243e
00000100: 39b9 99be 6d66 903e 4f43 623e 24e6 7bbd
00000110: 19d4 c53e 8f55 1dbd 8aa3 5b3e 55f5 37be
00000120: 2770 3bbc c3a2 3ebe 6c4f d9be 14fb efbe
00000130: ee82 d3be c419 aa3d 35e0 dcbe 53d0 23be
00000140: 2ab8 a73e 9e5c 02bd 30d4 413d e1e1 f03e
00000150: 57f3 e13e 55ab 203e acb3 2a3e d0e0 fe3d
00000160: bc2d 133e 74ab 3f3b 63a7 8c3d e9c9 f1bd
00000170: 0b0e 713e a1df 10be c356 9a3e aa55 8ebe
00000180: 0b52 80be 4b40 dd3e 8825 fa3e 2ef1 613e
00000190: 5229 e6be 1ae6 acbe 0cca 21be 9ce6 5dbe
000001a0: 0a9b e33d 3612 2d3d 275b fabe 43a7 293e
000001b0: b409 f7be 9c5d a83e a7c5 c5be d049 4b3e
000001c0: 641a 7c3e 8877 3e3e 1172 c3bd 5920 8fbe
000001d0: d552 4f3c cc16 91be 28d6 78be f89f e93d
000001e0: 558d ba3c 689b 073d 881a 33be ef2f d3be
000001f0: f507 46be d7ba 9dbe 6350 cf3e a839 913e
00000200: 9d85 efbc 071a 46be c841 ce3e 900c 393e
00000210: 5d29 e0be 1e27 c13e 8627 c8be 3ed9 d33d
00000220: 305f db3d 6f4d bb3e 0dd7 163e b87f d6be
00000230: 4951 4e3e c512 8bbe f645 88be 5e89 85be
00000240: 3614 da3e a586 3cbe 38c0 da3e e180 abbe
00000250: d832 a8be f1f7 ff3e d840 1d3e 677a d3be
00000260: be39 eabe ef2a 79be b652 e5be 29cf 983e
00000270: 9031 83be 9b4c e63e 580a 46be 2498 dbbd
00000280: cfdf d3be c142 53be 3b75 35bc 4361 71be
00000290: 564d c63e 01a1 f53d b583 3ebd f19a d43e
000002a0: 42c4 1fbe aa6a 53be 6252 943e 9f75 f53e
000002b0: 070f d53e 1963 d03e 96be 07be 306b 1cbe
000002c0: 973e d93e 94fd babe 1fc6 3cbd 4070 f23e
000002d0: f06d 283e 6dce f4be f463 e8be 0845 4fbe
000002e0: 6162 8c3c 6799 d33e 9eee b43e 6ab5 c7be
000002f0: 03d1 f43e 9412 debd 6ada 97be f3da f73e
00000300: 6f3f 263e 7c4f f13e fd5d 483d 96c5 da3e
00000310: 58b2 95be 90c7 ef3e eade 9f3e 71c3 63be
00000320: 4f7f 663e d9a9 49be 16f9 c9be 8f66 c73e
00000330: ece8 b7be 60da af3e fd39 583d 1891 a13e
00000340: 5cbd bc3e 7162 dabd 2bcc 353e 56cd b5be
00000350: c67d fabc 3e7a dbbe ccfa 94be 8e83 a7be
00000360: 5da7 203d 7420 cd3e eaf3 cbbd c3bd 703e
00000370: 2646 98bc 90dd 043e f1f0 36be 3f16 bd3d
00000380: 6788 c23d 0a5d c23e 8ae8 e9be 64b0 ee3e
00000390: 162f 85be 6c3c f2be 3399 62bd 6ca1 d63e
000003a0: 3d29 5abe 1415 b43e b54c 1dbe 9810 b43d
000003b0: c0aa 9dbe 3de9 eb3c c82b 80bd 2ff6 dbbe
000003c0: 88e7 f4be 3bab 3f3e fe9c dc3e 720b fbbd
000003d0: 9287 9abe a25e f43e 176f 0c3e e496 f1be
000003e0: e410 65be 2dbb 64be 271f 3f3e e5e7 6c3d
000003f0: 6eec f73e e279 993e 361f c83e 9b29 13be

weight_hh_l0 f4 [12, 4]
-0.18621221 0.055638738 -0.022008665 0.20152162 -0.20182262 0.19497056 0.13662589 -0.4170859
0.29382432 0.44276702 -0.33894095 0.21264043 -0.33436346 -0.3173032 -0.4405734 -0.054291293
0.21469845 0.08898195 -0.31461895 0.45099217 -0.40860832 -0.27272987 0.21899189 -0.08578261
-0.20000193 0.20690085 0.008196074 -0.1932706 0.3972481 -0.3972922 -0.13154767 0.49165326
-0.3574628 0.41690642 0.3743779 -0.5001602 -0.46400547 -0.44238204 0.15630156 -0.22411692
-0.24242178 0.18036826 -0.21719287 -0.2792424 0.007391564 -0.39901003 -0.18951713 0.24668519
00000000: 6aae 3ebe 72e5 633d 844b b4bc af5b 4e3e
00000010: 97aa 4ebe 5da6 473e a8e7 0b3e 488c d5be
00000020: 2470 963e 5cb2 e23e ab89 adbe 6abe 593e
00000030: b031 abbe 9175 a2be d692 e1be 8c60 5ebd
00000040: e9d9 5b3e 2b3c b63d bc15 a1be 72e8 e63e
00000050: 1c35 d1be 40a3 8bbe 693f 603e cbae afbd
00000060: 4ecd 4cbe d1dd 533e d348 063c bae8 45be
00000070: 1a64 cb3e e269 cbbe 6fb4 06be fab9 fb3e
00000080: 5d05 b7be c274 d53e 76ae bf3e 800a 00bf
00000090: 2092 edbe e67f e2be 840d 203e e87e 65be
000000a0: 6a3d 78be 75b2 383e cf67 5ebe dcf8 8ebe
000000b0: ef34 f23b 0b4b ccbe c710 42be 0b9b 7c3e

bias_ih_l0 f4 [12]
-0.49544582 -0.38101786 -0.26453048 0.45627975 0.27120745 0.42142588 0.16606209 -0.13578302
-0.0039366605 0.3497895 -0.48012495 0.20825742
00000000: 13ab fdbe c614 c3be 8a70 87be 809d e93e
00000010: b4db 8a3e 22c5 d73e 2e0c 2a3e b40a 0bbe
00000020: 1aff 80bb 9c17 b33e f0d2 f5be 6f41 553e

bias_hh_l0 f4 [12]
0.24791 -0.40163076 0.032679558 -0.2098065 -0.34464633 0.2047391 -0.030688072 0.48849308
0.27096826 -0.40860093 -0.1489128 0.20376097
00000000: 1edc 7d3e 8ca2 cdbe 00db 053d 84d7 56be
00000010: 7c75 b0be 20a7 513e 8d65 fbbc c41b fa3e
00000020: 5abc 8a3e 2434 d1be 997c 18be b7a6 503e

weight f4 [4, 4]
-0.39353967 -0.48279965 0.0913351 -0.20279846 -0.09346558 -0.14406936 0.19937761 -0.13966487
-0.04064147 -0.48580658 -0.37308988 -0.16029814 -0.35776716 -0.021456173 0.48210418 -0.20907533
00000000: 087e c9be 8431 f7be e60d bb3d 66aa 4fbe
00000010: e26a bfbd eb86 13be a529 4c3e 4f04 0fbe
00000020: ac77 26bd a4bb f8be a305 bfbe 3225 24be
00000030: 422d b7be dbc4 afbc 5cd6 f63e d817 56be

bias f4 [4]
0.15396331 0.2824995 0.45759356 0.4683057
00000000: 8fa8 1d3e c6a3 903e b449 ea3e c4c5 ef3e

weight f4 [320, 8]
0.032435637 0.124098346 0.06912839 0.035401605 0.2438781 -0.24825868 0.16580148 -0.048085738
-0.26191232 0.16134441 0.24799795 -0.07050329 -0.208594 -0.3455549 0.248882 0.10093241
0.07179013 -0.23982486 0.31227332 -0.041877907 0.25171837 -0.026464514 0.13389105 -0.031025795
-0.19748223 -0.11281655 -0.26657048 0.1408014 -0.020690197 0.33043113 -0.1342447 0.30900845
-0.030344348 -0.30599588 0.26461396 -0.0024669748 0.3129802 -0.25708336 -0.2047205 0.28434023
0.3066223 -0.3124787 -0.33387142 -0.2097254 0.35412928 -0.2895081 0.3450943 -0.14296678
-0.03419201 -0.2803475 -0.2964222 -0.09738018 -0.023861803 -0.23294567 0.09618101 0.012195826
0.16224304 0.19285664 0.22780022 0.24965997 -0.14520556 0.15143809 0.037111737 0.2699826
0.2898801 0.3336019 0.22021097 -0.2661891 -0.02759832 -0.049683515 0.020952843 -0.23901379
-0.21388179 -0.22727083 0.14753494 0.09788254 0.23016709 -0.17438763 0.18359672 0.14136289
-0.26158893 0.30064657 -0.07071052 0.2811629 -0.1082253 0.26167974 0.2978243 0.3493296
-0.20790362 0.34695226 0.3129992 -0.05029055 0.32901162 0.091135055 0.15759431 -0.0071016653
-0.08966141 0.061305005 -0.055140857 0.06352045 -0.24084099 0.10421765 0.2069607 -0.062454488
-0.08373405 0.06742067 -0.031205416 0.06940907 -0.07236175 -0.10318446 0.18217677 0.2552484
0.046479978 0.23042448 0.26990226 0.3307353 0.14520264 -0.046854284 -0.11995188 0.20572583
-0.25828093 0.24123682 0.20881371 0.3336279 0.22321838 0.18513507 0.30331537 0.08519542
0.06294373 -0.19879869 -0.29127088 0.17457372 0.23080675 -0.07890906 -0.082700275 0.108027436
-0.055217754 0.28032976 0.11995808 0.1976543 -0.1447366 -0.25268653 -0.2683577 0.2880172
-0.35398012 -0.077773504 0.12613523 -0.23250985 0.070832536 0.041531242 -0.33838972 -0.3042295
0.06499691 0.2968242 0.13050929 -0.22115052 -0.018344674 0.14407055 -0.02508488 -0.15202534
0.20810619 -0.33359337 -0.053384934 0.035075527 -0.008638237 0.15177697 -0.31551325 -0.15315759
-0.122945376 -0.19814163 0.2582411 -0.2204572 -0.34088278 -0.33536422 -0.097318664 -0.2817479
0.32373777 -0.31985387 -0.2646374 -0.14130145 0.09921116 -0.22670597 -0.08545882 0.21407197
0.19228135 -0.07823388 0.18631847 0.33815148 0.07472828 0.34508 -0.11623369 0.27862188
0.28725418 -0.14197624 0.111492775 0.1391916 0.08633708 -0.03586594 0.10722311 0.04526354
-0.20244667 -0.11621418 0.2220061 0.09544269 0.2927216 -0.3427513 -0.35163292 0.29413414
0.33338594 0.13076888 -0.014941284 -0.16993053 -0.34680575 0.023501294 0.15715115 -0.28307977
-0.14395708 0.27195027 -0.073939964 0.10055902 -0.013037945 0.045890033 0.22306897 0.1502088
0.28638664 0.32408714 0.22934404 0.17300512 0.2965083 -0.033882946 -0.1052003 0.017993618
0.31558678 -0.23040318 0.31396943 -0.23666422 0.26181966 -0.35368675 -0.34305492 -0.085081
0.35199496 0.29603782 -0.13674948 0.12353476 0.25382814 0.022147626 0.21524681 0.103159025
-0.024308879 0.033031005 0.34509453 0.008632116 -0.19491383 -0.334089 -0.20508963 0.19858174
00000000: 3bdb 043d 4627 fe3d 2f93 8d3d 4601 113d
00000010: 2ebb 793e 8637 7ebe ddc7 293e 8df5 44bd
00000020: 5f19 86be 7837 253e 2df3 7d3e 0764 90bd
00000030: aa99 55be 92ec b0be ecda 7e3e a7b5 ce3d
00000040: b406 933d a694 75be 4ae2 9f3e 2b88 2bbd
00000050: 3be1 803e 1ccc d8bc bc1a 093e cf29 febc
00000060: c838 4abe 5d0c e7bd ed7b 88be 3e2e 103e
00000070: 7d7e a9bc 452e a93e 7177 09be 5b36 9e3e
00000080: b694 f8bc 7eab 9cbe 7b7b 873e f8ac 21bb
00000090: f13e a03e 6ea0 83be 40a2 51be 0b95 913e
000000a0: 99fd 9c3e 35fd 9fbe 32f1 aabe 41c2 56be
000000b0: 6f50 b53e 683a 94be 33b0 b03e e265 12be
000000c0: ec0c 0cbd b589 8fbe a7c4 97be 436f c7bd
000000d0: d479 c3bc 4f89 6ebe 8dfa c43d 00d1 473c
000000e0: 0a23 263e 367c 453e 7644 693e dda6 7f3e
000000f0: c4b0 14be 9612 1b3e 7a02 183d 293b 8a3e
00000100: 2a6b 943e decd aa3e fc7e 613e f049 88be
00000110: df15 e2bc f180 4bbd 4ca5 ab3c 08c0 74be
00000120: d403 5bbe afb9 68be 6613 173e a476 c83d
00000130: ecb0 6b3e ac92 32be c700 3c3e 6fc1 103e
00000140: fcee 85be 59ee 993e add0 90bd 95f4 8f3e
00000150: 3aa5 ddbd e3fa 853e 6d7c 983e 54db b23e
00000160: b0e4 54be baa3 b13e 6e41 a03e 77fd 4dbd
00000170: 3674 a83e 04a5 ba3d 6760 213e 16b5 e8bb
00000180: 67a0 b7bd f51a 7b3d 61db 61bd 0217 823d
00000190: 059f 76be 1070 d53d 81ed 533e 47d0 7fbd
000001a0: c27c abbd d913 8a3d 80a2 ffbc 5826 8e3d
000001b0: 6632 94bd 6052 d3bd 8c8c 3a3e ebaf 823e
000001c0: ca61 3e3d 65f4 6b3e a130 8a3e 2356 a93e
000001d0: 00b0 143e 47ea 3fbd 55a9 f5bd cba9 523e
000001e0: 663d 84be c906 773e 43d3 553e 47d1 aa3e
000001f0: 5c93 643e 0c94 3d3e 274c 9b3e f07a ae3d
00000200: a4e8 803d e291 4bbe 7521 95be 74c3 323e
00000210: 9b58 6c3e 139b a1bd c35e a9bd 7d3d dd3d
00000220: 032c 62bd 6287 8f3e 95ac f53d e465 4a3e
00000230: d535 14be 2160 81be 2e66 89be fe76 933e
00000240: e23c b5be b747 9fbd 9829 013e 1017 6ebe
00000250: a610 913d aa1c 2a3d 6b41 adbe f8c3 9bbe
00000260: 1a1d 853d 57f9 973e 3aa4 053e 4875 62be
00000270: 9247 96bc 3b87 133e ce7e cdbc 88ac 1bbe
00000280: ca19 553e c0cc aabe 29aa 5abd 5bab 0f3d
00000290: 6487 0dbc 6c6b 1b3e f48a a1be 58d5 1cbe
000002a0: c9ca fbbd a4e5 4abe 2d38 843e 88bf 61be
000002b0: 3088 aebe dcb4 abbe 024f c7bd 4341 90be
000002c0: f5c0 a53e e3c3 a3be 8e7e 87be 54b1 10be
000002d0: 382f cb3d 9c25 68be 0905 afbd af35 5b3e
000002e0: 67e5 443e 1639 a0bd 45ca 3e3e 3122 ad3e
000002f0: 240b 993d 53ae b03e ee0b eebd 87a7 8e3e
00000300: fb12 933e 3862 11be 5356 e43d 3e88 0e3e
00000310: 7fd1 b03d 2ae8 12bd ca97 db3d 4366 393d
00000320: 2e4e 4fbe b301 eebd 9155 633e 7577 c33d
00000330: 9bdf 953e 197d afbe 3b09 b4be c098 963e
00000340: 90b1 aa3e 47e8 053e 4acc 74bc 4502 2ebe
00000350: 8690 b1be c985 c03c 3bec 203e d5ef 90be
00000360: 7c69 13be 113d 8b3e d66d 97bd e3f1 cd3d
00000370: 1b9d 55bc 30f7 3b3d 316c 643e 56d0 193e
00000380: 45a1 923e c0ee a53e 2ad9 6a3e 4128 313e
00000390: f0cf 973e d8c8 0abd 4173 d7bd 5a67 933c
000003a0: 9794 a13e d0ee 6bbe 9ac0 a03e 1b58 72be
000003b0: 3a0d 863e 6e16 b5be e5a4 afbe f33e aebd
000003c0: af38 b43e 4592 973e 0e08 0cbe cbff fc3d
000003d0: c3f5 813e f06e b53c a969 5c3e 0a45 d33d
000003e0: 6a23 c7bc 854b 073d 3bb0 b03e b86d 0d3c
000003f0: 7e97 47be b70d abbe 0403 52be 0359 4b3e

bias f4 [320]
0.17660217 -0.27949187 -0.05221166 0.14949827 0.07697968 0.2278886 -0.065369196 0.040246297
-0.13658708 0.2586384 -0.26250094 -0.223318 0.14293166 -0.24830654 0.18272643 0.33263478
-0.12618452 -0.12797013 0.30827203 -0.29668486 0.33440086 0.29799566 -0.12633763 0.008354408
0.11885582 0.25059304 0.11305073 -0.21311453 -0.3332691 -0.06821031 0.3275582 0.04158823
0.17326029 -0.21352236 -0.3307182 0.18021028 -0.22740255 0.060744245 -0.2965923 0.25422755
-0.19517231 -0.3458647 0.033337045 -0.33275455 -0.31265894 0.011256437 -0.2943037 -0.25802645
0.1016482 -0.08393529 -0.21613681 0.31129244 -0.12982997 0.2035027 -0.042987812 -0.33904576
-0.24091302 0.24203327 0.15788414 0.006123325 0.29844972 0.18433826 0.13350488 0.22711925
0.012010178 -0.21910493 -0.19872035 0.3075653 -0.15939818 0.23639408 -0.32626116 0.3334261
0.070511684 -0.26043606 -0.040689886 0.24162234 -0.2550834 -0.34799743 -0.0943324 0.16552168
-0.14418793 -0.0892223 0.21350838 -0.34312353 -0.0021580472 0.31378087 -0.12125145 0.28750688
-0.28817585 0.023292538 -0.1802148 -0.28900093 -0.00614096 0.17852183 -0.11211946 -0.075455576
-0.17233232 0.10705734 -0.25976706 -0.28062674 -0.040052608 0.21207532 -0.3265707 -0.28362492
-0.27961165 -0.23404434 0.20833142 -0.35012412 0.12896188 0.0072791334 0.07957831 -0.28890148
0.23023118 -0.25403634 0.16492437 0.2443253 -0.23428895 -0.26032436 -0.27914962 -0.1867463
-0.30989888 0.009251845 0.17536585 0.18798257 -0.35177866 0.054545518 0.1857564 -0.30264664
0.20895919 0.25792012 -0.10637757 -0.1363694 0.2376708 -0.07122845 -0.3010852 -0.2708129
-0.14768007 0.010296357 0.026797246 0.052826125 0.16055597 0.31902006 -0.24654417 -0.1582672
-0.11140342 0.10194228 -0.2839514 0.11135827 -0.041831814 -0.1722169 -0.10603903 0.31681606
-0.23506248 -0.32956454 -0.1198764 0.058017652 -0.06735406 -0.08749188 0.20844509 0.13506015
0.07356176 0.2799267 0.20680037 -0.0044060536 -0.30601472 0.2368245 0.216653 -0.34968862
0.20204929 0.17115878 -0.037965987 -0.13161956 -0.33660606 -0.10458221 -0.05457852 0.06010415
0.14385618 0.23849623 -0.06307295 0.29697588 0.30950758 0.052803446 0.13240965 -0.03454135
-0.2355736 -0.10645911 -0.33782995 0.09157533 -0.33359352 0.25338426 0.23955075 0.17526726
0.19735464 -0.31839433 0.10300056 0.20499678 0.028458364 0.1991074 -0.028701484 -0.067292824
-0.044795293 -0.101805136 -0.08726035 0.34831324 0.051893402 -0.34300953 0.25157794 -0.26054963
0.17945625 -0.33037642 0.18930556 0.22095932 0.21011402 -0.22133726 -0.2260133 0.27659622
-0.14633915 0.26022533 -0.19890743 -0.2922585 0.3169447 0.16576318 -0.07115946 -0.21338563
0.16393758 0.19056247 -0.08660926 -0.100739695 -0.04942973 0.18337287 -0.054067187 0.007866103
0.090196714 -0.28594276 -0.21244031 0.016269509 0.33149067 0.29443452 0.20645593 -0.3365338
-0.3100706 0.13870345 0.21658014 0.120571576 -0.23992541 -0.12606473 0.35074213 -0.34046778
0.019431362 0.30430838 -0.18574306 0.33064964 0.061303627 -0.022025263 0.14569186 -0.2991615
00000000: 33d7 343e 8f19 8fbe e5db 55bd 1316 193e
00000010: 86a7 9d3d a15b 693e 49e0 85bd 4dd9 243d
00000020: 7cdd 0bbe 416c 843e 8666 86be 79ad 64be
00000030: ad5c 123e 1244 7ebe a31c 3b3e 1b4f aa3e
00000040: 8436 01be 9a0a 03be d5d5 9d3e 14e7 97be
00000050: 9736 ab3e e392 983e a75e 01be ede0 083c
00000060: ae6a f33d bb4d 803e 2487 e73d b23a 5abe
00000070: 3fa2 aabe d9b1 8bbd b5b5 a73e 6b58 2a3d
00000080: 256b 313e 9ba5 5abe e553 a9be 0b89 383e
00000090: 37dc 68be f5ce 783d f2da 97be 1d2a 823e
000000a0: 40db 47be 2e15 b1be 6d8c 083d ce5e aabe
000000b0: d514 a0be eb6c 383c f9ae 96be 0b1c 84be
000000c0: ee2c d03d 44e6 abbd f852 5dbe b961 9f3e
000000d0: 26f2 04be 0363 503e fd13 30bd 6897 adbe
000000e0: e7b1 76be 92d7 773e 61ac 213e 2ca6 c83b
000000f0: 67ce 983e 2bc3 3c3e 81b5 083e f391 683e
00000100: 56c6 443c 0b5d 60be 597d 4bbe 3379 9d3e
00000110: 4739 23be 4a11 723e b40b a7be d3b6 aa3e
00000120: 6e68 903d e057 85be 70aa 26bd d96b 773e
00000130: 4b9a 82be b82c b2be 5831 c1bd 847e 293e
00000140: 00a6 13be 2eba b6bd f1a1 5a3e e3ad afbe
00000150: 066e 0dbb e3a7 a03e ae52 f8bd 1a34 933e
00000160: c98b 93be fecf be3c 3b8a 38be eef7 93be
00000170: 1b3a c9bb 6dce 363e e39e e5bd 7488 9abd
00000180: e277 30be e140 db3d 3000 85be 4fae 8fbe
00000190: 340e 24bd 462a 593e 4634 a7be 4937 91be
000001a0: 4229 8fbe 52a9 6fbe d554 553e 7843 b3be
000001b0: 950e 043e cc85 ee3b f4f9 a23d e5ea 93be
000001c0: b9c1 6b3e 0d11 82be efe1 283e 6930 7a3e
000001d0: 71e9 6fbe 3c49 85be b3ec 8ebe 6c3a 3fbe
000001e0: 11ab 9ebe 0d95 173c 1b93 333e 817e 403e
000001f0: 551c b4be 1f6b 5f3d ed36 3e3e 80f4 9abe
00000200: 66f9 553e 1b0e 843e 7cdc d9bd 6ca4 0bbe
00000210: f95f 733e 39e0 91bd d727 9abe fda7 8abe
00000220: 7239 17be 0db2 283c e685 db3c 3560 583d
00000230: c968 243e 9956 a33e 1376 7cbe cc10 22be
00000240: 7a27 e4bd 1dc7 d03d 1462 91be ce0f e43d
00000250: d657 2bbd a159 30be fe2a d9bd b735 a23e
00000260: 38b4 70be afbc a8be c281 f5bd eba3 6d3d
00000270: edf0 89bd f12e b3bd a172 553e 354d 0a3e
00000280: 8ca7 963d 8d52 8f3e 7ac3 533e a860 90bb
00000290: f6ad 9cbe 1f82 723e 49da 5d3e 630a b3be
000002a0: 02e6 4e3e 3f44 2f3e 3982 1bbd 47c7 06be
000002b0: a157 acbe 332f d6bd ba8d 5fbd c52f 763d
000002c0: 094f 133e 5b38 743e 642c 81bd 390d 983e
000002d0: c777 9e3e 6d48 583d 6596 073e 3b7b 0dbd
000002e0: 353a 71be 3c07 dabd 0cf8 acbe d98b bb3d
000002f0: c5cc aabe 95bb 813e cb4c 753e 4379 333e
00000300: 5617 4a3e 9504 a3be f5f1 d23d adea 513e
00000310: 8421 e93c cfe2 4b3e 601f ebbc d2d0 89bd
00000320: 457b 37bd 367f d0bd 8eb5 b2bd 1d56 b23e
00000330: 2d8e 543d f29e afbe d3ce 803e c366 85be
00000340: 61c3 373e 1927 a9be 51d9 413e 2943 623e
00000350: 2128 573e 3ca6 62be 0870 67be 059e 8d3e
00000360: eed9 15be 413c 853e 64ae 4bbe e8a2 95be
00000370: 9346 a23e d3bd 293e 0dbc 91bd c381 5abe
00000380: 41df 273e cf22 433e 3260 b1bd 9d50 cebd
00000390: d476 4abd 19c6 3b3e 8e75 5dbd d4e0 003c
000003a0: 0eb9 b83d 1767 92be f489 59be a247 853c
000003b0: 25b9 a93e 1fc0 963e 2f69 533e 294e acbe
000003c0: 93c1 9ebe 4708 0e3e 2fc7 5d3e 3bee f63d
000003d0: 02af 75be 1d17 01be 7994 b33e cb51 aebe
000003e0: 852e 9f3c 4fce 9b3e 6e33 3ebe e94a a93e
000003f0: 8319 7b3d 536e b4bc 3f30 153e b22b 99be

weight f4 [4, 320]
-0.04935391 0.030692331 0.039068803 -0.04277235 -0.044219088 0.03045938 -0.017897954 0.029473701
-0.026683375 0.03918468 0.051207304 -0.0155312875 0.04677318 -0.01777324 -0.04014405 0.028503405
-0.02866817 -0.005599219 0.0053306012 0.030892488 0.032407474 0.0071835862 0.042747747 -0.019845352
0.05000012 -0.04297505 0.013941201 -0.040199574 0.033047877 0.003291209 0.03919604 0.006869305
0.042328957 -0.020593619 0.045519408 0.007369527 -0.002318292 -0.049409915 0.03711581 0.02188248
0.012993836 0.044932634 -0.03055733 0.051166188 -0.036731157 -0.02242457 -0.029354898 0.0053954464
0.00399784 0.0050706523 -0.020772554 -0.010033155 -0.03978347 0.038557272 0.017687442 -0.037921567
-0.012685645 0.04800031 -0.036367662 -0.02772086 -0.022033794 0.016950412 0.011017186 0.053744625
0.016386371 -0.020788629 0.048838116 0.040617872 -0.041481454 -0.03863128 0.0143935485 0.027832601
-0.04797611 0.044389408 0.029573947 0.026100984 -0.03167092 0.033956073 0.000632445 -0.038449686
-0.040253647 0.012623931 -0.033465978 0.015355785 0.039122563 0.0061361054 -0.042451445 -0.0381712
0.0440619 0.045225147 0.012628307 -0.020072605 0.041248806 -0.0011672662 -0.05405658 0.030771816
-0.020201916 0.027894724 0.011791454 0.0451417 0.03731929 0.052709762 0.026751291 -0.02541395
0.028747046 0.046287537 0.040524993 -0.034284968 0.035146695 0.05523302 -0.018508606 -0.029212331
-0.032589395 0.017055238 -0.037976075 -0.049757537 -0.014476251 -0.049634773 0.035077028 0.032365613
0.04132264 -0.010571859 -0.049790643 0.045530144 0.04477467 0.027372804 -0.046846323 -0.01990258
0.00048135337 0.03683206 0.01522835 0.0504683 -0.04913472 0.034427177 0.0031748177 -0.04782178
-0.046900835 0.0028103823 -0.02284038 0.029498113 -0.052416936 0.011318137 0.025058858 0.043676376
-0.020773942 -0.03337816 0.00014355965 -0.024796372 0.037766475 0.031709827 0.020552356 -0.01806116
-0.008919821 0.004065228 -0.049296547 0.008122388 0.013394172 0.02759129 -0.043972827 0.018877385
-0.045525398 -0.045298453 0.044695687 -0.04049694 -0.05457909 0.016611991 -0.042314988 -0.028842784
-0.038106166 -0.053775176 0.039621517 -0.024161892 -0.03940806 -0.01824125 -0.04997616 0.05403782
-0.005900176 0.047524143 -0.051611654 0.021179764 0.021958781 0.01086554 0.036344532 -0.020158626
-0.049117975 0.00820348 -0.01613381 -0.043753017 0.029243479 0.04518186 0.04568507 0.018384343
0.035942044 -0.040608518 -0.035581034 -0.018570509 0.012561032 0.046718244 0.030159561 0.0131269535
-0.05240905 -0.025942335 -0.039444342 0.050069813 -0.038735107 -0.03311139 0.034426283 -0.0028120507
0.024440985 -0.051184732 -0.003853615 -0.03234679 -0.039067432 -0.040461723 -0.047239866 0.028018786
0.04963382 -0.0049478635 -0.05325896 -0.04027757 -0.013348596 -0.04152876 -0.04586541 0.029117323
-0.0022088815 0.044049535 -0.05047946 -0.025539918 -0.0322845 -0.034058355 -0.044626437 -0.0043957448
0.04677381 -0.043909457 -0.015818726 -0.045664705 0.041946124 0.022247983 0.056520928 0.0048895665
-0.043177053 -0.019511098 0.023355376 -0.04287711 0.009365385 0.012619998 0.002395948 0.044944342
0.03794969 -0.010496012 0.016253114 0.015833814 -0.039295767 0.0485927 0.04144148 0.009808957
00000000: 5327 4abd 7c6e fb3c 9c06 203d 0f32 2fbd
00000010: 131f 35bd f385 f93c bb9e 92bc d572 f13c
00000020: 1897 dabc 1d80 203d c0be 513d f176 7ebc
00000030: 3c95 3f3d 3099 91bc 166e 24bd f97f e93c
00000040: 83d9 eabc a779 b7bb 53ac ae3b 3e12 fd3c
00000050: b3bd 043d 4a64 eb3b 4318 2f3d b892 a2bc
00000060: edcc 4c3d 9b06 30bd a369 643c 4fa8 24bd
00000070: 365d 073d 53b1 573b 078c 203d e817 e13b
00000080: 2161 2d3d f3b3 a8bc 8f72 3a3d 137c f13b
00000090: 7cee 17bb 0d62 4abd bf06 183d e342 b33c
000000a0: 19e4 543c 480b 383d 5e53 fabc a393 513d
000000b0: 6973 16bd bbb3 b7bc af79 f0bc 49cc b03b
000000c0: 5000 833b b727 a63b 342b aabc 1a62 24bc
000000d0: fef3 22bd 3bee 1d3d 41e5 903c a553 1bbd
000000e0: 74d7 4fbc f99b 443d 42f6 14bd db16 e3bc
000000f0: 3780 b4bc 97db 8a3c 6d81 343c 5323 5c3d
00000100: b63c 863c ea4c aabc 7a0a 483d ed5e 263d
00000110: 75e8 29bd d53b 1ebd ebd2 6b3c 3201 e43c
00000120: 9982 44bd abd1 353d 1045 f23c bbd1 d53c
00000130: 5eb9 01bd 8615 0b3d aaca 253a 6b7d 1dbd
00000140: 02e1 24bd 9bd4 4e3c 9f13 09bd d596 7b3c
00000150: fb3e 203d 6211 c93b 91e1 2dbd 6759 1cbd
00000160: 407a 343d 013e 393d f5e6 4e3c 4e6f a4bc
00000170: 82f4 283d f4fe 98ba 6f6a 5dbd 2d15 fc3c
00000180: 7d7e a5bc 7a83 e43c f130 413c 81e6 383d
00000190: 1ddc 183d 31e6 573d 8625 db3c eb30 d0bc
000001a0: ed7e eb3c 0098 3d3d 89fd 253d 656e 0cbd
000001b0: fbf5 0f3d 053c 623d 5c9f 97bc b34e efbc
000001c0: 757c 05bd 6db7 8b3c cd8c 1bbd 8fce 4bbd
000001d0: cc2d 6dbc d54d 4bbd eeac 0f3d ce91 043d
000001e0: ee41 293d 9735 2dbc 46f1 4bbd d17d 3a3d
000001f0: a565 373d ee3c e03c eee1 3fbd bc0a a3bc
00000200: 285e fc39 37dd 163d 5480 793c d9b7 4e3d
00000210: 7d41 49bd 8303 0d3d 9a10 503b c5e0 43bd
00000220: 171b 40bd 642e 383b c01b bbbc 07a6 f13c
00000230: 24b3 56bd b56f 393c 3c48 cd3c 00e6 323d
00000240: 1d2e aabc 8ab7 08bd 8088 1639 c321 cbbc
00000250: 05b1 1a3d 2ae2 013d 6a5d a83c fff4 93bc
00000260: 7124 12bc 9b35 853b 2deb 49bd c413 053c
00000270: 3b73 5b3c 2107 e23c da1c 34bd bfa4 9a3c
00000280: d778 3abd df8a 39bd d312 373d 1fe0 25bd
00000290: 538e 5fbd df15 883c 7b52 2dbd b447 ecbc
000002a0: 3615 1cbd 5c43 5cbd 2c4a 223d 29ef c5bc
000002b0: 596a 21bd ad6e 95bc cdb3 4cbd c356 5d3d
000002c0: 4356 c1bb ada8 423d be66 53bd 2f81 ad3c
000002d0: e7e2 b33c 6105 323c 01de 143d b423 a5bc
000002e0: ee2f 49bd e467 063c 0d2b 84bc 5d36 33bd
000002f0: 0590 ef3c 9d10 393d 4520 3b3d c39a 963c
00000300: f737 133d 1e55 26bd 6bbd 11bd 2e21 98bc
00000310: c9cc 4d3c a15b 3f3d 2f11 f73c 6f12 573c
00000320: dfaa 56bd 0585 d4bc 6490 21bd 0116 4d3d
00000330: b4a8 1ebd cf9f 07bd 9302 0d3d 624a 38bb
00000340: 7638 c83c 15a7 51bd ee8c 7cbb 117e 04bd
00000350: 2c05 20bd 31bb 25bd 977e 41bd a787 e53c
00000360: d54c 4b3d b021 a2bb 1126 5abd 18fa 24bd
00000370: 12b4 5abc 101a 2abd 5edd 3bbd 7487 ee3c
00000380: e2c2 10bb 496d 343d 8dc3 4ebd 1739 d1bc
00000390: c03c 04bd c680 0bbd 36ca 36bd 2e0a 90bb
000003a0: e595 3f3d 67da 33bd 4696 81bc ea0a 3bbd
000003b0: b3cf 2b3d 6741 b63c 7d82 673d a838 a03b
000003c0: 6cda 30bd bdd5 9fbc c653 bf3c e99f 2fbd
000003d0: 4671 193c 1cc4 4e3c 5605 1d3b 8f17 383d
000003e0: 2271 1b3d 77f7 2bbc 4025 853c eab5 813c
000003f0: 99f4 20bd 2409 473d 8bbe 293d bfb5 203c

bias f4 [4]
0.029989583 -0.041772474 0.028962033 -0.025712065
00000000: b7ac f53c 9d19 2bbd c941 ed3c 1ca2 d2bc

weight f4 [4, 8]
0.24288084 -0.13522953 0.096481554 -0.20442842 0.162424 0.33225402 0.11242848 -0.15337911
-0.32936156 0.2627796 -0.25858545 0.17283374 -0.08986262 0.06461053 -0.27069876 -0.15806776
0.19177338 0.035448615 -0.16776831 -0.0791413 0.28576234 0.32365757 0.052310105 0.14359203
-0.30434197 0.0571806 -0.20501855 0.12411013 0.31272274 0.065847136 0.12328367 -0.3423418
00000000: c1b5 783e 9c79 0abe 1f98 c53d af55 51be
00000010: 7a52 263e 331d aa3e e740 e63d 6a0f 1dbe
00000020: 14a2 a8be 0c8b 863e 5065 84be 54fb 303e
00000030: e509 b8bd 8752 843d 0799 8abe 84dc 21be
00000040: 3e60 443e 9132 113d 75cb 2bbe d514 a2bd
00000050: 714f 923e 72b6 a53e 1f43 563d ca09 133e
00000060: b6d2 9bbe 3436 6a3d 62f0 51be 742d fe3d
00000070: 321d a03e ddda 863d 267c fc3d 6d47 afbe

bias f4 [4]
0.2787888 0.33259523 0.21567646 0.33391374
00000000: 68bd 8e3e ec49 aa3e 4ada 5c3e bef6 aa3e

weight f4 [4, 8]
0.23360021 0.23646446 0.07331106 0.16582796 -0.10545805 -0.32195812 -0.028510517 -0.05695858
-0.075612515 -0.23877503 -0.16486661 -0.03181439 0.3252595 -0.06850108 0.11846985 0.1767265
-0.055628538 0.071085855 0.2167353 -0.13568957 0.319056 0.024657575 -0.028019702 0.15814736
-0.31415132 0.26676777 0.23703657 0.15539402 -0.081000954 -0.35215807 -0.23255002 -0.32712564
00000000: e534 6f3e bd23 723e 1c24 963d cece 293e
00000010: 64fa d7bd b2d7 a4be e38e e9bc 664d 69bd
00000020: bcda 9abd 7181 74be cbd2 28be ce4f 02bd
00000030: 6a88 a63e 4b4a 8cbd 52a0 f23d cbf7 343e
00000040: c0da 63bd 7695 913d dcef 5d3e 35f2 0abe
00000050: 4f5b a33e affe c93c 9389 e5bc 62f1 213e
00000060: 71d8 a0be c995 883e b7b9 723e 9c1f 1f3e
00000070: d4e3 a5bd 104e b4be 9821 6ebe 037d a7be

bias f4 [4]
0.056195386 -0.34841308 -0.14571784 0.24697284
00000000: 222d 663d 3363 b2be 0f37 15be 73e6 7c3e

weight f4 [10, 2]
0.08389264 0.18982232 -0.3057886 0.38391048 -0.6914434 -0.6572522 0.08580891 0.3174448
0.6523397 -0.3686496 0.3130254 0.6022323 0.5305511 0.3913579 0.61773896 -0.64910513
0.12984316 0.29524994 0.58719134 0.5714463
00000000: e8cf ab3d c860 423e 5390 9cbe ea8f c43e
00000010: 6f02 31bf ae41 28bf 95bc af3d 2088 a23e
00000020: bcff 263f a4bf bcbe dd44 a03e e52b 1a3f
00000030: 32d2 073f 1060 c83e 2424 1e3f c12b 26bf
00000040: 9bf5 043e 002b 973e 2c52 163f 4e4a 123f

bias f4 [10]
0.60241294 0.082747154 0.66611445 0.4825313 -0.45108718 0.026186537 0.28390557 0.44748545
0.67410934 0.62846196
00000000: bc37 1a3f 5777 a93d 7a86 2a3f 580e f73e
00000010: e6f4 e6be 2685 d63c 125c 913e d01c e53e
00000020: 6e92 2c3f e2e2 203f

weight f4 [10, 2]
-0.65651363 0.5134547 0.04707115 -0.6046576 0.13670102 -0.23629107 -0.08395248 0.15202832
-0.1432 -0.4658234 -0.1269818 0.47325158 0.21265297 -0.56110436 -0.5785243 0.6687757
-0.40329063 -0.69350356 0.34346384 -0.20356916
00000000: 4711 28bf c471 033f aecd 403d d7ca 1abf
00000010: 5afb 0b3e 49f6 71be 47ef abbd 50ad 1b3e
00000020: 05a3 12be 6880 eebe 8407 02be 084e f23e
00000030: b3c1 593e 89a4 0fbf 2b1a 14bf e234 2b3f
00000040: 1c7c cebe 7389 31bf 7eda af3e 6f74 50be

bias f4 [10]
0.14579862 -0.5996007 0.41548038 0.62425303 0.3333422 0.16619097 0.6001339 -0.57780784
0.45152152 -0.529238
00000000: 3c4c 153e 6e7f 19bf d8b9 d43e 0ccf 1f3f
00000010: d4ab aa3e f72d 2a3e 60a2 193f 37eb 13bf
00000020: d42d e73e 247c 07bf

weight f4 [20, 4]
0.007858268 0.44777602 -0.14705788 -0.27206284 0.023406312 0.30632275 -0.05318263 -0.19975536
0.0075974395 -0.47511637 0.04397507 0.35504097 -0.27409393 -0.34427035 0.21934867 0.06737428
0.19815598 0.43273264 -0.23091 -0.000510277 -0.17493129 -0.12209653 -0.30132133 0.23114152
-0.38545436 0.1150859 -0.34137446 -0.4517997 0.11014807 0.3306098 0.09571093 -0.11452746
0.0788461 0.43733728 0.4010883 0.08164329 0.46726832 -0.46037146 0.048333526 -0.041361634
-0.38892403 -0.030237488 0.2298873 -0.28513217 0.32801378 0.2543583 -0.40758717 0.3372342
0.045818154 -0.35067528 -0.12557131 -0.30086517 0.41908547 -0.0693414 0.48053315 0.0055842823
0.091762304 -0.24687666 -0.09016001 -0.12372815 0.39279026 -0.4660013 0.38490972 0.13998452
-0.24821879 -0.013220157 -0.14713515 0.26231468 0.14039254 -0.46615368 0.31203306 -0.31194907
-0.123835444 -0.053895827 -0.4679649 0.37894607 0.26177287 0.020607438 -0.3846507 -0.06765561
00000000: f7bf 003c e642 e53e 5796 16be d24b 8bbe
00000010: 98be bf3c 56d6 9c3e 08d6 59bd ab8c 4cbe
00000020: f1f3 f83b 7442 f3be 341f 343d eec7 b53e
00000030: 0a56 8cbe 3444 b0be f09c 603e 87fb 893d
00000040: 67e9 4a3e 228f dd3e ac73 6cbe 1cc4 05ba
00000050: 3021 33be bf0d fabd ca46 9abe 5db0 6c3e
00000060: 465a c5be 28b2 eb3d a2c8 aebe 4a52 e7be
00000070: 5095 e13d b045 a93e 1804 c43d 5f8d eabd
00000080: 107a a13d acea df3e 725b cd3e 9934 a73d
00000090: cb3d ef3e cfb5 ebbe 60f9 453d d16a 29bd
000000a0: 0d21 c7be 9cb4 f7bc 9467 6b3e d8fc 91be
000000b0: 6cf1 a73e 403b 823e 44af d0be f6a9 ac3e
000000c0: d1ab 3b3d b68b b3be c495 00be 000b 9abe
000000d0: 5f92 d63e dd02 8ebd 7108 f63e 5bfc b63b
000000e0: e0ed bb3d 3ccd 7cbe d0a5 b8bd 2f65 fdbd
000000f0: ce1b c93e b997 eebe e312 c53e 1a58 0f3e
00000100: 112d 7ebe 5b99 58bc 99aa 16be 1c4e 863e
00000110: 10c3 0f3e b2ab eebe ccc2 9f3e cab7 9fbe
00000120: 709d fdbd dfc1 5cbd 1899 efbe 3805 c23e
00000130: 1807 863e eed0 a83c f0f0 c4be 068f 8abd

bias f4 [20]
0.48542845 -0.07934596 0.13800296 0.2510885 -0.120962866 0.46118045 0.3828553 -0.32304877
0.25055242 0.13640355 0.41221803 -0.41237718 0.05334907 -0.036118362 0.0635178 -0.4186458
0.17137416 -0.4568894 -0.39867592 -0.2816382
00000000: 148a f83e 2280 a2bd a650 0d3e ac8e 803e
00000010: 61bb f7bd d81f ec3e 9c05 c43e a666 a5be
00000020: 6848 803e 5fad 0b3e 3e0e d33e 1a23 d3be
00000030: 8e84 5a3d d9f0 13bd 9f15 823d be58 d6be
00000040: b57c 2f3e 68ed e9be 401f ccbe e232 90be

weight_ih_l0 f4 [12, 10]
0.4435989 0.17141797 -0.08112702 -0.21395656 0.052765038 -0.15763116 0.20382878 -0.16947997
0.21347575 -0.32080308 0.36549404 0.04274958 -0.046922494 0.3768476 0.31929448 0.40924573
0.08564074 -0.44125998 -0.22811219 -0.3418227 -0.46154398 0.4626694 -0.44825846 -0.10534965
0.47957322 0.07189004 0.20223808 -0.22721203 -0.177964 -0.42463177 -0.13350795 -0.0025107586
0.09328209 0.48246998 -0.4788291 -0.20900032 -0.4434759 -0.28737283 0.4791486 0.41903573
0.39170954 0.49217767 -0.047302935 -0.20576812 -0.45650977 -0.38162705 -0.25342044 -0.19319183
-0.0028721232 -0.048711803 0.09814448 -0.31876498 0.13324963 0.06914814 -0.08430011 -0.09448496
0.1782782 -0.11108966 -0.09670393 0.054555893 -0.099687494 0.0410826 -0.15901855 0.1989044
0.07838743 -0.030284153 0.31893364 -0.27360433 0.32862005 -0.23225644 0.09304753 0.15592472
-0.25132045 -0.18770048 0.23199262 -0.08160634 -0.32521397 0.22770712 -0.3114888 -0.15533863
-0.24787745 0.1990332 -0.4588021 -0.20785098 -0.030811494 -0.39127505 0.27527538 -0.06733772
-0.13056546 -0.34764346 0.23977885 0.2588478 -0.3166724 -0.15944633 0.433425 -0.32784542
-0.049014553 0.40089786 -0.07783738 0.06013227 -0.16917945 -0.44440332 0.39783087 0.17266919
-0.47085205 0.49264827 0.31896222 -0.20077343 0.2691968 0.48032418 -0.027486436 0.09012104
-0.38204613 0.2984861 -0.41371897 0.28954604 -0.07514934 0.15665099 0.27089414 0.22586174
00000000: 651f e33e 3188 2f3e ec25 a6bd 6e17 5bbe
00000010: 2720 583d 106a 21be 7eb8 503e 288c 2dbe
00000020: 6399 5a3e 4d40 a4be 0922 bb3e 2f1a 2f3d
00000030: cd31 40bd 2bf2 c03e 917a a33e a888 d13e
00000040: 6a64 af3d d4ec e1be 3e96 69be 6303 afbe
00000050: 7e4f ecbe 01e3 ec3e 2282 e5be 8fc1 d7bd
00000060: 9f8a f53e 163b 933d 8017 4f3e 45aa 68be
00000070: 323c 36be 5669 d9be 4fb6 08be 8a8b 24bb
00000080: ae0a bf3d 4e06 f73e 1629 f5be 2e04 56be
00000090: 460f e3be 8822 93be f752 f53e da8b d63e
000000a0: 278e c83e b6fe fb3e b9c0 41bd e1b4 52be
000000b0: a6bb e9be 9f64 c3be 53c0 81be 14d4 45be
000000c0: 3b3a 3cbb 0786 47bd f9ff c83d 2a35 a3be
000000d0: 9772 083e 8a9d 8d3d 89a5 acbd 5581 c1bd
000000e0: 8f8e 363e fa82 e3bd b60c c6bd 0076 5f3d
000000f0: f528 ccbd 3a46 283d c2d5 22be 98ad 4b3e
00000100: 9789 a03d 7916 f8bc 454b a33e de15 8cbe
00000110: e340 a83e a2d4 6dbe b48f be3d bbaa 1f3e
00000120: 13ad 80be 8e34 40be 798f 6d3e 3a21 a7bd
00000130: 7282 a6be 0e2c 693e 767b 9fbe 1711 1fbe
00000140: 96d3 7dbe 5ccf 4b3e 1ce8 eabe e3d6 54be
00000150: 6368 fcbc 3455 c8be e5f0 8c3e 5ce8 89bd
00000160: f4b2 05be 53fe b1be 9688 753e b387 843e
00000170: e322 a2be e645 23be e2e9 dd3e 5bdb a7be
00000180: 7cc3 48bd 7c42 cd3e 3469 9fbd 414d 763d
00000190: 613d 2dbe d588 e3be 7db0 cb3e 31d0 303e
000001a0: 8513 f1be 653c fc3e 044f a33e 8d97 4dbe
000001b0: 2ad4 893e 0ded f53e 3c2b e1bc 6191 b83d
000001c0: 8d9b c3be 2cd3 983e f9d2 d3be 613f 943e
000001d0: e6e7 99bd 1e69 203e a3b2 8a3e 4d48 673e

weight_hh_l0 f4 [12, 4]
-0.026558112 0.23804583 0.28507572 -0.41834167 0.15755223 0.30562308 0.06911348 -0.3977452
0.23383391 -0.056818653 0.39124042 -0.022824144 -0.12929708 0.032122493 -0.26336765 0.15073307
0.029542234 -0.15386826 0.21585661 -0.41081294 -0.061274655 0.4779503 -0.25746846 0.49419326
-0.060676895 -0.057069585 -0.41887516 -0.30245 -0.4772572 0.22776128 -0.37590107 0.45500004
-0.46068576 -0.20590343 -0.23381281 0.2758263 -0.06484743 -0.21724948 -0.33284363 -0.3857575
-0.44447815 -0.33710927 0.04295893 0.1564341 -0.36032394 0.34135365 0.48394042 0.49279228
00000000: 6690 d9bc 49c2 733e 72f5 913e e130 d6be
00000010: 5f55 213e a17a 9c3e 5e8b 8d3d 42a5 cbbe
00000020: 2872 6f3e adba 68bd aa50 c83e b3f9 babc
00000030: 7466 04be e092 033d 20d8 86be c559 1a3e
00000040: 8e02 f23c a48f 1dbe 8409 5d3e 1356 d2be
00000050: 22fb 7abd e7b5 f43e e8d2 83be e606 fd3e
00000060: 5688 78bd ccc1 69bd ce76 d6be bada 9abe
00000070: 0e5b f4be 413a 693e 1b76 c0be c4f5 e83e
00000080: 01df ebbe 59d8 52be a06c 6fbe 1b39 8d3e
00000090: bbce 84bd a676 5ebe 7b6a aabe 0282 c5be
000000a0: a492 e3be 9699 acbe b4f5 2f3d 4330 203e
000000b0: 617c b8be e8c5 ae3e 0ac7 f73e 454f fc3e

bias_ih_l0 f4 [12]
0.30037266 -0.19120386 -0.34749356 -0.15061574 0.113170974 0.0041001113 0.28198007 -0.29418844
0.48722735 0.20021598 0.1549118 -0.32265854
00000000: 72ca 993e f2ca 43be adea b1be 033b 1abe
00000010: 2fc6 e73d 3a5a 863b b15f 903e de9f 96be
00000020: dd75 f93e 6b05 4d3e 33a1 1e3e 8033 a5be

bias_hh_l0 f4 [12]
-0.46416298 -0.18421915 0.27539983 0.19853745 0.31948474 0.05432732 0.104147166 -0.05485716
0.33790264 0.21296285 -0.41899464 0.07650785
00000000: c5a6 edbe f2a3 3cbe 3501 8d3e 674d 4b3e
00000010: 8193 a33e 5386 5e3d 1c4b d53d e7b1 60bd
00000020: 9301 ad3e ef12 5a3e 7786 d6be 26b0 9c3d
