ERTSNet/best-model.pt (torch, 65570 bytes, 64 tensors)

weight_ih_l0 f4 [12, 10]
0.3277903 0.49123895 0.279005 0.37683332 -0.44744894 -0.28615 0.10509578 -0.16360438
-0.17930767 -0.29727218 0.03031169 0.333143 0.45753458 -0.27308613 -0.1396706 0.13649572
-0.154398 0.443687 0.106505506 0.34540486 -0.1030793 0.48378202 -0.48026124 -0.16431665
-0.28387195 0.43488106 -0.123967275 0.28092712 0.18686245 -0.07530981 0.08594622 0.25946066
0.4499755 0.35802484 0.4915925 -0.12849262 0.44743922 -0.15093236 -0.04794241 0.3689767
0.28529823 -0.067990325 0.14087304 0.29633054 -0.13087733 -0.21629004 -0.18840805 0.0155224735
-0.09694422 0.04094983 0.070084035 0.44201007 -0.37726983 0.43461165 -0.4849434 -0.025228621
0.22743164 -0.123058535 0.082702436 -0.4547223 0.35199937 -0.4308464 -0.0820373 -0.09147772
-0.48589405 -0.06652499 0.20213282 -0.224668 0.36438245 -0.27430692 0.272559 0.104673706
-0.16374078 0.20593153 0.18434356 -0.056821387 0.3780395 -0.07877999 -0.04469888 0.3290629
-0.34630504 0.41198146 0.31754637 -0.20316021 -0.18278936 0.056657534 0.16992332 0.11883046
-0.40750173 -0.14874147 0.23690762 -0.47240198 0.30689886 0.18383676 -0.035788853 0.42283794
-0.47058403 0.48355445 -0.49999246 0.30934128 -0.06215873 0.2586113 0.47716573 0.47742438
0.02823198 0.17511109 -0.11436779 -0.2732222 -0.08739145 -0.3297969 -0.42708632 0.15734266
-0.29227087 0.43475017 0.29496083 -0.23617263 0.26628917 -0.083960466 -0.35285443 -0.2630294
00000000: 21d4 a73e ac83 fb3e bed9 8e3e 4cf0 c03e
00000010: 0718 e5be 4182 92be 753c d73d e887 27be
00000020: 6e9c 37be 0f34 98be 3950 f83c b891 aa3e
00000030: f941 ea3e f2d1 8bbe cf05 0fbe 89c5 0b3e
00000040: 821a 1ebe f12a e33e 8f1f da3d e8d8 b03e
00000050: 3d1b d3bd 47b2 f73e cde4 f5be a042 28be
00000060: aa57 91be bba8 de3e 8ee2 fdbd aed5 8f3e
00000070: df58 3f3e 083c 9abd 9204 b03d 07d8 843e
00000080: 3063 e63e 084f b73e 03b2 fb3e 9293 03be
00000090: c116 e53e 038e 1abe 435f 44bd 84ea bc3e
000000a0: 9c12 923e 833e 8bbd 0641 103e a3b8 973e
000000b0: b504 06be 237b 5dbe 0aee 40be f951 7e3c
000000c0: b18a c6bd 02bb 273d 3888 8f3d 254f e23e
000000d0: 8329 c1be 6b85 de3e 804a f8be 41ac cebc
000000e0: d7e3 683e 1d06 fcbd e55f a93d 5cd1 e8be
000000f0: 4339 b43e e697 dcbe 2c03 a8bd ac58 bbbd
00000100: 1bc7 f8be 413e 88bd e8fb 4e3e 5e0f 66be
00000110: 5690 ba3e f571 8cbe da8c 8b3e 2b5f d63d
00000120: aaab 27be b7df 523e 8fc4 3c3e 8bbd 68bd
00000130: 658e c13e 6757 a1bd 2c16 37bd ef7a a83e
00000140: e54e b1be 3cef d23e 7095 a23e 3b09 50be
00000150: 222d 3bbe bb11 683d 6100 2e3e 625d f33d
00000160: 11a4 d0be af4f 18be e997 723e acde f1be
00000170: d921 9d3e b43f 3c3e 5597 12bd 377e d83e
00000180: 64f0 f0be 7394 f73e 03ff ffbe fb61 9e3e
00000190: 279a 7ebd b368 843e 114f f43e f870 f43e
000001a0: c146 e73c 5250 333e a939 eabd c8e3 8bbe
000001b0: 4afa b2bd 24db a8be 0fab dabe 6f1e 213e
000001c0: 87a4 95be 9397 de3e 1b05 973e 3dd7 71be
000001d0: 0e57 883e 77f3 abbd 56a9 b4be caab 86be

weight_hh_l0 f4 [12, 4]
-0.37935498 -0.30619848 -0.13799495 0.3097616 -0.2023864 -0.33822143 0.42997113 -0.3106573
-0.08261985 0.109380856 0.37895253 0.14318731 -0.4940633 -0.3684854 0.4742289 0.14832701
-0.29084545 -0.041840084 -0.12752904 0.17516887 -0.2349512 0.42654473 -0.36355352 -0.45930836
0.39142847 -0.009278485 -0.43875292 -0.21846819 0.22144549 0.45582137 0.4387649 0.041705634
-0.1445953 0.023578903 0.09113845 -0.044634096 0.44268295 -0.45264947 -0.4425866 0.47248644
-0.010871729 -0.25120795 -0.37060544 0.062468823 -0.024058197 -0.43137062 0.013609078 0.39898983
00000000: d13a c2be 0cc6 9cbe 8c4e 0dbe 1399 9e3e
00000010: 613e 4fbe 5c2b adbe 2d25 dc3e 790e 9fbe
00000020: 9934 a9bd 1203 e03d 1106 c23e b29f 123e
00000030: ddf5 fcbe 1eaa bcbe 21ce f23e 09e3 173e
00000040: b2e9 94be 8260 2bbd f996 02be 785f 333e
00000050: 0c97 70be 1264 da3e b023 babe 772a ebbe
00000060: 5069 c83e c904 18bc 39a4 e0be 20b6 5fbe
00000070: 9bc2 623e 6b61 e93e cba5 e03e 87d3 2a3d
00000080: ca10 14be 8b28 c13c cca6 ba3d 3ed2 36bd
00000090: 57a7 e23e acc1 e7be b69a e2be bee9 f13e
000000a0: 561f 32bc 549e 80be ffbf bdbe 4fdf 7f3d
000000b0: b215 c5bc 9cdc dcbe 9cf8 5e3c 6548 cc3e

bias_ih_l0 f4 [12]
-0.46822885 -0.49648914 -0.49648306 0.3769183 -0.42278647 0.023661088 0.16107653 0.26246345
-0.014918331 0.33112353 -0.3759404 0.1559093
00000000: b1bb efbe d333 febe 0733 febe 6ffb c03e
00000010: 7877 d8be e6d4 c13c 3ff1 243e 9c61 863e
00000020: 046c 74bc 0689 a93e 437b c0be b0a6 1f3e

bias_hh_l0 f4 [12]
0.44349113 0.20238544 -0.18972795 -0.37307477 0.38342422 -0.37601116 0.250592 -0.2714976
-0.0973963 -0.024569834 0.1570181 0.3141556
00000000: 4511 e33e 213e 4f3e 0b48 42be a803 bfbe
00000010: 2e50 c43e 8984 c0be 984d 803e bc01 8bbe
00000020: b677 c7bd ad46 c9bc 5ac9 203e 01d9 a03e

weight_ih_l0 f4 [12, 14]
-0.30642036 -0.32495812 0.101284675 -0.29970962 -0.23615973 0.023149472 0.20987947 -0.025460074
0.19215359 -0.13490224 0.38168088 0.0042555933 -0.44225708 -0.24975096 -0.24860196 0.3579967
-0.2643506 -0.4299293 0.09550451 -0.38470772 -0.22347327 0.1546606 -0.29224303 0.4054358
-0.44114488 0.49132517 0.19628502 0.19119202 0.10471313 -0.19412406 0.41372734 -0.15799952
-0.4872047 0.17329271 0.35467708 0.22157206 0.17740893 -0.3301707 -0.4727306 -0.46867627
-0.20057094 0.37151486 0.12509455 -0.28769252 0.1076998 0.48419923 -0.22772495 -0.33531308
0.48422477 -0.053883113 -0.45797107 -0.26337287 0.041463625 0.41356146 0.17069174 -0.03842377
-0.417221 -0.19980024 -0.27324107 0.3086129 0.15181065 -0.42407832 0.024476362 0.32646453
-0.19000815 -0.20957838 -0.42876276 -0.47604272 0.39560336 -0.23956904 -0.4414912 0.13130863
0.027820356 0.40368262 -0.226652 0.058872204 -0.38390717 -0.2674109 -0.38496807 -0.10876821
0.21560416 -0.07803563 -0.25382808 -0.103158966 -0.1515044 0.41971278 -0.061632898 0.3062516
-0.30743995 -0.41941506 0.35660705 -0.40613008 -0.02202402 -0.24437931 0.08130391 -0.15083808
0.11155535 0.04223187 -0.21155854 0.09618537 0.17748995 -0.4322269 -0.31124377 0.08452705
-0.4075113 0.24086739 0.4085028 -0.2685676 -0.42261267 -0.15243085 -0.18655653 0.17863181
-0.02814847 -0.49230117 -0.055208705 0.29318368 -0.12599307 0.120233476 -0.45283926 0.081057385
-0.4475735 -0.12482938 -0.0923044 0.19001175 0.21254596 0.21856016 -0.020918142 -0.15552455
-0.15056358 0.36883992 0.28839988 0.2215205 -0.12459364 0.15392795 -0.41541505 0.49057004
0.17378403 -0.49424973 0.07053853 0.39030504 -0.5003528 0.14019687 -0.3058964 0.13475363
-0.08302743 0.41332367 -0.29002744 0.48177075 -0.48604515 -0.28305584 -0.2820715 -0.105085954
-0.4927096 -0.24701776 -0.4663328 -0.45028046 0.4864123 0.38259247 0.4462237 0.4826703
7.2285125e-05 -0.004970892 0.48325408 -0.41758987 -0.30279446 -0.37343544 0.26543283 -0.2519665
00000000: 21e3 9cbe e960 a6be 576e cf3d 8a73 99be
00000010: dbd3 71be f6a3 bd3c a5ea 563e a591 d0bc
00000020: e9c3 443e d023 0abe ad6b c33e 8172 8b3b
00000030: 856f e2be b7be 7fbe 8391 7ebe 584b b73e
00000040: f658 87be b11f dcbe de97 c33d 69f8 c4be
00000050: 2dd6 64be 595f 1e3e e1a0 95be 4895 cf3e
00000060: bedd e1be f98e fb3e f1fe 483e d7c7 433e
00000070: d673 d63d 75c8 46be 12d4 d33e a0ca 21be
00000080: e572 f9be a573 313e 3c98 b53e c9e3 623e
00000090: b0aa 353e 220c a9be bf09 f2be 56f6 efbe
000000a0: 7862 4dbe 3237 be3e c918 003e 6f4c 93be
000000b0: b691 dc3d f6e8 f73e bb30 69be 28ae abbe
000000c0: 4fec f73e 8ab4 5cbd 2f7b eabe cfd8 86be
000000d0: c3d5 293d 54be d33e d1c9 2e3e 3e62 1dbd
000000e0: fe9d d5be 6f98 4cbe 41e6 8bbe 8302 9e3e
000000f0: 4074 1b3e cb20 d9be a782 c83c 5c26 a73e
00000100: 7f91 42be b79b 56be cb86 dbbe dfbb f3be
00000110: 868c ca3e 9651 75be 220b e2be c575 063e
00000120: 84e7 e33c 7daf ce3e 7617 68be fb23 713d
00000130: 7b8f c4be 15ea 88be 891a c5be dec1 debd
00000140: 56c7 5c3e 25d1 9fbd c1f5 81be 0245 d3bd
00000150: f823 1bbe 98e4 d63e c772 7cbd 02cd 9c3e
00000160: c568 9dbe 92bd d6be 3395 b63e 48f0 cfbe
00000170: b86b b4bc 923e 7abe aa82 a63d 4c75 1abe
00000180: 2277 e43d 53fb 2c3d cda2 58be d6fc c43d
00000190: edbf 353e d84c ddbe 585b 9fbe 851c ad3d
000001a0: 52a5 d0be f1a5 763e 4727 d13e b181 89be
000001b0: b060 d8be d516 1cbe ad08 3fbe 42eb 363e
000001c0: 9f97 e6bc e60e fcbe 8622 62bd 2c1c 963e
000001d0: 5404 01be f83c f63d 8cda e7be 6a01 a63d
000001e0: 5b28 e5be 8ca6 ffbd 170a bdbd 7192 423e
000001f0: a6a5 593e 3cce 5f3e 865c abbc d441 1fbe
00000200: 572d 1abe 96d8 bc3e 26a9 933e 45d6 623e
00000210: f32a ffbd 4a9f 1d3e 48b1 d4be ff2b fb3e
00000220: 71f4 313e 4d0e fdbe 8176 903d 10d6 c73e
00000230: 1f17 00bf c58f 0f3e 749e 9cbe dbfc 093e
00000240: 490a aabd 299f d33e 7a7e 94be a8aa f63e
00000250: e9da f8be b2ec 90be ad6b 90be 4e37 d7bd
00000260: 6f44 fcbe 39f2 7cbe 2cc3 eebe 298b e6be
00000270: 080b f93e 29e3 c33e 6f77 e43e 9020 f73e
00000280: c897 9738 dde2 a2bb 146d f73e 57ce d5be
00000290: e007 9bbe ee32 bfbe d0e6 873e c101 81be

weight_hh_l0 f4 [12, 4]
0.13260123 0.19905888 -0.37263063 0.40070787 0.4618243 -0.041154057 -0.056386612 0.2783139
0.26559547 -0.10033409 -0.18067843 0.3802901 -0.3058955 0.0005737727 0.46696985 -0.0486998
0.03111611 -0.23766081 0.43990725 0.1614932 -0.051663157 -0.49069747 -0.39147484 0.42024213
-0.4956447 0.18951629 -0.2532471 0.41500136 0.057496507 -0.16616164 0.3133958 -0.17529583
0.08098073 0.32342267 -0.47877347 0.03563938 0.052514922 0.38607875 0.18219824 0.41145918
-0.46071643 -0.19410661 0.2437622 0.23631693 -0.20393789 -0.48516092 0.3407365 -0.35349676
00000000: 9ec8 073e 17d6 4b3e 71c9 bebe 9529 cd3e
00000010: 3c74 ec3e 2891 28bd a6f5 66bd 297f 8e3e
00000020: 21fc 873e f67b cdbd c403 39be 62b5 c23e
00000030: 569e 9cbe 3c69 163a ac16 ef3e 7179 47bd
00000040: 36e7 fe3c 5b5d 73be 863b e13e 795e 253e
00000050: bf9c 53bd b33c fbbe 646f c8be fa29 d73e
00000060: 24c5 fdbe 8f10 423e 9ba9 81be 0f7b d43e
00000070: 7581 6b3d 4726 2abe 6a75 a03e c080 33be
00000080: 3ad9 a53d a897 a53e cc21 f5be 99fa 113d
00000090: e319 573d 1dac c53e 2d92 3a3e c7aa d23e
000000a0: 06e3 ebbe e2c3 46be cc9c 793e 11fd 713e
000000b0: 18d5 50be 0367 f8be 0475 ae3e 87fd b4be

bias_ih_l0 f4 [12]
0.031267904 0.119243205 -0.24884905 -0.24140848 0.0676696 -0.2561886 0.006656063 -0.2002482
0.37035748 -0.07578041 -0.043079708 0.14118713
00000000: c612 003d c835 f43d 49d2 7ebe c933 77be
00000010: 5c96 8a3d 272b 83be 1a1b da3b dd0d 4dbe
00000020: 7f9f bd3e c232 9bbd 5974 30bd 5c93 103e

bias_hh_l0 f4 [12]
0.03894711 0.19672503 0.09726508 -0.3490044 0.25261217 -0.41808483 0.16631763 -0.4071502
0.38358915 -0.37360457 0.14782026 -0.29895407
00000000: 0187 1f3d 4972 493e ea32 c73d b4b0 b2be
00000010: 6256 813e 370f d6be 2b4f 2a3e fe75 d0be
00000020: cc65 c43e 1949 bfbe 325e 173e 8210 99be

weight_ih_l0 f4 [12, 24]
-0.34999704 0.42933047 -0.08514573 0.24612233 0.010951679 0.3983371 0.2136117 0.10098009
0.39315787 0.24189933 -0.06693391 -0.08247363 0.32701185 0.2513735 0.026664138 -0.25632703
-0.07216131 0.11503524 0.3025663 -0.38970983 -0.2264739 -0.116782285 -0.3116725 0.4294588
-0.12874097 -0.46278536 0.021201484 0.032385383 -0.03869992 -0.4418177 -0.06533777 -0.18380378
0.4985426 0.25950086 -0.41721317 -0.12744267 -0.4409647 -0.065977834 -0.16255239 0.030600417
0.47492948 -0.11098712 -0.48073298 0.45877662 -0.3808349 0.24918194 0.11890739 -0.42018846
-0.28061312 0.45788923 0.04411589 0.1889175 -0.14038457 0.41810298 -0.25883937 0.19771796
-0.21272253 0.020400302 0.16629651 -0.033369143 -0.0745715 -0.2418978 -0.26818427 -0.47487336
0.27103832 0.49315932 -0.29869762 0.09849994 0.03251986 0.17603557 0.13588607 -0.063160256
0.15667889 -0.18762234 -0.20077741 -0.50213474 -0.18107407 -0.20212154 0.22183451 -0.010515111
0.19801472 -0.26740712 0.45389608 -0.38129944 -0.2663532 -0.36665988 0.34436756 0.37828627
-0.20819946 0.4062295 -0.3899749 0.19354823 -0.20472287 0.16955529 0.4048345 0.29863495
-0.37156516 -0.24664353 0.26664904 -0.37315685 0.35696763 -0.38022956 0.008206252 0.23364422
-0.40865254 -0.30980676 -0.36500087 0.041016243 0.0571186 0.12942366 0.46779278 0.4228973
0.47578326 0.2490524 -0.37187573 0.04501725 -0.23613869 0.32335624 -0.15643214 -0.4552128
0.22729409 0.3243339 0.4044778 -0.4420695 0.23848455 -0.07135437 0.30715397 0.48717493
-0.2215245 0.39585888 0.07481765 -0.27503598 0.36090374 -0.2270389 -0.4578445 0.45043528
-0.04536711 -0.42036587 0.26324943 -0.45855072 0.07089441 0.3222254 -0.32413626 -0.27168632
0.33977363 0.25717854 -0.3624837 0.27812508 -0.3523333 0.36362666 0.12586376 0.32212952
-0.18196619 -0.41584107 0.30216295 -0.37925005 -0.29341483 -0.40750605 0.49406174 -0.05127807
0.23500587 -0.4268252 0.4756733 -0.35265964 -0.22109482 -0.48465964 -0.317395 0.08991513
-0.213197 -0.45718434 0.12745474 -0.20033883 0.43736634 -0.38079962 -0.04062378 -0.029677473
0.3502255 0.35470733 0.40945554 -0.011432716 0.4030901 -0.254626 -0.1696929 0.09914309
-0.17088722 0.24062052 -0.2279899 0.4608101 -0.334843 -0.3623488 0.15687227 0.37592536
0.39589807 -0.26085505 -0.1287435 0.26729348 0.45223314 -0.2379595 0.36879465 0.30407175
-0.41504616 -0.45158467 0.08415662 -0.25774568 -0.30888626 0.38745755 -0.44637683 0.47702572
0.3726248 0.24028793 -0.010971054 -0.18662132 0.29877797 0.43310583 -0.14944208 0.15496291
-0.4913385 -0.0948262 -0.25745505 0.12949252 -0.19696316 -0.18343237 -0.33256543 -0.10079586
-0.035056435 0.17021571 0.027653681 0.32710764 -0.122463055 -0.21403006 0.20664288 -0.02348253
0.3701192 -0.26925424 0.1822458 -0.282952 -0.15216462 -0.22829089 -0.392525 0.31455445
-0.4922609 0.047665812 -0.36493304 -0.12082483 -0.49326995 0.27481312 -0.13869007 0.414758
-0.41584384 0.09223649 -0.30818248 0.06398283 -0.17750317 -0.040221218 -0.027219547 0.14367755
00000000: d032 b3be 34d1 db3e e260 aebd 7e07 7c3e
00000010: ac6e 333c d7f2 cb3e 07bd 5a3e a6ce ce3d
00000020: fd4b c93e 75b4 773e a514 89bd efe7 a8bd
00000030: 196e a73e 07b4 803e c06e da3c 4c3d 83be
00000040: 4fc9 93bd 9997 eb3d f8e9 9a3e 0c88 c7be
00000050: c6e8 67be 8d2b efbd 8a93 9fbe 06e2 db3e
00000060: acd4 03be 34f2 ecbe bcae ad3c 89a6 043d
00000070: cf83 1ebd ee35 e2be cfcf 85bd 0f37 3cbe
00000080: fa40 ff3e 4cdd 843e f79c d5be 5580 02be
00000090: 20c6 e1be 631f 87bd 2274 26be baad fa3c
000000a0: f529 f33e 374d e3bd a222 f6be c5e4 ea3e
000000b0: cbfc c2be 8d29 7f3e b885 f33d f122 d7be
000000c0: 86ac 8fbe 7570 ea3e ddb2 343d 9773 413e
000000d0: f9c0 0fbe 9811 d63e 9886 84be 9476 4a3e
000000e0: efd3 59be 891e a73c a249 2a3e 15ae 08bd
000000f0: f1b8 98bd 0fb4 77be 734f 89be 9a22 f3be
00000100: 89c5 8a3e 617f fc3e e5ee 98be 56ba c93d
00000110: 8b33 053d ab42 343e b825 0b3e 2a5a 81bd
00000120: 6e70 203e 1220 40be 9898 4dbe e78b 00bf
00000130: 7b6b 39be f3f8 4ebe 9628 633e 9247 2cbc
00000140: 5fc4 4a3e 96e9 88be 1165 e83e ae39 c3be
00000150: 725f 88be d8ba bbbe f250 b03e bdae c13e
00000160: 3d32 55be 50fd cf3e caaa c7be 8231 463e
00000170: dfa2 51be e79f 2d3e 7846 cf3e aee6 983e
00000180: ca3d bebe 1f90 7cbe 3986 883e 6a0e bfbe
00000190: 76c4 b63e 73ad c2be 8473 063c 6e40 6f3e
000001a0: e83a d1be fe9e 9ebe 65e1 babe a600 283d
000001b0: 31f5 693d a387 043e 8982 ef3e ff85 d83e
000001c0: dd99 f33e 9807 7f3e 7f66 bebe 0264 383d
000001d0: 57ce 71be f38e a53e bf2f 20be a711 e9be
000001e0: c8bf 683e 180f a63e b717 cf3e ef56 e2be
000001f0: 4b35 743e 3d22 92bd 4943 9d3e fe6e f93e
00000200: 52d7 62be 04ae ca3e ff39 993d 84d1 8cbe
00000210: 60c8 b83e e37c 68be 986a eabe 749f e63e
00000220: ddd2 39bd 323a d7be a1c8 863e 29c7 eabe
00000230: 1731 913d bafa a43e 30f5 a5be 781a 8bbe
00000240: cff6 ad3e e8ac 833e 7797 b9be 6966 8e3e
00000250: 0865 b4be 462d ba3e 6ee2 003e 29ee a43e
00000260: 5855 3abe 1fe9 d4be 1ab5 9a3e 102d c2be
00000270: 783a 96be a2a4 d0be a9f5 fc3e f408 52bd
00000280: 61a5 703e d588 dabe 738b f33e ce8f b4be
00000290: ae66 62be 4f25 f8be 9981 a2be 6c25 b83d
000002a0: 5050 5abe 1114 eabe 7f83 023e 9f25 4dbe
000002b0: 7bee df3e 2bf8 c2be 1f65 26bd 2c1e f3bc
000002c0: c250 b33e 339c b53e 28a4 d13e 4950 3bbc
000002d0: d361 ce3e 575e 82be fac3 2dbe 880b cb3d
000002e0: 0ffd 2ebe 3a65 763e 2f76 69be 4def eb3e
000002f0: 8b70 abbe c885 b9be 20a3 203e 4a79 c03e
00000300: 27b3 ca3e cb8e 85be 56d5 03be b1da 883e
00000310: 1a8b e73e a8ab 73be a7d2 bc3e 4baf 9b3e
00000320: ee80 d4be 1b36 e7be 4e5a ac3d 3ef7 83be
00000330: 5726 9ebe d660 c63e 818b e4be b73c f43e
00000340: aec8 be3e 0a0e 763e f0bf 33bc a919 3fbe
00000350: 6df9 983e 0cc0 dd3e 5807 19be 99ae 1e3e
00000360: b890 fbbe 3d34 c2bd 26d1 83be b099 043e
00000370: b6b0 49be b2d5 3bbe 0446 aabe 0f6e cebd
00000380: 5697 0fbd 074d 2e3e f989 e23c a77a a73e
00000390: e9cd fabd b22a 5bbe 319a 533e 6f5e c0bc
000003a0: 4480 bd3e b1db 89be a59e 3a3e 16df 90be
000003b0: 0bd1 1bbe 16c5 69be 09f9 c8be 480d a13e
000003c0: 9f09 fcbe 3a3d 433d 81d8 babe 0273 f7bd
000003d0: e18d fcbe 4eb4 8c3e c504 0ebe 295b d43e
000003e0: 7ce9 d4be 7ce6 bc3d 18ca 9dbe 6e09 833d
000003f0: 64c3 35be 01bf 24bd 87fb debc 3520 133e

weight_hh_l0 f4 [12, 4]
-0.2665922 0.23386744 -0.20395228 -0.25861856 -0.028142521 0.41276446 0.10205291 0.49599028
0.50221044 0.24450225 0.23863238 0.26237303 0.10930779 0.016231302 0.48681867 -0.105214015
0.41812915 -0.08512137 -0.13744335 0.4916193 -0.040449344 -0.4140089 0.380385 -0.3178346
-0.16604374 -0.4497249 0.3363355 -0.24243799 0.20050012 0.19290355 0.075936146 -0.08316074
0.029653877 0.11807737 0.42960918 -0.42748508 0.41106918 0.022587908 0.31601894 -0.3877287
0.24022733 0.44690925 0.29994294 -0.37566695 0.3102787 0.13956341 0.21671616 0.3845126
00000000: c67e 88be f27a 6f3e ded8 50be a769 84be
00000010: 258b e6bc dd55 d33e 1e01 d13d 70f2 fd3e
00000020: dd90 003f cc5e 7a3e 0c5c 743e c255 863e
00000030: c3dc df3d 82f7 843c 4c40 f93e 727a d7bd
00000040: 0615 d63e 1d54 aebd f3bd 0cbe 86b5 fb3e
00000050: 36ae 25bd f9f8 d3be d3c1 c23e 37bb a2be
00000060: 5f07 2abe 5842 e6be 2b34 ac3e aa41 78be
00000070: e74f 4d3e 8288 453e 6984 9b3d 2e50 aabd
00000080: b0ec f23c 8cd2 f13d bcf5 db3e 53df dabe
00000090: a977 d23e 470a b93c 3ccd a13e 6084 c6be
000000a0: 27fe 753e 4ad1 e43e 1f92 993e 6b57 c0be
000000b0: dadc 9e3e b6e9 0e3e d7ea 5d3e d6de c43e

bias_ih_l0 f4 [12]
0.37828243 0.2491413 0.120280005 -0.49188066 -0.46070272 0.19319399 0.38394555 -0.25005648
-0.38960803 -0.37577665 0.09797513 -0.41154823
00000000: 3cae c13e e61e 7f3e 5d55 f63d c8d7 fbbe
00000010: 3ae1 ebbe a5d4 453e 8394 c43e 6707 80be
00000020: b47a c7be cc65 c0be 2fa7 c83d 73b6 d2be

bias_hh_l0 f4 [12]
0.469374 0.14386006 -0.46671286 -0.15386628 -0.01284443 0.019231608 0.069699936 0.35714006
0.33136323 0.30969313 -0.3866801 -0.02338602
00000000: ca51 f03e 0d50 133e fdf4 eebe 1f8f 1dbe
00000010: 7271 52bc 9b8b 9d3c d7be 8e3d 10db b63e
00000020: 71a8 a93e 1990 9e3e effa c5be 0a94 bfbc

weight f4 [4, 4]
-0.105247736 -0.15518373 0.0017728144 -0.10696072 -0.2056879 0.3228062 0.4744963 0.17125373
0.38657713 -0.19657928 -0.21270137 0.22164704 -0.2562657 -0.014024359 -0.48706338 0.45725304
00000000: 208c d7bd 7ce8 1ebe c85d e83a 390e dbbd
00000010: d99f 52be db46 a53e 2ef1 f23e 235d 2f3e
00000020: 70ed c53e 144c 49be 63ce 59be 71f7 623e
00000030: 4235 83be 6dc6 65bc 5f60 f9be 121d ea3e

bias f4 [4]
-0.406679 -0.06703104 0.21676143 0.0020124111
00000000: 3b38 d0be 9247 89bd b5f6 5d3e a8e2 033b

weight f4 [320, 8]
-0.07343973 0.257652 -0.24051918 -0.0041743037 0.2778581 -0.20136748 -0.22018333 0.108543664
0.21209988 -0.09784156 -0.23470773 0.23780757 0.35136408 -0.030016752 0.19612032 0.28091207
0.19695126 0.0039951215 -0.03811545 0.13392301 0.19015817 0.14227974 -0.15191518 -0.09241472
-0.22722612 0.029517286 -0.14681156 -0.27626905 0.29850286 -0.04194037 -0.072428904 0.13607478
-0.01304203 0.14454162 0.25787887 0.15133716 -0.11940605 0.15506208 0.01512413 -0.11134645
-0.21085267 -0.22258389 0.17215309 -0.051277444 -0.21862638 -0.08094377 -0.30608928 -0.26028448
-0.07701771 0.3443887 0.23470056 -0.21346013 -0.13195647 -0.21422127 0.069673926 -0.21275178
-0.10006821 0.15294714 0.01489437 -0.27603796 0.0014169237 -0.01844865 -0.18634868 0.22062054
0.005274522 0.32600844 0.18396936 -0.31031215 0.097190246 -0.08821229 0.17717138 0.33925757
0.30546236 0.31501597 -0.034415513 0.14504974 -0.087254144 0.043182116 -0.09257072 0.06700255
0.1821408 -0.09167398 0.047039855 0.040438034 -0.031844605 -0.33193606 -0.2507002 -0.21498846
-0.015813326 -0.105773106 0.3162593 0.027796704 -0.061073493 0.18613508 0.1727083 -0.26717237
0.048477795 0.10909229 0.31518 0.1367584 0.19339134 0.11642448 0.30571908 -0.05212886
-0.20822471 -0.030359922 0.17021053 -0.049894944 0.05443282 0.16983475 -0.21774559 0.34867555
0.2915819 -0.055064455 -0.30483586 0.0384964 0.21923576 0.3371022 0.33304468 0.2884719
-0.2193084 -0.15078539 -0.33713904 -0.29838455 0.04775952 0.07086509 -0.061469357 0.07273361
0.08335722 -0.3372043 -0.3348363 0.19704646 0.0037584156 0.33396676 -0.069987416 -0.14150558
-0.16470984 -0.28395715 0.32539088 0.2285121 -0.20483054 0.13036366 -0.026456032 0.19844984
-0.33411345 0.07630719 0.0655126 0.16220479 -0.06231026 -0.25936508 -0.09506187 -0.3025381
-0.20968251 -0.20809262 -0.15029319 0.22766466 -0.32984343 -0.19341709 -0.16509105 -0.09514403
0.00041519862 -0.04509378 -0.115552835 0.23477113 0.014498254 -0.32358524 -0.11421233 0.1019069
0.20391828 0.2842442 0.32011467 -0.12168421 -0.3078484 0.3284149 -0.16124463 0.3031213
0.096155144 0.042106308 0.27165988 -0.11498376 0.078229114 -0.030108167 -0.1853846 0.29664555
-0.09927124 -0.3467091 0.056216527 0.19008222 0.35372362 -0.35402882 -0.20147784 0.34505248
0.029153151 0.20570047 0.124358065 0.043352388 -0.1667414 -0.12014807 0.039006926 0.14190343
0.10063188 0.22870536 -0.041926537 -0.11045982 -0.006355941 -0.26998377 -0.05686639 0.34636012
0.123623036 0.0031085785 -0.22438553 0.24566309 -0.23136032 -0.2558243 -0.32770097 -0.13042337
-0.10753783 0.17607343 0.22209485 -0.34430298 -0.03405251 0.15136014 -0.13510235 -0.18654081
0.26540762 -0.31957248 -0.10443346 0.07619636 -0.08235999 0.2293378 0.017351855 0.101095185
0.09745305 0.1009084 0.12555344 0.015179872 0.016641134 -0.13969183 0.122542955 -0.29502365
0.032774847 -0.02802023 -0.17221859 0.2921952 0.317157 -0.1749455 -0.29765454 0.28233635
-0.09840919 -0.27632195 -0.10445526 -0.35531807 -0.018198019 -0.31943384 -0.10074909 -0.07391629
00000000: 9267 96bd f7ea 833e a94a 76be 99c8 88bb
00000010: 6b43 8e3e 4733 4ebe bd77 61be 244c de3d
00000020: b630 593e 2861 c8bd 3957 70be d483 733e
00000030: fee5 b33e b1e5 f5bc c4d3 483e b5d3 8f3e
00000040: 97ad 493e 82e9 823b f21e 1cbd 1d23 093e
00000050: d3b8 423e c8b1 113e a78f 1bbe ee43 bdbd
00000060: f7ad 68be 3cce f13c c555 16be 2373 8dbe
00000070: 5ed5 983e aac9 2bbd 9b55 94bd 3057 0b3e
00000080: 3dae 55bc b802 143e b308 843e 21f8 1a3e
00000090: 298b f4bd 98c8 1e3e 33cb 773c 9c09 e4bd
000000a0: c3e9 57be 08ed 63be e648 303e 4c08 52bd
000000b0: 98df 5fbe d9c5 a5bd bcb7 9cbe 0244 85be
000000c0: 76bb 9dbd b753 b03e 5855 703e 4b95 5abe
000000d0: 991f 07be d25c 5bbe 34b1 8e3d 9adb 59be
000000e0: 90f0 ccbd 2d9e 1c3e 8407 743c d954 8dbe
000000f0: 12b8 b93a a021 97bc 30d2 3ebe 5aea 613e
00000100: e6d5 ac3b 94ea a63e 7762 3c3e 3ce1 9ebe
00000110: ae0b c73d a5a8 b4bd 6a6c 353e 2bb3 ad3e
00000120: 9065 9c3e c649 a13e 48f7 0cbd eb87 143e
00000130: 4db2 b2bd bbdf 303d b895 bdbd a238 893d
00000140: 1e83 3a3e 91bf bbbd ddac 403d 5aa2 253d
00000150: 7d6f 02bd 86f3 a9be c75b 80be ef25 5cbe
00000160: f38a 81bc 929f d8bd bdec a13e eab5 e33c
00000170: 3328 7abd 329a 3e3e 72da 303e d1ca 88be
00000180: a790 463d c76b df3d 465f a13e 650a 0c3e
00000190: 6108 463e f56f ee3d 3687 9c3e 1285 55bd
000001a0: dc38 55be 5fb5 f8bc ab4b 2e3e a45e 4cbd
000001b0: f3f4 5e3d 29e9 2d3e b3f8 5ebe 9a85 b23e
000001c0: 394a 953e 448b 61bd 7213 9cbe 67ae 1d3d
000001d0: 577f 603e a998 ac3e d584 aa3e 97b2 933e
000001e0: 6292 60be 7c67 1abe 7d9d acbe dcc5 98be
000001f0: 7d9f 433d b721 913d 4bc7 7bbd 5cf5 943d
00000200: 31b7 aa3d 0ba6 acbe aa6f abbe 8cc6 493e
00000210: c04f 763b b1fd aa3e 9055 8fbd d7e6 10be
00000220: b2a9 28be d562 91be a299 a63e 13ff 693e
00000230: 19bf 51be 0d7e 053e 52ba d8bc 6f36 4b3e
00000240: eb10 abbe f246 9c3d 782b 863d 0319 263e
00000250: 0b39 7fbd 80cb 84be ccaf c2bd 46e6 9abe
00000260: 03b7 56be 3b16 55be 75e6 19be ed20 693e
00000270: 3de1 a8be 210f 46be a10d 29be e0da c2bd
00000280: 04af d939 41b4 38bd f7a6 ecbd d867 703e
00000290: 168a 6d3c f7ac a5be 27e8 e9bd 91b4 d03d
000002a0: f4cf 503e 7588 913e 12e6 a33e 9235 f9bd
000002b0: 4e9e 9dbe ff25 a83e 501d 25be b732 9b3e
000002c0: fdec c43d aa77 2c3d 0117 8b3e 9b7c ebbd
000002d0: 9636 a03d 67a5 f6bc 76d5 3dbe ede1 973e
000002e0: b84e cbbd db83 b1be 4d43 663d eaa4 423e
000002f0: 431b b53e 4443 b5be 3550 4ebe b8aa b03e
00000300: 97d2 ee3c 25a3 523e 71af fe3d 4692 313d
00000310: 42be 2abe 3110 f6bd bac5 1f3d 224f 113e
00000320: 1618 ce3d bd31 6a3e 29bb 2bbd c238 e2bd
00000330: 7f45 d0bb 503b 8abe bbec 68bd 1d56 b13e
00000340: 132e fd3d 4bb9 4b3b 52c5 65be 1b8f 7b3e
00000350: b8e9 6cbe 67fb 82be 6cc8 a7be b48d 05be
00000360: cb3c dcbd 984c 343e d56c 633e 7b48 b0be
00000370: a57a 0bbd 27fe 1a3e 4558 0abe 8e04 3fbe
00000380: 82e3 873e 019f a3be 36e1 d5bd d60c 9c3d
00000390: 5bac a8bd 87d7 6a3e 7a25 8e3c fe0a cf3d
000003a0: 7795 c73d 10a9 ce3d 1591 003e ffb4 783c
000003b0: fd52 883c 600b 0fbe cdf7 fa3d 570d 97be
000003c0: eb3e 063d ae8a e5bc 125a 30be 9c9a 953e
000003d0: 6762 a23e ea24 33be 2d66 98be 648e 903e
000003e0: c28a c9bd 127a 8dbe a4ec d5bd 40ec b5be
000003f0: 0314 95bc d58c a3be 8a55 cebd 6d61 97bd

bias f4 [320]
-0.03297253 -0.060174286 0.17657863 0.14827107 0.24340656 -0.30250767 0.011189917 0.12149294
0.12948619 -0.26049057 0.12839217 0.16434552 -0.2764046 0.0070619155 0.21762887 -0.10006535
0.008448822 -0.3098957 -0.053156156 -0.12128011 -0.12705688 0.33861375 0.10779876 -0.14693603
0.059656527 0.03444668 -0.33873683 -0.2662796 0.0007262086 0.002477429 0.18535267 0.17616948
0.29715785 -0.16057591 -0.33161065 0.22257279 -0.0974761 0.24621259 -0.22225285 -0.06361711
0.25977036 -0.31400192 0.15601167 0.13594988 -0.22190031 0.14803219 0.12748449 -0.11079362
-0.24664707 -0.2389224 -0.12435928 0.29614317 0.009536495 0.34269944 -0.108466916 -0.2403233
0.25270027 -0.34367734 0.15124987 -0.10635269 0.050332908 -0.21282224 -0.11881661 -0.2651006
-0.17202246 -0.33083117 0.33496767 -0.068828166 0.13731657 -0.24808471 -0.21700932 0.30220157
-0.11086673 0.2570141 -0.19481793 -0.29734892 -0.063448355 0.27017987 0.26640773 0.25873098
0.024560347 -0.15223268 0.27959743 -0.3050214 -0.08678189 -0.27387914 0.25039518 -0.26028904
-0.21632774 0.059882533 -0.27773964 -0.3225745 0.22942984 -0.31346366 -0.006701391 -0.07382459
0.33030537 -0.033063088 0.19673812 -0.16940278 0.3440947 0.031547196 0.195916 -0.03725031
0.2494698 -0.05393242 -0.22128414 0.22773528 0.053805955 0.13969861 0.1101488 -0.2952122
0.09624621 0.22880456 -0.3456376 0.19547625 -0.08594879 -0.19582206 0.16999778 -0.06906694
0.2433226 0.23491627 0.26965532 -0.0992947 0.3408714 0.1869444 0.05403759 -0.26776433
-0.10451927 -0.23780571 -0.15339464 -0.09427706 0.08704372 -0.17889056 -0.22950818 -0.26693577
0.19212759 0.022030253 -0.07091679 0.19932754 -0.33014783 0.21284495 0.22407562 0.09452237
0.22202583 -0.14744982 -0.16612317 0.33911788 0.12256564 0.090043634 0.2865097 0.24862494
0.00071256986 -0.20249864 0.34624207 -0.17281874 -0.010063357 0.03414259 -0.26053143 0.035475366
0.32144907 -0.20412943 0.24388228 0.23591119 -0.0008292615 0.09225352 0.259657 -0.16342527
-0.14764279 -0.06658512 -0.3096316 -0.013453855 -0.27883312 -0.25706178 0.31821352 -0.07609124
-0.2617803 0.08234072 0.14367151 0.008321761 -0.28217554 -0.097963646 -0.023871256 0.23891582
0.10059062 0.11938766 0.0943712 0.33745226 -0.009321515 0.30255237 -0.15324019 -0.3475903
0.087752745 -0.057320405 -0.011922476 0.031095637 -0.050654158 -0.07002796 -0.18471193 0.31758684
0.3216902 0.18717892 0.14025526 -0.16093214 0.0014513944 -0.2557689 0.25129145 0.2265481
0.15770957 -0.29545677 -0.065640315 -0.20303267 0.10129969 -0.2057315 -0.2903421 0.24128842
-0.17211226 -0.117639765 0.19149779 -0.14375097 0.29527462 0.052844077 0.10613524 0.23855174
0.038154114 0.18098162 -0.023358846 0.017643608 0.013226456 0.30371323 0.09868955 0.15176533
-0.0536488 0.33149782 0.19361919 0.067311294 -0.08269911 -0.14486353 0.35125542 -0.09299249
0.25050265 0.3455388 0.1280214 0.121632636 0.08504043 0.17778166 0.07857087 -0.20246409
0.005562168 0.15847921 0.08545481 0.23574737 0.14188477 0.08355054 -0.21029834 -0.022871537
00000000: 340e 07bd 5079 76bd 07d1 343e 5fd4 173e
00000010: 923f 793e 49e2 9abe ea55 373c 4ad1 f83d
00000020: 0798 043e 055f 85be 3d79 033e 314a 283e
00000030: e784 8dbe a467 e73b 1ada 5e3e 10ef ccbd
00000040: ee6c 0a3c a6aa 9ebe 45ba 59bd b561 f8bd
00000050: 331b 02be c85e ad3e 99c5 dc3d 6676 16be
00000060: 675a 743d f617 0d3d ea6e adbe cd55 88be
00000070: 095f 3e3a 5d5c 223b 17cd 3d3e c665 343e
00000080: 1325 983e 036e 24be dfc8 a9be 1fea 633e
00000090: 8da1 c7bd 271f 7c3e 4096 63be b049 82bd
000000a0: 9f00 853e dcc4 a0be 86c1 1f3e 7236 0b3e
000000b0: d639 63be c095 173e 4b8b 023e c4e7 e2bd
000000c0: 0d91 7cbe 13a8 74be 14b0 febd 14a0 973e
000000d0: f63e 1c3c 4d76 af3e e723 debd 5017 76be
000000e0: ee61 813e 7af6 afbe 3fe1 1a3e 70cf d9bd
000000f0: e129 4e3d 13ee 59be 1f56 f3bd 44bb 87be
00000100: a826 30be b462 a9be e280 ab3e c8f5 8cbd
00000110: b79c 0c3e eb09 7ebe b137 5ebe 2aba 9a3e
00000120: 190e e3bd 5a97 833e 5a7e 47be 1e3e 98be
00000130: 36f1 81bd 0455 8a3e 9866 883e 6378 843e
00000140: c832 c93c e2e2 1bbe 6527 8f3e c42b 9cbe
00000150: b4ba b1bd e339 8cbe cc33 803e 9b44 85be
00000160: 0585 5dbe 6347 753d e433 8ebe 7c28 a5be
00000170: a8ef 6a3e 4f7e a0be 5897 dbbb 5931 97bd
00000180: c91d a93e 296d 07bd b875 493e ec77 2dbe
00000190: 2e2d b03e a237 013d 349e 483e c893 18bd
000001a0: 0375 7f3e 3ee8 5cbd 4f98 62be 7033 693e
000001b0: a263 5c3d 270d 0f3e b295 e13d 0e26 97be
000001c0: bc1c c53d be4b 6a3e 69f7 b0be ed2a 483e
000001d0: eb05 b0bd 9485 48be e613 2e3e f872 8dbd
000001e0: 8f29 793e e48d 703e 4310 8a3e 055b cbbd
000001f0: b286 ae3e 5a6e 3f3e 8556 5d3d 6818 89be
00000200: 330e d6bd 5783 73be 7c13 1dbe 5514 c1bd
00000210: fa43 b23d 162f 37be 3104 6bbe ceab 88be
00000220: 18bd 443e ca78 b43c d23c 91bd 851c 4c3e
00000230: 2309 a9be 07f4 593e 1474 653e f294 c13d
00000240: bd5a 633e 16fd 16be 311c 2abe dca0 ad3e
00000250: b203 fb3d cc68 b83d 66b1 923e 8997 7e3e
00000260: c1cb 3a3a ce5b 4fbe a446 b13e 65f7 30be
00000270: c7e0 24bc 1ad9 0b3d 6064 85be 9e4e 113d
00000280: f994 a43e 4e07 51be 47bc 793e b492 713e
00000290: cc62 59ba 6aef bc3d c3f1 843e f458 27be
000002a0: ac2f 17be c85d 88bd 0888 9ebe 8f6d 5cbc
000002b0: 37c3 8ebe 9a9d 83be e2ec a23e b9d5 9bbd
000002c0: 1108 86be 40a2 a83d a01e 133e ff57 083c
000002d0: 5079 90be 2aa1 c8bd a78d c3bc 59a6 743e
000002e0: 7402 ce3d 8481 f43d b045 c13d 8bc6 ac3e
000002f0: 45b9 18bc 25e8 9a3e ffea 1cbe 5bf7 b1be
00000300: b6b7 b33d cdc8 6abd 7d56 43bc 47bc fe3c
00000310: bc7a 4fbd d26a 8fbd 2025 3dbe be9a a23e
00000320: 94b4 a43e d5ab 3f3e 139f 0f3e 65cb 24be
00000330: b73c be3a 24f4 82be 46a9 803e 3afc 673e
00000340: 9e7e 213e 1c46 97be 6e6e 86bd cce7 4fbe
00000350: 3676 cf3d 47ab 52be b8a7 94be 5014 773e
00000360: 323e 30be 1eed f0bd ff17 443e 7433 13be
00000370: 3c2e 973e 0873 583d 6f5d d93d e846 743e
00000380: 7d47 1c3d 3f53 393e 0d5b bfbc 5489 903c
00000390: c7b3 583c 4d80 9b3e bf1d ca3d 5f68 1b3e
000003a0: d8be 5bbd 15ba a93e 1c44 463e 81da 893d
000003b0: 275e a9bd 1b57 14be c0d7 b33e d972 bebd
000003c0: e241 803e 76ea b03e 0b18 033e 881a f93d
000003d0: ad29 ae3d 650c 363e c4e9 a03d bf52 4fbe
000003e0: d942 b63b 6048 223e ee02 af3d c267 713e
000003f0: 3e4a 113e 8c1c ab3d 7358 57be 175d bbbc

weight f4 [4, 320]
0.0062276814 -0.042839155 -0.031220276 -0.0175071 -0.04516379 -0.002864597 -0.053718135 0.052193705
0.004915125 0.039471656 0.04834679 0.026143856 0.01113792 0.035052266 -0.031095263 0.015707357
0.053511225 -0.045430847 -0.03626388 0.010526847 -0.0119230095 -0.051380083 0.030264208 0.030978289
-0.0010455387 -0.035538338 -0.02178242 0.012750569 -0.022610411 -0.029330641 0.0065275836 -0.03937147
-0.05850406 -0.048139382 0.019623144 -0.04734672 -0.0037199068 -0.05818248 -0.04910951 -0.0018183351
0.044891313 0.008302516 -0.021590345 0.019655436 0.049962353 0.051918127 0.034874883 -0.029392218
-0.057652745 0.020722738 -0.004324429 -0.025662556 0.037464958 -0.046980478 -0.050025716 0.045167796
-0.032897264 -0.007883227 -0.052651443 -0.022997 -0.056602277 -0.02385321 0.0050300974 0.02909016
-0.027408715 0.025988458 0.028122373 -0.0055507594 -0.0070956177 0.02089677 0.03699286 -0.034007587
-0.024892366 -0.057934888 -0.010489915 0.018942455 0.049061928 -0.02735226 -0.057419494 0.040966418
0.026742231 -0.004170995 -0.056678876 -0.048592184 0.03930874 -0.02205382 -0.034877982 0.026495256
-0.006591061 0.007813472 -0.025413785 -0.05283293 -0.005977566 0.057765085 0.03454847 0.042169202
0.026203794 0.044868693 0.010591596 0.052208204 -0.011663207 0.021496 -0.02403108 0.026797678
-0.032136213 -0.04505911 -0.02903277 -0.00081499206 0.007257161 0.020602135 0.039779108 0.011332122
0.046822134 -0.052706886 -0.012973908 -0.026464056 -0.037241925 -0.04292316 -0.015050821 0.01834599
-0.02614044 0.037289962 0.026379125 -0.013753204 0.012997397 0.048639882 -0.028546391 0.045882557
0.051041495 -0.0039205006 -0.01608904 -0.018251149 0.043567713 0.045869403 0.009698443 -0.016109014
0.02761173 0.01108882 -0.009040525 -0.051212076 -0.025070475 0.04528651 -0.051842198 0.010849671
-0.007479591 0.008659624 -0.010758061 0.017657803 0.034720514 -0.05301837 0.0471589 0.039110012
0.01840263 0.0093571255 0.028174415 -0.01213924 -0.011792866 -0.053127218 0.048658956 -0.051168326
0.0070965043 -0.0063797627 -0.03768497 -0.046075102 0.00011695002 0.045953073 0.04098088 -0.022401515
-0.03959281 0.0138336215 -0.032735184 0.0017840042 0.020564511 -0.03262463 0.044656508 0.053596288
-0.014835662 -0.0053175683 -0.019472692 0.0051276223 0.0046011293 0.028265463 0.0033902202 0.019569393
-0.058361217 0.046560004 -0.05569418 -0.028529836 -0.047825333 0.023511961 -0.02841844 -0.020123674
-0.018829955 0.039918665 0.044885527 -0.042133424 0.054985266 0.04281954 0.0057015154 -0.03684499
0.049064253 0.049993817 -0.04406639 0.034052856 -0.030609867 -0.01580843 -0.025438182 -0.04809363
-0.0015913977 0.037204012 0.014922202 0.047268007 -0.03668259 0.009448713 0.0059442446 0.044757526
-0.029640028 0.028523361 -0.030548275 -0.047329225 0.036616188 0.046334572 -0.017687365 0.018284248
-0.015190748 0.0014915197 -0.020814313 0.0026696613 -0.049302988 -0.05508243 0.04338364 -0.052045405
0.048646934 -0.003766764 -0.014371256 -0.022605982 -0.041975617 -0.016147535 -0.0053504184 0.023176417
0.009860453 -0.05107045 -0.0074230544 -0.034644987 -0.008578538 0.049942546 0.03924404 0.029278195
0.050928995 0.028610963 -0.018401274 0.033462226 -0.0074796337 -0.020662423 -0.030530507 -0.041715376
00000000: 9411 cc3b 1c78 2fbd aac1 ffbc 0d6b 8fbc
00000010: abfd 38bd f6bb 3bbb 8c07 5cbd 11c9 553d
00000020: 0f0f a13b 08ad 213d 4907 463d a42b d63c
00000030: d37b 363c f792 0f3d 7ebb febc b7ac 803c
00000040: 962e 5b3d b215 3abd 6f89 14bd cc78 2c3c
00000050: ba58 43bc ec73 52bd a5ec f73c 2ec6 fd3c
00000060: 750a 89ba a690 11bd 0c71 b2bc c3e7 503c
00000070: 7839 b9bc d046 f0bc 57e5 d53b fb43 21bd
00000080: f4a1 6fbd cd2d 45bd b7c0 a03c a2ee 41bd
00000090: aec9 73bb c150 6ebd 0e27 49bd 3455 eeba
000000a0: f4df 373d 4707 083c 3cde b0bc 7004 a13c
000000b0: 53a5 4c3d 1aa8 543d f7d8 0e3d f3c7 f0bc
000000c0: 4925 6cbd bbc2 a93c f1b3 8dbb 483a d2bc
000000d0: db74 193d 9a6e 40bd c4e7 4cbd de01 393d
000000e0: 48bf 06bd a728 01bc 0aa9 57bd 3464 bcbc
000000f0: cad7 67bd cf67 c3bc 84d3 a43b 7d4e ee3c
00000100: 3e88 e0bc bfe5 d43c e460 e63c 25e3 b5bb
00000110: 5b82 e8bb b42f ab3c d385 173d 8a4b 0bbd
00000120: 13eb cbbc 224d 6dbd e4dd 2bbc 352d 9b3c
00000130: 29f5 483d d911 e0bc b430 6bbd 67cc 273d
00000140: 8612 db3c d8ac 88bb 1c28 68bd 9908 47bd
00000150: 3402 213d 36aa b4bc 37dc 0ebd 940c d93c
00000160: d4f9 d7bb 1404 003c 9230 d0bc 5867 58bd
00000170: 75df c3bb 159b 6c3d b282 0d3d 9db9 2c3d
00000180: 57a9 d63c 3cc8 373d 6088 2d3c 45d8 553d
00000190: 0917 3fbc 6118 b03c d4dc c4bc ce86 db3c
000001a0: 43a1 03bd e78f 38bd 22d6 edbc 31a5 55ba
000001b0: 7bcd ed3b cfc5 a83c 6bef 223d 5daa 393c
000001c0: 91c8 3f3d 2de3 57bd 8490 54bc 26cb d8bc
000001d0: fd8a 18bd 32d0 2fbd b897 76bc 544a 963c
000001e0: 7a24 d6bc 5cbd 183d 0919 d83c 1e55 61bc
000001f0: 09f3 543c 9d3a 473d 1fda e9bc 59ef 3b3d
00000200: e310 513d 8b77 80bb 2acd 83bc 6f83 95bc
00000210: 0f74 323d 8ee1 3b3d 38e6 1e3c 0df7 83bc
00000220: ff31 e23c e2ad 353c b61e 14bc c1c3 51bd
00000230: 9960 cdbc 597e 393d 7c58 54bd d2c2 313c
00000240: 5b17 f5bb 18e1 0d3c 9442 30bc 19a7 903c
00000250: 1937 0e3d ca29 59bd b129 413d d231 203d
00000260: 1dc1 963c a14e 193c 08ce e63c aae3 46bc
00000270: dd36 41bc ed9b 59bd 9d4e 473d e195 51bd
00000280: cb89 e83b 540d d1bb 8e5b 1abd 3fb9 3cbd
00000290: 1043 f538 4a39 3c3d 91db 273d 6283 b7bc
000002a0: 122c 22bd 6aa6 623c 5415 06bd 3fd5 e93a
000002b0: e876 a83c 67a1 05bd bee9 363d c887 5b3d
000002c0: 4711 73bc ff3e aebb 3285 9fbc 9d05 a83b
000002d0: 12c5 963b f98c e73c 752e 5e3b fe4f a03c
000002e0: 2c0c 6fbd b4b5 3e3d 951f 64bd 67b7 e9bc
000002f0: 7fe4 43bd 289c c03c cacd e8bc 67da a4bc
00000300: 4741 9abc c181 233d e3d9 373d 1994 2cbd
00000310: 3b38 613d 8b63 2f3d c7d3 ba3b c6ea 16bd
00000320: 99f7 483d 51c6 4c3d f57e 34bd 027b 0b3d
00000330: 8bc1 fabc ae80 81bc bc63 d0bc d3fd 44bd
00000340: 7296 d0ba 3c63 183d 407c 743c 199c 413d
00000350: 7c40 16bd c6ce 1a3c f0c7 c23b ab53 373d
00000360: a5cf f2bc d3a9 e93c 6040 fabc 4adc 41bd
00000370: dbfa 153d 52c9 3d3d 18e5 90bc d9c8 953c
00000380: 9de2 78bc 197f c33a c782 aabc 7cf5 2e3b
00000390: eef1 49bd 1d9e 61bd 0bb3 313d 902d 55bd
000003a0: 0242 473d d0db 76bb 6b75 6bbc 2e30 b9bc
000003b0: a0ee 2bbd d647 84bc 9052 afbb 78dc bd3c
000003c0: bd8d 213c 402f 51bd 183d f3bb e7e7 0dbd
000003d0: ff8c 0cbc 8e90 4c3d 5cbe 203d d3d8 ef3c
000003e0: ec9a 503d 8a61 ea3c 45be 96bc b00f 093d
000003f0: b717 f5bb 3e44 a9bc 1d1b fabc bedd 2abd

bias f4 [4]
0.028116344 -0.028633637 0.033714853 0.05067185
00000000: 3f54 e63c 1791 eabc 9618 0a3d 498d 4f3d

weight f4 [4, 8]
0.33417737 0.23531476 0.2705413 0.29404768 0.26813024 -0.14302024 0.15375482 -0.066632755
-0.124877475 0.0036087928 0.24293588 -0.20671774 0.07202153 -0.20994721 -0.28888062 -0.013339081
0.278358 -0.3261116 0.028472258 -0.2667165 0.14049968 -0.28778204 0.12203889 -0.2993589
-0.3460926 0.18323585 -0.24655649 0.30338657 0.11211623 -0.053762995 -0.1979472 0.21314842
00000000: 4c19 ab3e 5af6 703e 6484 8a3e 6b8d 963e
00000010: 5e48 893e e673 12be e771 1d3e c176 88bd
00000020: c3bf ffbd 7f81 6c3b 2fc4 783e d1ad 53be
00000030: 0680 933d 67fc 56be 29e8 93be 298c 5abc
00000040: f184 8e3e 1af8 a6be a73e e93c 118f 88be
00000050: 26df 0f3e 2b58 93be 87ef f93d 9245 99be
00000060: 0d33 b1be 2ea2 3b3e 4e79 7cbe 7c55 9b3e
00000070: 329d e53d 9636 5cbd acb2 4abe 9443 5a3e

bias f4 [4]
-0.15968287 -0.3408799 0.10590147 -0.18106933
00000000: e883 23be cf87 aebe dfe2 d83d 3d6a 39be

weight f4 [4, 8]
0.3420302 0.010460006 -0.30924225 0.2723395 -0.054595374 0.20879176 0.040735196 0.18355994
-0.32639682 -0.25102708 -0.29821065 -0.15788701 0.005893327 -0.1865699 -0.21649851 0.03720112
0.2120496 0.017271604 -0.14437814 -0.078941375 -0.1562017 0.16378859 -0.30794755 -0.008165077
-0.3012043 -0.052018326 0.2460752 -0.34269384 -0.2521218 -0.19051252 0.046119355 0.21274342
00000000: 951e af3e 7260 2b3c 0055 9ebe 1570 8b3e
00000010: 669f 5fbd 82cd 553e f3d9 263d 23f7 3b3e
00000020: 7c1d a7be 9f86 80be 11af 98be 22ad 21be
00000030: cf1c c13b 2e0c 3fbe c9b1 5dbe 3460 183d
00000040: 8823 593e 2e7d 8d3c ddd7 13be 04ac a1bd
00000050: 57f3 1fbe 32b8 273e 4dab 9dbe d1c6 05bc
00000060: 7337 9abe 2b11 55bd 23fb 7b3e 9175 afbe
00000070: 1c16 81be b715 43be a6e7 3c3d 69d9 593e

bias f4 [4]
-0.06317393 -0.26477033 -0.19016182 -0.32797372
00000000: 5561 81bd fa8f 87be c8b9 42be 2cec a7be

weight f4 [10, 2]
-0.707023 0.65720737 0.18689798 0.14015633 -0.5395535 0.27609426 0.45978472 0.63337016
0.050707854 -0.05492689 -0.11225581 -0.27078965 0.54356205 -0.6012541 0.015794052 0.39585972
0.61424637 -0.21043201 0.14271332 -0.51768285
00000000: 76ff 34bf be3e 283f 2f62 3f3e 2485 0f3e
00000010: 2e20 0abf 3a5c 8d3e e768 eb3e 8c24 223f
00000020: 0ab3 4f3d 05fb 60bd 60e6 e5bd f1a4 8abe
00000030: e226 0b3f caeb 19bf 8762 813c 20ae ca3e
00000040: 403f 1d3f 7d7b 57be 7123 123e dd86 04bf

bias f4 [10]
-0.1385466 0.7068177 0.6760972 -0.26978356 0.11842805 0.5695745 0.5424134 -0.5855483
-0.28894436 0.12263689
00000000: 29df 0dbe 01f2 343f b514 2d3f 1221 8abe
00000010: 688a f23d a2cf 113f 9bdb 0a3f 7ee6 15bf
00000020: 84f0 93be 0d29 fb3d

weight f4 [10, 2]
0.21703403 0.16242073 0.65412223 0.32362363 -0.23517326 -0.2724826 0.6964768 0.34474525
0.20412815 -0.20643952 0.19214784 -0.05070672 0.21021847 -0.5556655 -0.14096415 -0.36167046
-0.2629154 0.5209462 0.058748517 -0.36880863
00000000: 2b3e 5e3e 9f51 263e 8e74 273f ffb1 a53e
00000010: 42d1 70be d782 8bbe 4e4c 323f 7382 b03e
00000020: f806 513e e264 53be 67c2 443e dab1 4fbd
00000030: 8343 573e 1840 0ebf e858 10be df2c b9be
00000040: d99c 86be bb5c 053f 49a2 703d 7cd4 bcbe

bias f4 [10]
0.07878257 -0.3716478 0.34859622 -0.6885651 0.039385296 0.56835663 0.4095599 0.41749775
0.10111576 0.5658462
00000000: c258 a13d 9f48 bebe 347b b23e cd45 30bf
00000010: 7a52 213d d27f 113f d6b1 d13e 44c2 d53e
00000020: c815 cf3d 4cdb 103f

weight f4 [20, 4]
0.11220182 -0.02609263 0.03294249 -0.21781512 -0.3150208 -0.26388416 -0.2782798 0.07166797
-0.44783452 0.28381592 0.48628062 0.3383787 -0.084830336 0.07652149 0.3776141 -0.37823594
-0.44256943 0.24195075 0.09259842 0.3712607 0.3425687 0.22167832 0.044137504 0.17614485
-0.096786834 0.19032514 -0.40713483 0.47700906 0.21596916 -0.31825468 0.26593775 -0.45038623
-0.37108463 0.06764945 0.49226192 0.31968245 0.08228334 -0.043403402 0.2618142 -0.42518252
0.14206295 0.3812146 -0.20466872 0.45719737 0.246857 -0.31426087 0.13676406 -0.34100175
0.27772942 0.16837063 -0.35610327 0.5013464 -0.09674278 0.37056187 -0.3859413 -0.07349886
0.20309432 -0.46839845 -0.20149961 -0.27545395 -0.46929517 -0.46382913 0.42420366 -0.114071175
-0.20654248 -0.48802385 0.39804104 -0.34447885 -0.087618865 -0.28186366 -0.31424397 -0.24006405
0.39142466 0.0025207696 -0.26468733 -0.43112314 0.038469948 -0.26955968 -0.059531815 -0.37806997
00000000: 11ca e53d 36c0 d5bc b4ee 063d ed0a 5fbe
00000010: 684a a1be d31b 87be b17a 8ebe a8c6 923d
00000020: 914a e5be 5250 913e c6f9 f83e f93f ad3e
00000030: 87bb adbd 4db7 9c3d a356 c13e 24a8 c1be
00000040: 7698 e2be f0c1 773e 3ea4 bd3d e215 be3e
00000050: 2a65 af3e a4ff 623e 87c9 343d 515f 343e
00000060: 2d38 c6bd 98e4 423e fa73 d0be 883a f43e
00000070: 0527 5d3e 47f2 a2be fe28 883e 0699 e6be
00000080: cefe bdbe cb8b 8a3d c109 fc3e 6bad a33e
00000090: 2b84 a83d c4c7 31bd 830c 863e 86b1 d9be
000000a0: f378 113e 8f2e c33e ad94 51be c615 ea3e
000000b0: 15c8 7c3e cde6 a0be e10b 0c3e c897 aebe
000000c0: 8d32 8e3e 5a69 2c3e 2b53 b6be 3d58 003f
000000d0: 1421 c6bd 49ba bd3e 199a c5be 9286 96bd
000000e0: f5f7 4f3e ecd1 efbe ea55 4ebe 4d08 8dbe
000000f0: 7547 f0be 037b edbe 3931 d93e 269e e9bd
00000100: df7f 53be 43de f9be 09cc cb3e 885f b0be
00000110: 8571 b3bd 6f50 90be 96e4 a0be 5ad3 75be
00000120: d068 c83e 7f33 253b 1985 87be 2cbc dcbe
00000130: aa92 1d3d ba03 8abe a2d7 73bd 6392 c1be

bias f4 [20]
0.06987205 0.0854253 0.059881195 0.3439502 -0.39389527 0.048728883 0.20433432 -0.19374295
-0.078272976 -0.34006482 -0.15694937 -0.28381252 -0.24931479 -0.39630303 0.0704022 -0.069665
-0.39589646 0.40554023 0.19788466 -0.10373234
00000000: 1419 8f3d 76f3 ae3d fc45 753d 3e1a b03e
00000010: a4ac c9be f097 473d 043d 513e 8d64 46be
00000020: 954d a0bd fa1c aebe 56b7 20be e04f 91be
00000030: 604c 7fbe 3be8 cabe 072f 903d 86ac 8ebd
00000040: f1b2 cabe f8a2 cf3e 47a2 4a3e 9f71 d4bd

weight_ih_l0 f4 [12, 10]
-0.38390955 0.20203148 -0.49032262 -0.23179726 -0.14363208 -0.18434347 -0.10450003 -0.48655042
-0.36707485 0.39207354 0.18676586 0.49433747 0.3304287 -0.4441432 -0.37862885 -0.28569385
-0.18410996 -0.2504333 0.02382442 -0.38885146 0.34348106 -0.13145594 -0.26405984 -0.35922292
-0.17820334 -0.409188 0.38825408 0.30562675 0.4087447 -0.07115061 -0.23097572 0.11273992
0.2951818 -0.36853907 0.14921863 0.13110386 -0.4284762 0.22691283 0.20574868 0.43475223
-0.05560054 0.24502178 -0.15774114 0.2798851 -0.30276713 0.16335681 0.0023124674 0.3951004
-0.2437867 -0.01601209 0.46890795 -0.16266307 0.34503928 -0.12882833 -0.41401467 0.3714244
-0.17244124 0.3734869 -0.39569432 0.058055423 0.32946116 0.4080058 -0.2359268 0.49001577
-0.2824997 0.4612231 0.2790247 0.010170221 0.036231425 -0.34214997 -0.3221638 0.19576567
0.28149098 0.092439726 0.04862245 0.19728166 -0.058678653 -0.123777 -0.28812703 0.07906499
-0.0080474485 -0.46764165 -0.24779078 0.08126146 0.41285142 0.043923113 -0.48761773 -0.29864442
0.049688887 0.0027255784 -0.44773895 -0.47619063 0.37034246 0.43720675 -0.021087898 -0.29690656
0.36467698 -0.48820937 -0.06419876 0.17940411 0.08831119 0.053150386 0.099782795 -0.38209555
-0.27521312 -0.24162364 -0.19226506 -0.35235572 0.024995223 0.4079114 0.38637188 0.25207955
-0.27943835 0.28900594 0.38024145 -0.4447096 -0.31396076 0.0614688 0.22882798 -0.2435884
00000000: cb8f c4be 57e1 4e3e 910b fbbe 435c 6dbe
00000010: 4a14 13be 89c4 3cbe 1d04 d6bd 231d f9be
00000020: 3cf1 bbbe ddbd c83e 8d3f 3f3e cd19 fd3e
00000030: f32d a93e bd66 e3be a4db c1be 7746 92be
00000040: 5287 3cbe cb38 80be 6e2b c33c 8a17 c7be
00000050: c0dc af3e 639c 06be da32 87be 11ec b7be
00000060: f07a 36be 1781 d1be 3dc9 c63e 1c7b 9c3e
00000070: fc46 d13e 69b7 91bd e684 6cbe 30e4 e63d
00000080: 1222 973e 27b1 bcbe c5cc 183e 1740 063e
00000090: 3c61 dbbe d65b 683e c8af 523e d897 de3e
000000a0: 64bd 63bd fde6 7a3e e586 21be 1a4d 8f3e
000000b0: 4b04 9bbe 0247 273e c48c 173b 9a4a ca3e
000000c0: 38a3 79be c92b 83bc b414 f03e 2691 26be
000000d0: fda8 b03e 93eb 03be bbf9 d3be 572b be3e
000000e0: 7094 30be ad39 bf3e 7298 cabe 86cb 6d3d
000000f0: 22af a83e 23e6 d03e cc96 71be 59e3 fa3e
00000100: cda3 90be 6f25 ec3e 53dc 8e3e 00a1 263c
00000110: 6767 143d 482e afbe a7f2 a4be cc76 483e
00000120: 961f 903e 0a51 bd3d 5628 473d 3404 4a3e
00000130: 0759 70bd cc7e fdbd 6385 93be d3ec a13d
00000140: 72d9 03bc ba6e efbe debc 7dbe 696c a63d
00000150: 4361 d33e b9e8 333d 08a9 f9be ece7 98be
00000160: 9386 4b3d 9e9f 323b 0a3e e5be 42cf f3be
00000170: 879d bd3e 90d9 df3e 87c0 acbc 2304 98be
00000180: f1b6 ba3e 94f6 f9be a47a 83bd b6b5 373e
00000190: 7fdc b43d 38b4 593d ec5a cc3d 07a2 c3be
000001a0: bce8 8cbe 306c 77be 22e1 44be f867 b4be
000001b0: c8c2 cc3c c3d9 d03e 89d2 c53e 9210 813e
000001c0: 8b12 8fbe 96f8 933e 02af c23e fab0 e3be
000001d0: 77bf a0be b5c6 7b3d e251 6a3e 3d6f 79be

weight_hh_l0 f4 [12, 4]
-0.3719209 -0.08567178 -0.2787099 0.1618939 0.046352588 -0.3614289 0.23216854 0.24177684
-0.26864344 0.18395849 0.49152648 -0.33991605 0.20972484 0.07242666 0.25439706 0.41109174
0.18179102 -0.33686295 0.23914742 -0.43064696 0.0009901071 0.3474895 -0.31982303 0.33353943
0.3877647 -0.46799868 -0.008764244 -0.066479124 0.112226725 -0.08563743 0.34300473 -0.340493
0.46962327 0.2027348 0.31145653 -0.33218718 0.1882912 -0.47039914 -0.042751905 0.18366882
-0.26146147 -0.07351071 -0.0068116644 0.4828836 -0.31497332 0.10236947 0.24592222 -0.32979733
00000000: 6b6c bebe b074 afbd 10b3 8ebe 84c7 253e
00000010: 36dc 3d3d 350d b9be 97bd 6d3e 5994 773e
00000020: a28b 89be 9d5f 3c3e 5ca9 fb3e 7a09 aebe
00000030: 1cc2 563e 6e54 943d 5540 823e 9e7a d23e
00000040: 6d27 3a3e 4d79 acbe 10e3 743e c27d dcbe
00000050: 7bc6 813a 25ea b13e d8bf a3be aec5 aa3e
00000060: 1889 c63e 869d efbe e797 0fbc 3526 88bd
00000070: 20d7 e53d ad62 afbd 519e af3e 1955 aebe
00000080: 7672 f03e b699 4f3e 3b77 9f3e 7014 aabe
00000090: 69cf 403e 28d8 f0be 9f1c 2fbd ae13 3c3e
000000a0: 47de 85be c88c 96bd 6234 dfbb 853c f73e
000000b0: 2f44 a1be 16a7 d13d 09d3 7b3e 32db a8be

bias_ih_l0 f4 [12]
-0.16556509 0.061339937 -0.32790357 -0.33323026 0.09543528 -0.38123155 -0.01972769 -0.42028472
0.16859698 0.19017489 -0.33957943 0.3001401
00000000: e589 29be 963f 7b3d fae2 a7be 289d aabe
00000010: 9273 c33d c830 c3be f79b a1bc 8f2f d7be
00000020: b0a4 2c3e 35bd 423e 5bdd adbe f7ab 993e

bias_hh_l0 f4 [12]
-0.029682105 -0.009345486 -0.45856595 0.29674992 0.33582988 0.42072284 0.49711877 0.37656167
-0.19867834 0.11386933 -0.22619545 0.11536998
00000000: e327 f3bc cf1d 19bc 28c9 eabe 9bef 973e
00000010: e5f1 ab3e fc68 d73e 5a86 fe3e b1cc c03e
00000020: 5672 4bbe 5334 e93d c89f 67be 1947 ec3d
