ERTSNet/best-model.pt (torch, 65570 bytes, 64 tensors)

weight_ih_l0 f4 [12, 10]
-0.15607995 -0.29846844 -0.1898138 -0.15809625 0.29618672 0.15998816 -0.3016608 0.46561846
-0.27815297 -0.49132374 0.19382703 0.15516138 -0.19667512 -0.41458794 -0.46015653 -0.1259262
-0.43165436 -0.18857962 0.4751409 -0.12738317 -0.17784695 -0.24429035 -0.24098766 -0.20308983
-0.024076689 -0.43884102 0.39978048 -0.3094813 -0.4119949 -0.24184465 0.21842384 0.16562043
-0.07835298 -0.42088488 0.4940563 0.4297664 -0.49178717 -0.12144583 -0.090232186 -0.36673024
-0.19458592 0.36657158 -0.100425236 0.3108509 -0.04906799 0.004097569 0.41513404 -0.2705702
-0.36049858 -0.08738869 0.33727583 -0.2251665 0.18994892 0.095849626 0.24924792 -0.0830931
-0.3999909 -0.18854135 -0.085472934 0.2925714 0.26536778 -0.35303375 0.37871423 0.0074617146
0.08428914 0.48222855 -0.1432563 -0.2933825 0.21678257 -0.113381036 0.34194502 -0.3872573
-0.06934541 0.08000182 0.48758474 0.10686927 -0.2634612 -0.2969906 0.17302656 -0.32258263
0.019562352 0.49587694 0.11023062 0.2382232 0.26962522 -0.4694048 0.4243529 0.053937063
0.30626026 -0.08904786 -0.06452625 0.21169448 -0.04753737 0.4213058 -0.33713046 -0.38246897
-0.11059927 -0.49929783 -0.47978178 -0.3904039 0.021638822 0.19903892 0.42294315 0.11047251
-0.5013551 -0.50089663 0.32400277 -0.47488365 0.25287196 -0.14670545 0.3525451 -0.39662465
-0.3761615 0.44484237 -0.19390607 -0.2374953 -0.06796896 -0.3388314 0.41781142 0.28214964
00000000: 6cd3 1fbe dbd0 98be 8c5e 42be fce3 21be
00000010: c9a5 973e f0d3 233e 4973 9abe 8b65 ee3e
00000020: 116a 8ebe c98e fbbe 987a 463e a0e2 1e3e
00000030: 3465 49be df44 d4be a399 ebbe ccf2 00be
00000040: cd01 ddbe 041b 41be ab45 f33e bc70 02be
00000050: 831d 36be 4027 7abe 78c5 76be c8f6 4fbe
00000060: 7a3c c5bc c5af e0be 07b0 cc3e 5574 9ebe
00000070: fff0 d2be 20a6 77be 80aa 5f3e 6798 293e
00000080: 8777 a0bd 397e d7be f3f4 fc3e 570a dc3e
00000090: 87cb fbbe 97b8 f8bd a7cb b8bd 11c4 bbbe
000000a0: 8841 47be 45af bb3e bfab cdbd d927 9f3e
000000b0: 84fb 48bd e644 863b 738c d43e 2d88 8abe
000000c0: 4593 b8be d7f8 b2bd 6baf ac3e 0c92 66be
000000d0: f881 423e cf4c c43d d93a 7f3e b72c aabd
000000e0: 9bcb ccbe fc10 41be 6f0c afbd ebcb 953e
000000f0: 49de 873e d7c0 b4be d5e6 c13e 6681 f43b
00000100: c99f ac3d a9e6 f63e c8b1 12be 3b36 96be
00000110: 40fc 5d3e 5134 e8bd 6b13 af3e 9746 c6be
00000120: f704 8ebd ffd7 a33d b5a4 f93e 47de da3d
00000130: 63e4 86be 270f 98be e02d 313e 8d29 a5be
00000140: 3a41 a03c 95e3 fd3e 97c0 e13d c8f0 733e
00000150: 510c 8a3e d355 f0be c944 d93e 1ced 5c3d
00000160: 25ce 9c3e b95e b6bd 5726 84bd 70c6 583e
00000170: 8cb6 42bd 65b5 d73e 5d9c acbe f9d2 c3be
00000180: df81 e2bd f7a3 ffbe f5a5 f5be 05e3 c7be
00000190: e643 b13c dcd0 4b3e 018c d83e 693f e23d
000001a0: cf58 00bf c33a 00bf b1e3 a53e f323 f3be
000001b0: 6f78 813e f439 16be cb80 b43e 6312 cbbe
000001c0: 3d98 c0be 61c2 e33e 508f 46be f831 73be
000001d0: 4f33 8bbd 4f7b adbe 61eb d53e eb75 903e

weight_hh_l0 f4 [12, 4]
-0.15278435 0.42874065 -0.36886987 0.4185284 0.114521615 -0.3656496 -0.24757862 -0.090959795
0.40287408 0.38814005 -0.17135322 0.42482343 -0.48783645 -0.15128183 0.07541638 0.32652536
0.14530057 -0.24747634 0.4748697 0.34430757 -0.2121827 -0.26503882 0.21021253 -0.41463825
-0.42378595 -0.38590905 -0.081021555 -0.28198966 0.21696448 0.049362555 0.09494842 0.16585404
0.23243183 -0.2864128 -0.07202213 0.36167988 -0.41977844 0.33118537 0.1094191 -0.39470318
0.070671745 -0.046561226 0.24650222 0.45036015 -0.1426605 -0.20980334 -0.056614652 0.48915175
00000000: 8073 1cbe e583 db3e 83dc bcbe 5b49 d63e
00000010: 4f8a ea3d 6d36 bbbe 4085 7dbe 2149 babd
00000020: 8345 ce3e 4bba c63e 3877 2fbe 7582 d93e
00000030: b3c5 f9be a0e9 1abe e773 9a3d 552e a73e
00000040: acc9 143e 706a 7dbe 1f22 f33e 1549 b03e
00000050: 6c46 59be 2bb3 87be f441 573e 774b d4be
00000060: 79fa d8be df95 c5be a1ee a5bd f360 90be
00000070: f02b 5e3e 6430 4a3d 5174 c23d a4d5 293e
00000080: 9c02 6e3e b3a4 92be 5780 93bd 1b2e b93e
00000090: 33ed d6be 2191 a93e 1f17 e03d 8916 cabe
000000a0: 59bc 903d fcb6 3ebd 146b 7c3e 9b95 e63e
000000b0: 9815 12be b0d6 56be c4e4 67bd 1972 fa3e

bias_ih_l0 f4 [12]
0.16818148 0.32606772 -0.2535853 -0.48694888 0.1782667 -0.4393408 -0.06145464 0.12812585
0.12371754 0.36038163 -0.37941828 0.46054032
00000000: c437 2c3e 59f2 a63e efd5 81be 5d51 f9be
00000010: 8c8b 363e 47f1 e0be dcb7 7bbd 6c33 033e
00000020: 9f5f fd3d f183 b83e 1d43 c2be f1cb eb3e

bias_hh_l0 f4 [12]
-0.32627693 -0.3740013 0.20337361 0.07576663 -0.18536192 0.026251446 -0.041364178 -0.16281736
-0.33841202 0.25941727 -0.21278703 0.3359703
00000000: c50d a7be 197d bfbe 2c41 503e 892b 9b3d
00000010: 84cf 3dbe 460d d73c 7c6d 29bd 98b9 26be
00000020: 5744 adbe 57d2 843e d8e4 59be 4d04 ac3e

weight_ih_l0 f4 [12, 14]
-0.4304603 -0.15768659 -0.48037103 0.4705657 0.18049592 -0.3193396 -0.011674833 0.012482002
-0.25448504 -0.23399115 -0.17310208 -0.22091693 0.30671707 0.24295485 -0.4942731 -0.39760712
0.48098782 0.4304137 0.37454644 0.34999153 -0.16645724 0.30289647 0.47323415 0.40453497
-0.47926697 -0.10566198 0.14843506 0.41313896 -0.41124055 -0.106628366 0.23300481 -0.14174509
0.4856809 -0.013152849 -0.18644041 -0.09595502 -0.07352031 -0.07567001 -0.429534 0.10016053
-0.34074864 0.10604321 0.030130256 0.03210889 0.26156947 0.13004416 -0.1379534 -0.40472612
-0.061397742 0.11569069 0.392064 0.42522874 0.38741878 -0.3745424 0.2221052 -0.08576048
-0.18899739 0.33035573 0.16669297 0.12123043 0.4023225 -0.37193373 -0.48458377 -0.2575328
-0.2976332 -0.036754474 -0.14308053 -0.35757938 0.28246006 0.14878947 -0.05954458 -0.11199624
0.09835886 0.46406856 0.08212102 0.24916108 0.3880985 0.1327684 -0.052982494 0.15798748
-0.41687384 -0.16210043 0.43015167 0.34715942 -0.026817191 -0.39594385 0.4445729 0.21621972
0.49746248 0.25838992 0.27121106 -0.004397629 0.4287109 0.045636907 -0.41296622 -0.10734158
-0.33565316 -0.35001722 -0.03496842 0.27810815 0.22262472 0.47192135 0.47146562 -0.23419839
0.424363 0.43252572 -0.038120374 0.459282 0.36741355 -0.44330636 0.44048867 0.47016254
0.23930925 0.100662164 -0.0019835713 -0.2306562 -0.1194058 0.14664304 -0.4424325 0.26321477
0.07389737 0.01810341 0.31747225 0.3521637 -0.43983707 0.12022584 0.061593425 -0.40392944
0.2846832 -0.2027753 0.08115535 0.2576007 -0.22709304 0.12519334 0.017281044 -0.001178968
0.15603429 -0.006486726 0.25458112 -0.23258084 -0.06846363 -0.1554243 0.19575185 -0.4301007
0.20274878 0.22286731 -0.24624878 0.20795594 -0.18081874 0.47499707 0.35842147 0.29372177
0.104667895 0.45747092 -0.37267545 0.32620314 0.3172299 0.21388274 0.12747926 -0.33866122
-0.22591692 -0.01282748 -0.300882 0.44940022 0.28943864 0.4759477 -0.12866658 0.19432831
00000000: 4b65 dcbe 9878 21be 31f3 f5be fded f03e
00000010: ecd3 383e 7b80 a3be cc47 3fbc 5081 4c3c
00000020: dd4b 82be 609b 6fbe ac41 31be 0c38 62be
00000030: 050a 9d3e 28c9 783e 5d11 fdbe 2993 cbbe
00000040: 0944 f63e 2f5f dc3e 8dc4 bf3e 1732 b33e
00000050: c473 2abe 3f15 9b3e bf4b f23e 351f cf3e
00000060: 7b62 f5be 4f65 d8bd 5cff 173e f386 d33e
00000070: 1f8e d2be f95f dabd d098 6e3e a025 11be
00000080: 2bab f83e 0c7f 57bc 3cea 3ebe 1184 c4bd
00000090: d191 96bd e1f8 9abd e1eb dbbe f720 cd3d
000000a0: 9b76 aebe 2f2d d93d bad3 f63c 9d84 033d
000000b0: 6fec 853e 4c2a 053e a843 0dbe 4338 cfbe
000000c0: 337c 7bbd 3eef ec3d 9dbc c83e 95b7 d93e
000000d0: c15b c63e 05c4 bfbe 8c6f 633e 31a3 afbd
000000e0: 8888 41be 6324 a93e 90b1 2a3e a947 f83d
000000f0: 37fd cd3e 196e bebe 5d1b f8be 57db 83be
00000100: 6163 98be dc8b 16bd b483 12be a514 b7be
00000110: 9b9e 903e 445c 183e 04e5 73bd 495e e5bd
00000120: 5f70 c93d 659a ed3e 112f a83d 1524 7f3e
00000130: d9b4 c63e 70f4 073e 2c04 59bd 78c7 213e
00000140: 7d70 d5be a8fd 25be d73c dc3e e1be b13e
00000150: baaf dbbc 27b9 cabe 0f9f e33e b468 5d3e
00000160: 67b3 fe3e af4b 843e 2ddc 8a3e fc19 90bb
00000170: ff7f db3e c4ed 3a3d 4f70 d3be e7d5 dbbd
00000180: bbda abbe 7535 b3be 0c3b 0fbd 3164 8e3e
00000190: bcf7 633e ad9f f13e f163 f13e b4d1 6fbe
000001a0: 1b46 d93e 0374 dd3e 1c24 1cbd 0327 eb3e
000001b0: a11d bc3e 0df9 e2be bb87 e13e 25b9 f03e
000001c0: 7c0d 753e f727 ce3d cefe 01bb 2431 6cbe
000001d0: 078b f4bd 9829 163e 8386 e2be 16c4 863e
000001e0: 8157 973d 9a4d 943c b98b a23e cd4e b43e
000001f0: 5332 e1be f738 f63d 6349 7c3d d7cf cebe
00000200: ffc1 913e 54a4 4fbe c734 a63d 3de4 833e
00000210: 148b 68be af32 003e fa90 8d3c 9a87 9aba
00000220: 74c7 1f3e 9a8e d4bb 7558 823e ac29 6ebe
00000230: a936 8cbd 8c27 1fbe 2c73 483e 2936 dcbe
00000240: 609d 4f3e 5437 643e a428 7cbe 67f2 543e
00000250: 8c28 39be d132 f33e 0583 b73e b362 963e
00000260: 1f5c d63d a139 ea3e 51cf bebe 1904 a73e
00000270: f56b a23e 1404 5b3e ec89 023e 0165 adbe
00000280: c456 67be 5a2a 52bc 350d 9abe c917 e63e
00000290: 4d31 943e 6baf f33e 2cc1 03be 00fe 463e

weight_hh_l0 f4 [12, 4]
0.0920854 0.01961999 -0.01648165 -0.19960779 0.2873759 0.24912012 -0.11247475 -0.27624276
0.32707942 -0.4727247 -0.054650918 0.3659328 0.024131611 -0.40983984 -0.4065595 0.3956189
-0.26139084 0.097891934 0.38299778 0.44796565 0.31498936 -0.054263428 -0.04316254 0.3330178
-0.0939635 0.37636486 -0.17470175 -0.42697898 0.14722414 0.44611344 -0.25419244 0.2203477
0.052935917 0.2031647 -0.02717347 -0.3773571 -0.16595332 0.056591228 0.41603157 0.0047519323
0.44807956 0.020098317 -0.10459126 -0.4689043 -0.30288926 -0.22671902 0.13167655 -0.46147457
00000000: 4597 bc3d 1aba a03c 8604 87bc fc65 4cbe
00000010: ef22 933e 5819 7f3e 2959 e6bd b16f 8dbe
00000020: f476 a73e f908 f2be a4d9 5fbd 8b5b bb3e
00000030: a8af c53c 87d6 d1be 9128 d0be 8f8e ca3e
00000040: 05d5 85be 917b c83d 4918 c43e c15b e53e
00000050: 4946 a13e 5443 5ebd 34cb 30bd 4f81 aa3e
00000060: ef6f c0bd e5b2 c03e 04e5 32be fd9c dabe
00000070: edc1 163e fb68 e43e 8325 82be d4a2 613e
00000080: 55d3 583d 680a 503e e69a debc f334 c1be
00000090: abef 29be 34cc 673d 1702 d53e 19b6 9b3b
000000a0: af6a e53e 3aa5 a43c f133 d6bd 3914 f0be
000000b0: 4d14 9bbe 0829 68be 38d6 063e 6546 ecbe

bias_ih_l0 f4 [12]
0.13999319 -0.035118297 -0.23133838 -0.15410775 -0.30450383 0.05652331 -0.19695204 -0.07484191
0.36674735 0.47210678 0.155025 -0.2561328
00000000: 605a 0f3e 34d8 0fbd f8e3 6cbe 6cce 1dbe
00000010: ede7 9bbe fc84 673d ccad 49be b746 99bd
00000020: 4fc6 bb3e fbb7 f13e e0be 1e3e d723 83be

bias_hh_l0 f4 [12]
-0.20821893 0.31590632 0.38499597 0.4450296 0.07618231 -0.2588537 -0.38432243 -0.29151407
0.49694052 -0.43300417 0.45423636 -0.2673178
00000000: 5837 55be 79be a13e 311e c53e ebda e33e
00000010: 7905 9c3d 7988 84be e9c5 c4be 5541 95be
00000020: fd6e fe3e b9b2 ddbe ab91 e83e e1dd 88be

weight_ih_l0 f4 [12, 24]
-0.028898954 -0.31994298 0.26196298 0.39516592 0.15276241 -0.18102509 0.06273906 0.35139874
0.27590415 0.43674418 0.20782405 -0.26440743 0.34370992 -0.44486323 0.0114663355 -0.3380684
0.26762924 -0.10953044 -0.38790366 0.12675536 -0.21512187 -0.1549803 0.007332992 0.34215274
0.00403937 0.14995444 -0.33803836 0.3745707 0.21147972 0.24148422 -0.19625837 0.026221562
-0.067997284 0.3966268 0.14186716 0.3741158 0.2670721 0.28860566 -0.4188343 0.28250882
-0.21365124 -0.45562258 -0.4229943 -0.4637787 0.23149812 -0.3004096 -0.30295894 -0.101464204
0.4905277 0.1619196 -0.11901849 -0.046813432 0.30917546 0.34879223 -0.39890286 -0.14521807
0.4238102 0.36389825 0.3936362 -0.10668265 0.31803343 0.18454486 -0.17503059 -0.13250405
-0.31058368 -0.24207056 -0.4386786 0.48394045 0.24533844 0.015829336 -0.36879745 0.052997157
-0.015507601 0.40746084 -0.5004782 0.16016482 0.30006602 -0.32175896 0.3900164 -0.2505533
0.19603151 0.35753307 -0.13487077 0.20418137 0.16380697 0.44070038 -0.1880886 0.23760986
0.26354954 -0.07032775 -0.24118543 -0.034723863 -0.030549277 0.46523902 0.37716618 0.3285816
0.17695375 -0.4466695 -0.18564641 0.18949398 0.24412668 -0.01951773 -0.17149353 0.14515702
-0.09456111 0.2591286 0.27833334 0.18362808 0.34007266 0.43957564 0.025513519 0.2290926
-0.39072224 0.30800453 -0.060033813 0.099571474 -0.43145093 0.2782977 0.28268012 -0.04918842
-0.49356526 0.21809 0.4409096 -0.47378656 -0.38086322 -0.23219854 0.10578073 -0.10157878
-0.4564812 0.2811698 -0.02054857 0.3015276 -0.44900498 0.08633024 -0.011670541 0.24661177
0.14801216 -0.23650818 -0.44312742 0.43800637 0.11830633 -0.41452762 0.018477809 0.2650204
0.444818 -0.12130796 -0.46154383 -0.29678097 -0.39136675 -0.12700695 -0.17728591 -0.19158024
-0.29719493 -0.35363802 0.16289544 -0.27023742 0.32604322 0.29486236 -0.35967234 0.0010369541
-0.2709243 -0.048919126 0.09208935 -0.19622862 0.25646475 0.33107588 -0.49537256 -0.27945063
-0.46617126 0.44877306 -0.43524286 0.20909137 -0.047308013 0.1954208 0.49175867 -0.46446428
-0.31017676 -0.06859685 0.040151045 0.058747485 0.49401793 -0.2815219 -0.1060301 0.340624
0.37037525 0.029676009 -0.47212937 -0.24833083 -0.28997466 0.47471008 0.46141627 0.1257258
0.43968078 -0.29129526 0.44809416 -0.4480646 0.37970647 0.11388994 0.32960066 -0.0760101
-0.20211297 -0.45267686 0.23738497 0.36733142 0.40978596 -0.35931715 -0.48206213 0.16545665
0.44059858 0.20269465 0.49016204 -0.31803098 0.4682177 0.42431328 -0.4956307 0.27539638
-0.08761534 0.46902552 -0.080904074 0.15541242 0.24863434 0.023460496 -0.20755881 -0.00121845
0.11117946 -0.18899691 0.37603018 0.0685355 0.30180606 0.32210705 -0.17369318 -0.44727382
-0.32958856 0.17430532 0.31522128 0.22340298 0.44641164 -0.4576634 0.060267374 -0.23017162
-0.38722774 0.4230682 0.3215771 0.45528 0.47445837 0.49469104 -0.21691364 0.45391646
-0.040187225 -0.0521674 0.382408 0.0384499 -0.30706885 -0.07781958 0.19194734 -0.019962836
00000000: 80bd ecbc 91cf a3be 0320 863e 3053 ca3e
00000010: c06d 1c3e a45e 39be 567d 803d 89ea b33e
00000020: 4f43 8d3e ef9c df3e d4cf 543e 6960 87be
00000030: bffa af3e 1dc5 e3be 4cdd 3b3c 4d17 adbe
00000040: b306 893e 7f51 e0bd 4f9b c6be 28cc 013e
00000050: e848 5cbe 28b3 1ebe 9849 f03b a52e af3e
00000060: b15c 843b a88d 193e 5d13 adbe bbc7 bf3e
00000070: 248e 583e a447 773e f4f7 48be 9ace d63c
00000080: 2942 8bbd ab12 cb3e a045 113e 1b8c bf3e
00000090: adbd 883e 1fc4 933e 7371 d6be ffa4 903e
000000a0: 64c7 5abe 5d47 e9be b592 d8be 6774 edbe
000000b0: d80d 6d3e 49cf 99be 6f1d 9bbe 77cc cfbd
000000c0: 7226 fb3e 40ce 253e f7bf f3bd 71bf 3fbd
000000d0: 3f4c 9e3e e594 b23e ff3c ccbe 0cb4 14be
000000e0: a7fd d83e df50 ba3e af8a c93e 6f7c dabd
000000f0: 47d5 a23e 54f9 3c3e 383b 33be 24af 07be
00000100: d304 9fbe 58e1 77be 7b9a e0be 0bc7 f73e
00000110: 003a 7b3e 86ac 813c 05d3 bcbe 8c13 593d
00000120: 9813 7ebc b59e d03e 571f 00bf 3f02 243e
00000130: 41a2 993e 97bd a4be 3bb0 c73e 8648 80be
00000140: 7cbc 483e 930e b73e 901b 0abe ec14 513e
00000150: 04bd 273e 7ba3 e13e 4c9a 40be 0050 733e
00000160: f7ef 863e ff07 90bd 50f9 76be 9c3a 0ebd
00000170: 7a42 fabc cf33 ee3e ed1b c13e d93b a83e
00000180: 5d33 353e ddb1 e4be 181a 3ebe b60a 423e
00000190: 58fc 793e a6e3 9fbc 009c 2fbe 0ba4 143e
000001a0: 41a9 c1bd 81ac 843e b581 8e3e 0009 3c3e
000001b0: 011e ae3e 0f10 e13e ba01 d13c 4097 6a3e
000001c0: bf0c c8be c5b2 9d3e 04e6 75bd 21ec cb3d
000001d0: 23e7 dcbe 097d 8e3e 73bb 903e cc79 49bd
000001e0: 96b4 fcbe fc52 5f3e e7be e13e 2794 f2be
000001f0: 8100 c3be 74c5 6dbe 91a3 d83d 8908 d0bd
00000200: e7b7 e9be 7df5 8f3e 7a55 a8bc d361 9a3e
00000210: fbe3 e5be e9cd b03d cc35 3fbc cc87 7c3e
00000220: 8090 173e 332f 72be 99e1 e2be 5f42 e03e
00000230: 974a f23d f73c d4be c65e 973c c1b0 873e
00000240: 2fbf e33e 4f70 f8bd 794f ecbe adf3 97be
00000250: 3961 c8be 1c0e 02be 708a 35be 9c2d 44be
00000260: ef29 98be 0b10 b5be 10ce 263e 8f5c 8abe
00000270: 23ef a63e 33f8 963e f926 b8be 68ea 873a
00000280: 97b6 8abe 6c5f 48bd 5799 bc3d 28f0 48be
00000290: 594f 833e c782 a93e 79a1 fdbe 2714 8fbe
000002a0: 00ae eebe 95c5 e53e 27d8 debe 0c1c 563e
000002b0: 0cc6 41bd 641c 483e cbc7 fb3e 43ce edbe
000002c0: 7dcf 9ebe 817c 8cbd 6c75 243d 34a1 703d
000002d0: ebef fc3e a323 90be 4f26 d9bd 4566 ae3e
000002e0: d3a1 bd3e 1a1b f33c f1ba f1be 704a 7ebe
000002f0: 8f77 94be 330d f33e c13e ec3e 44be 003e
00000300: d71d e13e a724 95be 996c e53e b968 e5be
00000310: e368 c23e 213f e93d 6bc1 a83e 2fab 9bbd
00000320: b4f6 4ebe 43c5 e7be 0c15 733e dd12 bc3e
00000330: 77cf d13e 6bf8 b7be d9d0 f6be 786d 293e
00000340: 2396 e13e 308f 4f3e 85f6 fa3e f5d4 a2be
00000350: 3bba ef3e 973f d93e 4fc3 fdbe c100 8d3e
00000360: ac6f b3bd 1d24 f03e 09b1 a5bd 6f24 1f3e
00000370: 009a 7e3e 3a30 c03c 4c8a 54be 66b4 9fba
00000380: 0fb2 e33d 6888 41be 0787 c03e 575c 8c3d
00000390: 5386 9a3e 37eb a43e a0dc 31be 1301 e5be
000003a0: d5bf a8be 187d 323e af64 a13e c0c3 643e
000003b0: 1190 e43e db52 eabe ecda 763d 1cb2 6bbe
000003c0: b742 c6be 659c d83e c1a5 a43e 761a e93e
000003d0: 35ec f23e 2548 fd3e 9c1e 5ebe bd67 e83e
000003e0: 5c9b 24bd 7cad 55bd fbca c33e a47d 1d3d
000003f0: 2138 9dbe df5f 9fbd d88d 443e 1a89 a3bc

weight_hh_l0 f4 [12, 4]
0.37212697 0.13111734 -0.47204092 0.028402101 0.14218897 0.19825816 0.13544738 -0.33665583
0.48175105 -0.11759306 0.13831389 -0.03377764 0.3279216 0.19571924 -0.33344284 0.4422188
0.23243952 -0.082329206 0.14980018 0.43413946 -0.4366701 -0.4966118 0.066751055 -0.37676278
0.08797895 0.13958019 0.13343656 -0.19685674 -0.111321755 -0.14727908 -0.074189775 -0.17564154
0.099600546 -0.17293179 0.3857762 0.104572125 -0.05707638 -0.47707525 -0.027109992 -0.10819883
0.08753108 -0.21037251 -0.25282368 0.2223857 0.01395135 0.017872322 -0.06200634 0.1775009
00000000: 6d87 be3e a043 063e 59af f1be 86ab e83c
00000010: fc99 113e 3004 4b3e b8b2 0a3e 275e acbe
00000020: 13a8 f63e a1d4 f0bd 28a2 0d3e 6c5a 0abd
00000030: 57e5 a73e a06a 483e 05b9 aabe 816a e23e
00000040: a004 6e3e 379c a8bd 3865 193e 8747 de3e
00000050: 3993 dfbe e743 febe c7b4 883d 0de7 c0be
00000060: 4f2e b43d 1cee 0e3e 98a3 083e d094 49be
00000070: a9fc e3bd 54d0 16be cff0 97bd 60db 33be
00000080: 5ffb cb3d 0815 31be 7584 c53e e929 d63d
00000090: ecc8 69bd 3543 f4be c615 debc 5997 ddbd
000000a0: 7f43 b33d e46b 57be 1b72 81be 14b9 633e
000000b0: 3494 643c fa68 923c 5cfa 7dbd ccc2 353e

bias_ih_l0 f4 [12]
0.40957603 0.026034106 -0.3560411 -0.312205 -0.31992868 -0.45261326 0.17697704 0.13887835
-0.43749198 -0.28131554 0.070314236 -0.06933581
00000000: f3b3 d13e 7a45 d53c 054b b6be 55d9 9fbe
00000010: b1cd a3be edbc e7be 7839 353e 2036 0e3e
00000020: f3fe dfbe 9708 90be e900 903d efff 8dbd

bias_hh_l0 f4 [12]
0.139646 0.17488539 0.34374526 -0.18142945 0.29196575 0.073093526 -0.29097882 -0.05916725
0.44658253 0.14282256 0.4721897 0.012348425
00000000: 5cff 0e3e 2815 333e 61ff af3e a4c8 39be
00000010: 897c 953e 0fb2 953d 2dfb 94be 5c59 72bd
00000020: 77a6 e43e 1440 123e d9c2 f13e 0c51 4a3c

weight f4 [4, 4]
-0.42966256 0.0045608375 -0.053814366 0.24669707 0.18817103 0.49199435 0.3506864 0.43702796
0.25464448 0.38717178 0.28401247 0.10957945 -0.2556732 0.42449802 0.323396 -0.05588395
00000000: bbfc dbbe 1473 953b 746c 5cbd 289e 7c3e
00000010: e8af 403e afe6 fb3e 2b8d b33e 21c2 df3e
00000020: c360 823e 613b c63e 156a 913e 316b e03d
00000030: 99e7 82be ce57 d93e 2994 a53e 92e6 64bd

bias f4 [4]
-0.28506503 0.20003152 0.01312406 -0.21682584
00000000: 0bf4 91be 10d5 4c3e 4c06 573c 9807 5ebe

weight f4 [320, 8]
-0.11068014 -0.3115549 -0.03165768 -0.12182609 -0.2133044 0.05087231 0.19935283 0.3187304
0.08043616 -0.22951266 0.13166407 -0.24411318 0.32842767 0.31941772 0.25844878 0.045083568
0.29267758 -0.23814337 -0.20992437 -0.1564857 0.12620786 0.1187297 -0.26367572 0.039326593
-0.24554296 -0.08007764 -0.2767187 0.06728027 0.27729034 -0.35007548 0.24788597 0.025244605
-0.28156257 0.008497114 -0.102179796 0.16258357 0.21679543 -0.010723517 0.009370478 0.09877541
-0.101263784 -0.06679898 0.045373484 -0.27778295 -0.3194405 -0.13250253 -0.13569386 -0.14384766
0.0840659 0.007069535 -0.2962861 -0.21973054 0.11516482 0.20318376 -0.18667923 0.094448544
0.25523823 -0.2396887 0.3290053 -0.04494472 0.06498272 -0.12447301 0.2589296 -0.117309846
-0.27976772 0.031349212 0.34801456 0.3484335 0.12036934 -0.3421067 -0.3295447 -0.22639923
0.22143203 0.20154493 -0.31663635 0.2735816 -0.014410066 -0.25082195 -0.1309463 -0.3239348
0.19362798 0.31250042 0.32339615 -0.16918586 -0.31577834 0.18609849 0.034173205 -0.24476689
-0.3320468 -0.016597414 0.17258456 0.3340251 0.08045706 0.32259792 -0.16917656 0.28946626
0.023931693 0.10796926 -0.04910083 0.23474362 -0.17332798 0.20786914 -0.08375376 -0.3328572
-0.19805883 -0.31049362 0.24733862 0.047695383 -0.037966534 0.042570062 -0.12468074 -0.25796726
-0.25436178 0.32120013 0.2289019 0.18957719 0.017858427 0.34120262 0.13538104 -0.32587484
-0.21503124 -0.21391697 -0.11697163 -0.08891366 0.051454347 0.17691357 0.06348464 0.34856734
-0.3455395 0.33834216 0.2701796 -0.26899338 -0.26881072 0.18934992 -0.25514573 0.24333191
-0.058984697 0.24555159 0.2952868 -0.32733455 0.29070923 0.09427627 -0.2545489 -0.33877248
0.25281835 0.21694419 -0.3472829 0.123239495 0.102466695 0.25093284 0.34540677 0.18765274
-0.024125565 0.05294983 -0.19324201 0.021368366 -0.25872424 -0.013029616 -0.28094587 -0.06540745
-0.1473142 0.029341124 0.11308924 -0.00063825096 -0.05735574 -0.107448034 -0.08704291 0.27939194
-0.10156996 0.22677992 -0.3206661 -0.20480569 -0.10422743 0.16756813 -0.051555574 -0.099693455
0.3321182 0.09181013 0.17251262 -0.1155395 0.017232906 -0.35465232 0.26752585 0.10671284
-0.3232056 -0.24848141 0.109186254 0.069538 0.3397708 -0.34951288 -0.14263877 -0.09038864
-0.23935539 -0.2950804 -0.1954543 0.22860657 -0.027820196 -0.15315934 -0.14915718 -0.13789983
0.14523123 -0.14394404 -0.009877026 0.07759316 0.04129254 -0.08821436 0.03861364 0.24574915
-0.15814899 -0.08248297 -0.3174093 -0.11724942 -0.22047086 -0.00039582382 -0.1798532 -0.190586
-0.34158194 0.10032234 0.18197021 -0.012275536 -0.079524405 -0.3182995 0.14958051 -0.11348524
0.17232934 0.24189791 0.11383697 -0.008282106 0.30482334 0.05924578 0.034332827 -0.027896833
-0.15424374 -0.07456135 0.28831887 0.0742232 -0.07519112 0.018616926 0.25579363 -0.33052787
0.3035112 -0.3305408 0.06838002 -0.2184632 -0.053817198 0.07261477 0.17888716 0.16542849
-0.24492133 0.017055463 0.13270596 0.025031518 -0.06604583 -0.008466881 0.087771274 0.18409523
00000000: 45ac e2bd 2084 9fbe 7cab 01bd f57f f9bd
00000010: 786c 5abe 7c5f 503d 2623 4c3e a230 a33e
00000020: b7bb a43d 5e05 6bbe f2d2 063e cef8 79be
00000030: ac27 a83e b88a a33e 6653 843e 8ca9 383d
00000040: d6d9 953e dbdb 73be 6af6 56be ca3d 20be
00000050: a23c 013e 8f28 f33d 8100 87be ec14 213d
00000060: 9d6f 7bbe bfff a3bd 13ae 8dbe 3dca 893d
00000070: 00f9 8d3e 183d b3be d2d5 7d3e c6cd ce3c
00000080: f828 90be 7b37 0b3c a443 d1bd 4f7c 263e
00000090: 9fff 5d3e b1b1 2fbc a286 193c c34a ca3d
000000a0: 6363 cfbd e7cd 88bd 8cd9 393d 9139 8ebe
000000b0: b58d a3be beae 07be 55f3 0abe cd4c 13be
000000c0: be2a ac3d 8fa7 e73b d0b2 97be 0b01 61be
000000d0: 88db eb3d 670f 503e d728 3fbe 3d6e c13d
000000e0: 96ae 823e f470 75be 6273 a83e f417 38bd
000000f0: a915 853d b5eb febd 6c92 843e 2540 f0bd
00000100: b73d 8fbe 0868 003d f72e b23e e065 b23e
00000110: 3384 f63d 9c28 afbe 15ba a8be 33d5 67be
00000120: 14bf 623e cb61 4e3e 291e a2be e312 8c3e
00000130: 3318 6cbc bc6b 80be c916 06be c8da a5be
00000140: 6a46 463e 0e00 a03e 2e94 a53e 0f3f 2dbe
00000150: b3ad a1be 9a90 3e3e 34f9 0b3d 2ca4 7abe
00000160: 0a02 aabe 4df7 87bc 02ba 303e 5705 ab3e
00000170: acc6 a43d 8e2b a53e 9f3c 2dbe ec34 943e
00000180: 660c c43c fd1e dd3d f41d 49bd a260 703e
00000190: e47c 31be a6db 543e 1787 abbd 426c aabe
000001a0: efcf 4abe 05f9 9ebe 5646 7d3e 3c5c 433d
000001b0: cc82 1bbd f25d 2e3d 9e58 ffbd 4914 84be
000001c0: b53b 82be 5874 a43e 4265 6a3e 8620 423e
000001d0: d64b 923c 1cb2 ae3e 54a1 0a3e 11d9 a6be
000001e0: 2631 5cbe 0d0d 5bbe d28e efbd 5d18 b6bd
000001f0: cbc1 523d d528 353e 3c04 823d 6b77 b23e
00000200: 8eea b0be 2f3b ad3e fb54 8a3e 80b9 89be
00000210: 8fa1 89be f2e4 413e 76a2 82be 002c 793e
00000220: f099 71bd e071 7b3e d52f 973e 6598 a7be
00000230: d7d7 943e eb13 c13d 3c54 82be 9673 adbe
00000240: 6871 813e 9e26 5e3e 10cf b1be fd64 fc3d
00000250: 0fda d13d 457a 803e 28d9 b03e 0a28 403e
00000260: faa2 c5bc ece1 583d 3ce1 45be b60c af3c
00000270: 8177 84be 2c7a 55bc 23d8 8fbe 57f4 85bd
00000280: 89d9 16be cc5c f03c 559b e73d 4c50 27ba
00000290: daed 6abd b70d dcbd 8e43 b2bd 760c 8f3e
000002a0: e903 d0bd ff38 683e 592e a4be 95b8 51be
000002b0: 3175 d5bd fb96 2b3e f02b 53bd 152c ccbd
000002c0: 660b aa3e f306 bc3d 26a7 303e f99f ecbd
000002d0: 062c 8d3c fd94 b5be 26f9 883e 438c da3d
000002e0: 347b a5be e971 7ebe 0b9d df3d f069 8e3d
000002f0: 70f6 ad3e 5af3 b2be e60f 12be ae1d b9bd
00000300: 9419 75be c714 97be 2c25 48be d717 6a3e
00000310: 2ee7 e3bc cdd5 1cbe a9bc 18be 9d35 0dbe
00000320: 7fb7 143e 1166 13be 40d3 21bc 2ae9 9e3d
00000330: 5e22 293d bba9 b4bd 5629 1e3d aaa5 7b3e
00000340: cff1 21be d5ec a8bd 7983 a2be 7720 f0bd
00000350: 1dc3 61be 9386 cfb9 702b 38be fa28 43be
00000360: d4e3 aebe cd75 cd3d 6656 3a3e 541f 49bc
00000370: b1dd a2bd 27f8 a2be a22b 193e f36a e8bd
00000380: 1a77 303e 16b4 773e 5b23 e93d acb1 07bc
00000390: ce11 9c3e b4ab 723d 94a0 0c3d e687 e4bc
000003a0: 12f2 1dbe 9fb3 98bd 889e 933e 5502 983d
000003b0: cdfd 99bd 8682 983c 62f7 823e f33a a9be
000003c0: d265 9b3e a53c a9be d30a 8c3d d1b4 5fbe
000003d0: 6c6f 5cbd 0db7 943d 322e 373e 1666 293e
000003e0: a8cc 7abe e6b7 8b3c 12e4 073e e60e cd3c
000003f0: 0943 87bd acb8 0abc 6dc1 b33d 7683 3c3e

bias f4 [320]
0.018520016 0.023698915 0.22207668 -0.018396515 -0.0384298 0.017157625 -0.29398173 -0.15627705
-0.26118097 -0.07316607 0.029238421 -0.13017017 -0.068578206 -0.04176327 0.15578344 -0.34206718
-0.28160423 -0.27345532 0.044386283 0.22788486 -0.19974172 -0.29603878 0.21674433 -0.056817748
-0.34944612 -0.33107486 -0.15190804 0.060566828 -0.013001423 -0.19800262 0.2432439 0.07549579
-0.32559985 0.32934058 -0.30617595 0.028609883 0.25163943 -0.092231445 -0.070362054 -0.0037109377
0.16981539 0.3481481 -0.0047066393 0.30687433 0.13203469 -0.17331737 -0.29394776 -0.05511205
0.17275658 0.06421175 -0.14918143 -0.13809165 -0.055174485 -0.0871909 0.14936563 -0.09690715
0.23133609 -0.2261581 -0.34719875 0.10494671 0.24343428 0.20806 0.1938071 -0.032047182
-0.08029737 -0.21561843 -0.2634992 0.015121032 0.07960891 -0.21709426 0.08265322 -0.026078034
0.16433457 0.26230407 -0.032776013 0.21750197 -0.02895109 -0.1495653 0.3327846 0.19084468
0.19269076 -0.06793111 -0.33249784 0.30086833 -0.12680282 0.23895535 0.32570118 -0.033483103
0.070306264 -0.26941228 -0.077316724 0.07744331 -0.20003276 -0.17294821 -0.005161214 0.14402494
-0.067552194 -0.28646985 0.00378446 0.26758242 0.27542323 -0.24409367 0.051223267 -0.19017772
-0.19161426 0.3308695 -0.19922656 0.2261143 0.26527512 -0.1213989 0.09623588 -0.1307585
-0.08215179 0.19488874 -0.1166686 0.08332626 -0.22412914 0.04800152 0.1937376 -0.25655973
-0.27901605 -0.310954 0.14232373 -0.19921601 0.013398445 -0.30755526 -0.2881083 -0.07958364
-0.06149132 0.20046696 0.3151365 0.24132124 0.33777124 0.19911543 0.11840377 0.023594592
-0.09274327 0.1247788 0.04050772 0.12336583 -0.30450666 0.18959591 -0.2874162 -0.05976014
0.27244425 0.18118718 0.14425316 -0.2641604 -0.3173358 0.15816882 -0.21409777 -0.2425586
-0.10559471 -0.028283296 0.031045634 -0.11415365 -0.30053964 -0.31675154 0.028218787 0.20856592
-0.28598097 -0.28446743 0.33030295 0.16098514 -0.17937386 0.30284482 0.3141216 0.32765293
-0.22222328 -0.102533005 -0.042923942 0.14653057 -0.103010945 0.07364435 0.022385698 0.31951338
-0.328232 0.08361106 -0.21332596 -0.20335808 0.24047062 -0.16223353 -0.28787443 -0.33797827
-0.01451106 0.25897306 0.14940748 0.076602615 0.1499925 -0.23906937 -0.0538004 0.28347957
-0.32947809 0.16023609 -0.31635067 -0.21582271 -0.020371478 0.008730393 -0.30567926 -0.32323244
-0.34219837 -0.3378441 -0.30745572 0.33652914 -0.33844918 0.11012917 0.23521754 -0.34961206
0.15321925 -0.21965629 0.0007104073 0.23743787 -0.042353496 -0.22785413 0.23754737 -0.08568541
-0.33104557 -0.03257315 -0.024099689 0.35080528 0.3556689 -0.058724716 -0.10272852 0.2587272
0.23579839 0.25487345 -0.22075215 -0.2869185 0.08686935 -0.23954287 -0.27813116 0.30224073
-0.34392875 -0.327968 0.027324168 0.036931142 -0.16582623 -0.25290826 -0.025517125 -0.28993392
0.28878963 0.107377015 0.15342703 -0.23263621 -0.004282433 0.290909 -0.13224277 0.3234709
0.062384322 -0.14368685 0.2173197 0.074469455 -0.31502712 -0.29338625 0.27427435 0.3189329
00000000: 4ab7 973c 3a24 c23c 1268 633e 4ab4 96bc
00000010: 9168 1dbd 268e 8c3c c684 96be 1707 20be
00000020: 83b9 85be 18d8 95bd 6a85 ef3c 544b 05be
00000030: bb72 8cbd f60f 2bbd b285 1f3e 6e23 afbe
00000040: 6e2e 90be 5602 8cbe 64ce 353d a65a 693e
00000050: 1889 4cbe 6592 97be 3af2 5d3e bab9 68bd
00000060: 9aea b2be a582 a9be c88d 1bbe ec14 783d
00000070: ec03 55bc 33c1 4abe ee14 793e 899d 9a3d
00000080: 06b5 a6be 549f a83e 18c3 9cbe 465f ea3c
00000090: e2d6 803e d7e3 bcbd fb19 90bd 3433 73bb
000000a0: 16e4 2d3e 7840 b23e 273a 9abb a21e 9d3e
000000b0: 1a34 073e 1c7a 31be 5280 96be 2cbd 61bd
000000c0: 1ae7 303e 7381 833d 04c3 18be e667 0dbe
000000d0: a4fe 61bd 2591 b2bd 4ef3 183e 4177 c6bd
000000e0: 5ee3 6c3e fd95 67be 09c4 b1be 4dee d63d
000000f0: d646 793e ae0d 553e 5e75 463e e843 03bd
00000100: f372 a4bd 14cb 5cbe 5ee9 86be 34be 773c
00000110: ff09 a33d f54d 5ebe 1746 a93d 9aa1 d5bc
00000120: 5247 283e b84c 863e 2440 06bd d6b8 5e3e
00000130: d62a edbc a527 19be be62 aa3e ca6c 433e
00000140: ba50 453e 771f 8bbd 283d aabe 6a0b 9a3e
00000150: 99d8 01be b6b0 743e 4ec2 a63e 9425 09bd
00000160: bbfc 8f3d 68f0 89be 3b58 9ebd 999a 9e3d
00000170: 63d5 4cbe 5619 31be 671f a9bb 467b 133e
00000180: ce58 8abd 2dac 92be b404 783b 9000 893e
00000190: 4604 8d3e b1f3 79be 7dcf 513d f3bd 42be
000001a0: 8736 44be ba67 a93e 0c02 4cbe 828a 673e
000001b0: 24d2 873e fd9f f8bd 5117 c53d 8ee5 05be
000001c0: 333f a8bd ea90 473e f2ef eebd f5a6 aa3d
000001d0: 1c82 65be 3e9d 443d 2663 463e cc5b 83be
000001e0: 31db 8ebe 5d35 9fbe 50bd 113e 48ff 4bbe
000001f0: 2785 5b3c e277 9dbe ee82 93be bffc a2bd
00000200: 53de 7bbd 3647 4d3e 9259 a13e ea1c 773e
00000210: 5af0 ac3e eae4 4b3e ad7d f23d 7249 c13c
00000220: 2ff0 bdbd 078c ff3d 6ceb 253d 39a7 fc3d
00000230: 4ce8 9bbe 6e25 423e 3728 93be 0cc7 74bd
00000240: d07d 8b3e 2289 393e 1ab7 133e 0840 87be
00000250: d779 a2be 02f7 213e 723c 5bbe 4861 78be
00000260: 0a42 d8bd 5fb2 e7bc 6a53 fe3c 64c9 e9bd
00000270: 55e0 99be 422d a2be 162b e73c 4e92 553e
00000280: 196c 92be b7a5 91be 781d a93e 4ad9 243e
00000290: c8ad 37be 7a0e 9b3e 8cd4 a03e 20c2 a73e
000002a0: 808e 63be d3fc d1bd 04d1 2fbd 1c0c 163e
000002b0: 67f7 d2bd d9d2 963d 3662 b73c 4297 a33e
000002c0: 060e a8be 473c ab3d 1f72 5abe 1a3d 50be
000002d0: ee3d 763e 8c20 26be 4764 93be 7d0b adbe
000002e0: ccbf 6dbc 1e98 843e 46fe 183e d5e1 9c3d
000002f0: a297 193e 9ace 74be cf5d 5cbd 3c24 913e
00000300: 5ab1 a8be ee14 243e b7f8 a1be a100 5dbe
00000310: 16e2 a6bc ec09 0f3c fe81 9cbe b97e a5be
00000320: a034 afbe e7f9 acbe d66a 9dbe 8c4d ac3e
00000330: 3649 adbe 678b e13d dedc 703e 5a00 b3be
00000340: 82e5 1c3e 94ed 60be a03a 3a3a ea22 733e
00000350: dc7a 2dbd 9852 69be 9e3f 733e d57b afbd
00000360: ce7e a9be 6c6b 05bd b66c c5bc c09c b33e
00000370: 3c1a b63e 5489 70bd 5563 d2bd e477 843e
00000380: 2275 713e c67e 823e da0c 62be fbe6 92be
00000390: 8fe8 b13d ba4a 75be 3567 8ebe 4cbf 9a3e
000003a0: 6e17 b0be 6ceb a7be efd6 df3c 1c45 173d
000003b0: 5ace 29be 317d 81be 4a09 d1bc 3872 94be
000003c0: 3cdc 933e 7be8 db3d fa1b 1d3e 3038 6ebe
000003d0: a753 8cbb 06f2 943e a66a 07be fa9d a53e
000003e0: b486 7f3d a522 13be 0e89 5e3e 7183 983d
000003f0: 3c4b a1be b936 96be b06d 8c3e 2c4b a33e

weight f4 [4, 320]
0.02532075 -0.048699066 -0.040400144 -0.00028604933 0.048161183 -0.05375827 0.033874795 0.045428984
0.0021023569 -0.029253896 -0.034482025 0.04535739 0.005813412 -0.0031327254 0.022986341 -0.04507081
0.039846268 0.012028926 -0.009854581 -0.008886922 -0.041350346 -0.006274203 0.050946973 0.012479534
0.0048488555 0.01692236 -0.037376665 0.03738919 -0.022052046 0.049276553 0.04094585 -0.010475181
-0.0033704517 0.04956469 -0.037018813 -0.04910846 0.018230934 -0.04134524 0.012526352 -0.042197637
0.036867112 0.053780183 0.02460811 -0.03311741 -0.021620482 0.011604239 0.023002472 -0.03479355
-0.00780858 0.009936053 -0.04156042 -0.05034011 -0.047005128 0.0055117602 -0.0108862445 0.03402446
0.006277326 0.04933311 -0.041530766 0.020362277 0.04131213 0.042630635 -0.024392521 0.026710505
-0.017837677 -0.00025628076 -0.033509135 -0.004535888 0.020117972 0.02117224 0.03338106 0.0013683285
0.043649115 0.018044423 0.009105887 -0.03738752 -0.012285944 0.026904738 -0.046297707 0.026033815
-0.05072223 -0.030413968 -0.0029434487 0.007618505 -0.021656103 0.012772705 0.05462697 0.0066256667
0.04160232 0.0137834065 -0.042079724 -0.054686446 -0.044260994 -0.0064443294 -0.028373044 0.035805054
-0.0076378337 0.016654586 0.045912772 0.0043660915 0.042085536 0.007803718 -0.022317981 -0.013602348
0.045855694 -0.030240854 0.0040668547 -0.017991614 0.016045313 -0.010541912 0.047851242 0.012523037
0.0006880249 0.0034790528 0.040610027 -0.04954105 0.050936908 -0.034382 0.00698809 -0.04318611
0.00077167916 -0.041059814 0.051999345 0.048712224 0.002570957 0.021862628 0.015093494 -0.01390842
0.020510476 0.055920817 0.04842224 0.05376882 0.01752432 0.010200795 -0.055182874 -0.015219122
0.054630205 0.009704348 0.05100029 -0.043307222 0.048547417 -0.008034475 -0.007619474 -0.005119421
0.03810294 -0.029365119 -0.02763006 0.021432728 0.00025605346 0.009165663 0.0008275802 -0.0065154964
-0.04083741 -0.05346531 -0.050814193 0.014428936 0.013150233 -0.019586755 -0.020755924 -0.034556434
-0.011658359 -0.027381172 -0.004507419 0.05330407 -0.042088557 -0.0038144295 -0.04570557 0.048360765
-0.009799905 0.03972715 0.0039351685 0.046273373 -0.0047674705 0.03621818 -0.040959045 0.034542926
-0.02355516 0.031886823 0.0339161 0.021024559 0.054983735 0.005402158 0.010032414 0.0035654837
0.047030725 -0.035625167 0.0039138864 0.009483587 0.056662098 0.044605985 0.025902443 -0.030126868
0.038861383 -0.015760329 -0.03068114 -0.009952452 -0.037489995 -0.03248972 -0.0021202476 -0.00026121302
-0.03479203 0.044840008 -0.013339017 -0.03486955 -0.023478994 -0.028540855 0.055291615 -0.023954289
-0.0336232 0.038964912 -0.044666372 0.011419211 -0.0010243453 0.02813134 -0.006442212 -0.0497099
0.035798475 0.027151573 0.05467333 -0.031102095 -0.011129186 -0.04848494 0.009153996 -0.01697924
0.006545591 0.0037600133 0.037510596 0.049564905 0.003647379 -0.01657974 -0.030662896 -0.008901831
-0.0331932 0.017181631 -0.03314861 -0.05197582 -0.006768582 -0.0505677 -0.039478406 0.020438945
0.04496427 -0.03769819 -0.021935496 0.04983854 0.028928164 -0.013611078 0.01691639 0.009223614
0.011355188 0.009830464 -0.04358299 -0.046527892 0.024940807 -0.025603168 -0.012606207 0.015816953
00000000: 766d cf3c ac78 47bd 9f7a 25bd e4f8 95b9
00000010: a944 453d a231 5cbd 4cc0 0a3d be13 3a3d
00000020: b2c7 093b dea5 efbc 063d 0dbd acc8 393d
00000030: 6f7e be3b 694e 4dbb da4d bc3c 2b9c 38bd
00000040: d735 233d f914 453c 1c75 21bc 749a 11bc
00000050: fb5e 29bd d497 cdbb c6ad 503d f676 4c3c
00000060: 26e3 9e3b c3a0 8a3c 4618 19bd 6825 193d
00000070: 7ea6 b4bc 36d6 493d d6b6 273d 18a0 2bbc
00000080: cce2 5cbb 5804 4b3d 0aa1 17bd f425 49bd
00000090: 0a59 953c a059 29bd 543b 4d3c 6ed7 2cbd
000000a0: f801 173d 9c48 5c3d f296 c93c 1fa6 07bd
000000b0: 701d b1bc b51f 3e3c ae6f bc3c ae83 0ebd
000000c0: 1edf ffbb d4ca 223c 423b 2abd 6e31 4ebd
000000d0: 7388 40bd ff9b b43b 385c 32bc 3b5d 0b3d
000000e0: 07b2 cd3b 8411 4a3d 2a1c 2abd cace a63c
000000f0: e836 293d 769d 2e3d d3d2 c7bc fdcf da3c
00000100: 5220 92bc 6c5d 86b9 e040 09bd c9a1 94bb
00000110: 72ce a43c 6871 ad3c 94ba 083d 7c59 b33a
00000120: 6ac9 323d e6d1 933c dc30 153c a823 19bd
00000130: fc4a 49bc 5367 dc3c aaa2 3dbd de44 d53c
00000140: 1dc2 4fbd b726 f9bc e0e6 40bb a7a4 f93b
00000150: 2468 b1bc 9c44 513c 88c0 5f3d 1f1c d93b
00000160: 3267 2a3d ccd3 613c ca5b 2cbd e5fe 5fbd
00000170: 044b 35bd f42a d3bb 966e e8bc 52a8 123d
00000180: cb46 fabb 336f 883c 080f 3c3d 6e11 8f3b
00000190: e261 2c3d 55b6 ff3b 33d4 b6bc 62dc 5ebc
000001a0: 2ed3 3b3d abbb f7bc 4043 853b 2663 93bc
000001b0: 7671 833c fcb7 2cbc aaff 433d 6d2d 4d3c
000001c0: 925c 343a d200 643b b356 263d 8eeb 4abd
000001d0: 38a3 503d 24d4 0cbd 59fc e43b ebe3 30bd
000001e0: 834a 4a3a 562e 28bd 44fd 543d 7886 473d
000001f0: 807d 283b 4119 b33c b44a 773c 24e0 63bc
00000200: 9605 a83c 3a0d 653d 6656 463d b23c 5c3d
00000210: 2a8f 8f3c 3c21 273c 7007 62bd a059 79bc
00000220: ecc3 5f3d fcfe 1e3c aee5 503d ea62 31bd
00000230: a8d9 463d 08a3 03bc c8ac f9bb d1c0 a7bb
00000240: d411 1c3d 1e8f f0bc 7058 e2bc b093 af3c
00000250: ea3e 8639 942b 163c f8f1 583a f27f d5bb
00000260: 2145 27bd 71fe 5abd 8b22 50bd 5867 6c3c
00000270: 1374 573c 6774 a0bc 5408 aabc 0c8b 0dbd
00000280: b402 3fbc 7b4e e0bc f9b2 93bb 5e55 5a3d
00000290: 0d65 2cbd 82fb 79bb c435 3bbd f015 463d
000002a0: c88f 20bc f0b8 223d 96f2 803b 2689 3d3d
000002b0: 7138 9cbb 8459 143d acc4 27bd e27c 0d3d
000002c0: c0f6 c0bc c29b 023d 9ceb 0a3d b23b ac3c
000002d0: a036 613d 9604 b13b ff5e 243c e4aa 693b
000002e0: 4aa3 403d b2eb 11bd 0f40 803b 0c61 1b3c
000002f0: 8416 683d c4b4 363d 5c31 d43c 9fcc f6bc
00000300: 1d2d 1f3d ce1b 81bc 0457 fbbc 9c0f 23bc
00000310: 1c8f 19bd f113 05bd daf3 0abb 6bf3 88b9
00000320: 1682 0ebd 28aa 373d e48b 5abc 60d3 0ebd
00000330: 0557 c0bc 83ce e9bc 7679 623d c93b c4bc
00000340: 7bb8 09bd ac99 1f3d 16f4 36bd a417 3b3c
00000350: 5343 86ba b273 e63c 3119 d3bb 9c9c 4bbd
00000360: 6ca1 123d fa6c de3c 24f1 5f3d d2c9 febc
00000370: 3057 36bc 2598 46bd a4fa 153c 0c18 8bbc
00000380: 667c d63b 8e6a 763b b6a4 193d 9204 4b3d
00000390: de08 6f3b 3cd2 87bc c130 fbbc fcd8 11bc
000003a0: 98f5 07bd 7ec0 8c3c d6c6 07bd 99e4 54bd
000003b0: fbca ddbb 1420 4fbd 1cb4 21bd 936f a73c
000003c0: 742c 383d 6b69 1abd 12b2 b3bc 7f23 4c3d
000003d0: c2fa ec3c 0001 5fbc 3e94 8a3c a41e 173c
000003e0: 1c0b 3a3c f40f 213c 1484 32bd 0894 3ebd
000003f0: aa50 cc3c bcbd d1bc 448a 4ebc 8e92 813c

bias f4 [4]
-0.033570375 -0.012013894 0.004876491 0.053554088
00000000: 1781 09bd ecd5 44bc f9ca 9f3b 885b 5b3d

weight f4 [4, 8]
-0.06902994 -0.056375388 0.11473348 -0.07269834 -0.03917948 -0.041287083 -0.13600615 0.109852016
0.06940871 -0.002672356 0.0534382 -0.18064952 0.0018058242 0.13304633 -0.24703446 -0.23133843
0.23933755 -0.34915975 -0.09419697 0.2468168 -0.16075328 -0.12834936 -0.018737888 0.27139494
0.029383104 0.051666126 -0.3173574 0.22291562 0.13985544 0.3314258 0.22754225 -0.20134722
00000000: 925f 8dbd e1e9 66bd 63f9 ea3d dee2 94bd
00000010: aa7a 20bd a51c 29bd 3245 0bbe 18fa e03d
00000020: 2726 8e3d b222 2fbb 04e2 5a3d 30fc 38be
00000030: 68b1 ec3a 4c3d 083e 9af6 7cbe fbe3 6cbe
00000040: e714 753e 11c5 b2be 57ea c0bd 8bbd 7c3e
00000050: 829c 24be 046e 03be 3380 99bc 47f4 8a3e
00000060: d6b4 f03c dc9f 533d ab7c a2be fe43 643e
00000070: 4436 0f3e a4b0 a93e d600 693e f72d 4ebe

bias f4 [4]
-0.27895012 0.13650382 -0.32024017 0.020861764
00000000: 8dd2 8ebe a8c7 0b3e 85f6 a3be 4ae6 aa3c

weight f4 [4, 8]
0.32102922 0.29162276 -0.11763265 0.026517961 0.28002313 -0.19087304 0.082600385 -0.26984042
-0.013631988 -0.10763084 -0.01726808 0.026933055 -0.16068517 0.18407121 -0.099556416 -0.32339165
-0.1291082 -0.029215764 -0.012700181 0.3317886 0.24373102 -0.016356688 -0.32190755 0.3164028
-0.22499485 -0.16795823 0.25534987 0.27024925 -0.061607003 0.19991574 -0.20641457 0.00928567
00000000: f15d a43e 944f 953e 63e9 f0bd 323c d93c
00000010: 315f 8f3e 3974 43be 642a a93d 8628 8abe
00000020: b458 5fbc 8f6d dcbd ca75 8dbc b6a2 dc3c
00000030: a78a 24be 2a7d 3c3e 3ce4 cbbd 9793 a5be
00000040: f134 04be e655 efbc 6c14 50bc 32e0 a93e
00000050: a094 793e 76fe 85bc 11d1 a4be 8cff a13e
00000060: 0d65 66be 3efd 2bbe 38bd 823e 1c5e 8a3e
00000070: a057 7cbd b6b6 4c3e 575e 53be ec22 183c

bias f4 [4]
-0.27922323 0.036229357 0.093947224 0.33448732
00000000: 59f6 8ebe 3c65 143d 6767 c03d ec41 ab3e

weight f4 [10, 2]
-0.40879062 -0.35417145 -0.21794547 0.1579438 0.4784976 -0.4925337 -0.15425098 -0.66016984
0.7076812 0.11297447 -0.44259053 0.41634718 -0.26963025 -0.6900122 -0.50836045 0.3162699
-0.10103155 0.078194864 -0.62873757 -0.17698312
00000000: 014d d1be f655 b5be 192d 5fbe 05bc 213e
00000010: a3fd f43e 612d fcbe f8f3 1dbe e400 29bf
00000020: 982a 353f 295f e73d 3a9b e2be 752b d53e
00000030: fa0c 8abe a4a4 30bf e923 02bf 21ee a13e
00000040: a1e9 cebd a124 a03d f2f4 20bf 103b 35be

bias f4 [10]
0.22124785 -0.15509038 -0.22801486 0.46558586 0.654642 0.26359764 -0.19426507 0.6058761
0.3970432 -0.080472715
00000000: cc8e 623e 03d0 1ebe ba7c 69be 4561 ee3e
00000010: 9e96 273f 45f6 863e 6ced 46be b21a 1b3f
00000020: 3f49 cb3e e1ce a4bd

weight f4 [10, 2]
0.6684197 0.44590142 0.59460115 0.008114528 0.31434897 -0.42807257 -0.3438485 0.19766885
0.25503686 0.39389858 0.20299095 -0.2570708 0.6523911 -0.6328642 0.32526514 0.57670236
-0.07718033 -0.65895295 0.0101961605 0.66360104
00000000: 8e1d 2b3f 314d e43e c837 183f ccf2 043c
00000010: 59f2 a03e 542c dbbe e90c b0be b469 4a3e
00000020: 3194 823e 13ad c93e dcdc 4f3e c99e 83be
00000030: 1a03 273f 6303 22bf 2789 a63e c4a2 133f
00000040: b910 9ebd 24b1 28bf cc0d 273c c2e1 293f

bias f4 [10]
-0.47424027 0.6586926 0.058052972 -0.45188484 -0.14263368 0.63261616 0.14332229 0.23883522
-0.6445513 0.55920124
00000000: 9fcf f2be 14a0 283f f4c8 6d3d 735d e7be
00000010: 900e 12be 22f3 213f 14c3 123e 3891 743e
00000020: 5001 25bf d027 0f3f

weight f4 [20, 4]
0.10127748 -0.26298627 0.3300725 0.3710828 -0.20302504 0.37846228 0.4183233 0.1617173
-0.2530252 0.2787011 0.36287513 -0.38223776 0.03098853 -0.4893897 -0.17991132 0.062928684
0.16638613 0.0019321919 0.45388427 0.12549752 -0.32235768 0.35233554 -0.07942129 0.4654852
-0.4510953 0.17322105 -0.46051875 -0.075771265 0.27015802 -0.06812798 -0.27452353 0.06109558
-0.0312665 -0.3313938 -0.017444659 -0.27525762 -0.20348358 0.2042731 0.07429046 -0.2385112
0.4598774 -0.4449722 -0.00798757 0.015635025 0.052073672 0.28154102 0.31557277 0.27585557
-0.43570533 0.02751099 0.019686747 -0.4441147 -0.17066538 0.111476116 -0.22115827 0.4427354
0.24196285 -0.09387959 0.26957586 -0.14033914 0.35098365 -0.3004084 -0.45887086 -0.4586211
-0.11986739 -0.12179089 0.03858398 -0.17405361 0.18886244 0.040082827 0.13574588 0.16329873
-0.1439504 -0.07613199 -0.14314616 -0.10722726 -0.096819334 0.4651483 0.037979856 -0.41506234
00000000: 916a cf3d 23a6 86be 43ff a83e 91fe bd3e
00000010: cce5 4fbe cfc5 c13e 792e d63e 3899 253e
00000020: 858c 81be e9b1 8e3e c5ca b93e abb4 c3be
00000030: a8db fd3c 4991 fabe ac3a 38be c1e0 803d
00000040: 2061 2a3e 9a41 fd3a 8563 e83e 6c82 003e
00000050: 110c a5be 5365 b43e a1a7 a2bd 1354 ee3e
00000060: f7f5 e6be dc60 313e 1dc9 ebbe f72d 9bbd
00000070: 2752 8a3e af86 8bbd 598e 8cbe 5c3f 7a3d
00000080: 4d11 00bd 73ac a9be 1ae8 8ebc 91ee 8cbe
00000090: 005e 50be f82c 513e 9925 983d 483c 74be
000000a0: 0d75 eb3e 65d3 e3be 4cde 02bc 0615 803c
000000b0: 344b 553d 2526 903e c192 a13e f13c 8d3e
000000c0: c514 dfbe ba5e e13c 1a46 a13c 0163 e3be
000000d0: e8c2 2ebe 974d e43d 5077 62be 37ae e23e
000000e0: 1cc5 773e f143 c0bd d905 8a3e 10b5 0fbe
000000f0: 21b4 b33e 21cf 99be 1ff1 eabe 63d0 eabe
00000100: 097d f5bd 816d f9bd 3c0a 1e3d 1c3b 32be
00000110: 2865 413e e42d 243d f800 0b3e c837 273e
00000120: bc67 13be 17eb 9bbd e894 12be f799 dbbd
00000130: 3749 c6bd eb27 ee3e c490 1b3d 0d83 d4be

bias f4 [20]
-0.41598764 0.14266336 -0.41890123 0.46220556 0.1562491 0.1656034 -0.4683759 -0.30896774
0.011330534 0.4324471 0.22688746 -0.47218218 -0.36017194 -0.26139578 -0.06064208 0.12780476
-0.1890443 0.25474688 0.2547075 -0.14192969
00000000: 55fc d4be 5816 123e 397a d6be 35a6 ec3e
00000010: c4ff 1f3e f093 293e f7ce efbe 0531 9ebe
00000020: b4a3 393c b569 dd3e 3055 683e ddc1 f1be
00000030: 7568 b8be abd5 85be d463 78bd 40df 023e
00000040: d494 41be 2f6e 823e 0569 823e 0456 11be

weight_ih_l0 f4 [12, 10]
0.22049206 0.1274117 -0.25719497 0.46918467 0.38142756 -0.415657 0.37551454 -0.3887562
0.44762042 0.005872655 -0.048932955 0.027357275 -0.29845157 0.44940653 -0.26732388 0.44456038
-0.21083295 0.0071222303 -0.21716022 -0.43278292 0.36189196 0.19882272 0.21100283 0.3029298
-0.35483 0.17133218 0.24572046 0.19697481 -0.06831794 -0.3801227 0.10556776 0.36233374
0.38894328 -0.1937514 -0.19173342 -0.4732739 0.3674005 -0.11342817 0.46839055 -0.18135202
0.3594412 0.06421767 -0.42342576 0.3483061 -0.030405117 -0.22295994 -0.29479793 -0.032335714
0.45433542 -0.4762974 -0.06899231 -0.17306507 -0.46294656 -0.4455767 -0.19552583 0.108137555
-0.48572913 0.18169421 -0.010433484 -0.2773278 -0.114247866 -0.21248576 -0.19181734 0.3059478
0.0026551366 -0.4229482 -0.4180971 0.093012385 -0.3753712 0.3239499 0.17091817 -0.27593523
0.36317155 -0.028943013 0.19034767 -0.4711981 0.12444586 0.46352807 0.3997009 -0.49767426
0.25361732 0.071682304 0.004910636 0.03544025 -0.10909367 -0.13028032 -0.35529026 -0.3583807
0.13505852 -0.083404906 -0.42232773 -0.13016222 -0.4984919 0.2616423 0.42481086 0.42653164
-0.19988269 -0.2855387 0.32106605 0.22919315 0.050672993 0.22702594 0.10702806 0.0069205645
0.3600079 -0.46473244 0.44232103 -0.4065598 0.39802542 -0.4162676 0.19697744 -0.42989978
-0.27579585 -0.07683844 -0.08186508 0.105813496 0.18034613 -0.22614777 0.020545352 0.2528322
00000000: acc8 613e 3678 023e 0faf 83be f938 f03e
00000010: 794a c33e ffd0 d4be 7143 c03e 0d0b c7be
00000020: 812e e53e 676f c03b ec6d 48bd 5d1c e03c
00000030: a5ce 98be 9d18 e63e adde 88be 6b9d e33e
00000040: 98e4 57be 9961 e93b 405f 5ebe b995 ddbe
00000050: e749 b93e 2f98 4b3e 2011 583e 9d19 9b3e
00000060: 47ac b5be b471 2f3e 259e 7b3e c4b3 493e
00000070: 47ea 8bbd 719f c2be e933 d83d cf83 b93e
00000080: 9323 c73e c466 46be c455 44be f550 f2be
00000090: eb1b bc3e 074d e8bd e3d0 ef3e 58b4 39be
000000a0: ad08 b83e 8e84 833d 43cb d8be 2d55 b23e
000000b0: 2714 f9bc 9c4f 64be c1ef 96be 7472 04bd
000000c0: a79e e83e 41dd f3be d74b 8dbd f837 31be
000000d0: 5507 edbe a122 e4be ec37 48be 3977 dd3d
000000e0: 7db1 f8be 0c0e 3a3e 34f1 2abc e9fd 8dbe
000000f0: c9fa e9bd de95 59be c46b 44be 31a5 9c3e
00000100: cd01 2e3b ab8c d8be d310 d6be 477d be3d
00000110: a730 c0be c3dc a53e 2c05 2f3e 6247 8dbe
00000120: 9ff1 b93e e619 edbc 80ea 423e e140 f1be
00000130: 79dd fe3d 8d53 ed3e 99a5 cc3e 29cf febe
00000140: 21da 813e 2cce 923d 67e9 a03b cc29 113d
00000150: 816c dfbd 3468 05be 9be8 b5be ad7d b7be
00000160: c84c 0a3e 31d0 aabd 573b d8be 3f49 05be
00000170: 553a ffbe fbf5 853e cf80 d93e 5b62 da3e
00000180: 0cae 4cbe 2132 92be c562 a43e 9cb1 6a3e
00000190: 7c8e 4f3d 7d79 683e 8731 db3d e7c5 e23b
000001a0: f552 b83e 69f1 edbe e777 e23e 9b28 d0be
000001b0: fdc9 cb3e 0721 d5be 74b4 493e d31b dcbe
000001c0: 1d35 8dbe 795d 9dbd e1a8 a7bd bfb4 d83d
000001d0: a8ac 383e 4893 67be ba4e a83c 3973 813e

weight_hh_l0 f4 [12, 4]
0.31911048 0.1817522 -0.22415483 0.46832046 -0.07840044 0.30086294 0.036932066 -0.48068646
-0.004929852 -0.04717596 0.16208953 0.028841306 -0.032662526 -0.32109764 0.143008 -0.09681351
-0.31476763 -0.36577287 0.4459391 -0.10570032 -0.38991562 0.27709666 -0.2212112 -0.28874788
0.4764429 -0.47501013 0.12577462 0.27809438 -0.007888366 -0.07266294 0.31787166 0.14651251
-0.33443746 0.35714188 0.088334195 -0.28423217 -0.43496206 -0.015745472 -0.4590151 -0.40119419
0.44123843 0.48614052 -0.1729812 0.43480828 -0.001900065 -0.05495058 0.48515794 -0.22634637
00000000: 7362 a33e 401d 3a3e d888 65be b3c7 ef3e
00000010: 6990 a0bd b50a 9a3e 1446 173d 891c f6be
00000020: 998a a1bb 943b 41bd ccfa 253e 9a44 ec3c
00000030: 24c9 05bd e966 a4be b070 123e 2946 c6bd
00000040: 3929 a1be 9546 bbbe 2152 e43e 6979 d8bd
00000050: 05a3 c7be 9ddf 8d3e 3085 62be c3d6 93be
00000060: 53f0 f33e 8734 f3be 10cb 003e 6362 8e3e
00000070: 343e 01bc 4fd0 94bd 13c0 a23e 6007 163e
00000080: 633b abbe 4ddb b63e 8fe8 b43d e186 91be
00000090: 59b3 debe a6fc 80bc 0704 ebbe 5369 cdbe
000000a0: 01ea e13e 69e7 f83e fc21 31be 319f de3e
000000b0: 9a0b f9ba dc13 61bd 9f66 f83e 58c7 67be

bias_ih_l0 f4 [12]
0.29629257 -0.28777495 -0.39033493 0.04249032 0.25043008 -0.2673665 -0.11336624 -0.12863076
-0.3513889 0.1411764 0.2512239 -0.40609553
00000000: a9b3 973e 3d57 93be fbd9 c7be 540a 2e3d
00000010: 5f38 803e 43e4 88be 8f2c e8bd c8b7 03be
00000020: 3fe9 b3be 8c90 103e 6ba0 803e c1eb cfbe

bias_hh_l0 f4 [12]
0.09745889 -0.2280308 -0.3661268 -0.46716157 0.3515598 0.47219577 0.2243402 -0.4974768
0.46791646 -0.026845206 0.26661852 -0.41502413
00000000: 8798 c73d e880 69be f974 bbbe cd2f efbe
00000010: a5ff b33e a5c3 f13e 70b9 653e 47b5 febe
00000020: bf92 ef3e 7aea dbbc 3982 883e 0b7e d4be
